Miniproject_1/bestmodel.pth (torch, 772193 bytes, 38 tensors)

conv1.weight f4 [64, 3, 3, 3]
000000 43 70 66 3f 98 e3 8c bf 76 b3 aa 3f ea fd 89 3d
       0.9001505 -1.1006956 1.3336017 0.067378834
000010 27 b5 e5 bf cd 67 ca 3e 55 41 a2 be 05 74 f3 3e
       -1.7945908 0.3953232 -0.3169047 0.47549453
000020 1a 5e ea bd 87 10 60 bf 4d c9 94 3f a4 ef 5d bf
       -0.1144373 -0.8752522 1.1623932 -0.8669379
000030 14 a9 49 3e da ca 8c 3f 63 c7 1e bf 5d 77 0c 3f
       0.19693404 1.0999405 -0.6202299 0.54869634
000040 0a e7 c6 be f8 80 b1 3d 96 95 3e be 35 ad 1b bd
       -0.38848144 0.08667177 -0.1861175 -0.03800698
000050 f8 b7 01 bf 2a f3 4b be 13 c5 3c 3f 7d 4a 8a 3e
       -0.5067134 -0.19916978 0.7373821 0.27009955
000060 22 5b 72 be 31 e4 fe 3b 74 56 5a 3b 65 db db 3e
       -0.23667577 0.0077786674 0.003331569 0.42940822
000070 5d b7 aa bf be fc 50 bd 83 2e 54 3f df 43 89 bf
       -1.3337208 -0.051022284 0.8288347 -1.0723838
000080 59 24 e2 3d 86 36 30 3f 95 df ad 3d b2 cb ef be
       0.11042089 0.68833196 0.084899105 -0.46835095
000090 60 fb 02 3f 75 97 dc bf 16 5c 9d be f7 7c 0f 3f
       0.5116482 -1.7233721 -0.30734318 0.56050056
0000a0 a9 0d a8 be af 28 40 3e ad 73 8d 3f 40 0c 16 3e
       -0.32822922 0.1876552 1.1050926 0.1465311
0000b0 2f 05 47 3e d1 b2 05 3f 2d 73 49 bf 87 58 22 3e
       0.19435571 0.5222598 -0.7869137 0.15854083
0000c0 09 63 5b be a3 f7 ef bd a6 35 05 bd 5c 9d f7 3e
       -0.21424498 -0.11717155 -0.032521866 0.48362243
0000d0 ab da 94 be 28 fa 01 3e 45 f3 d4 3d 73 6c e4 bd
       -0.2907308 0.12693083 0.103979625 -0.111534975
0000e0 b8 ca df 3d ce c0 d9 3e 5f 22 d8 bf 02 b2 88 3f
       0.109273374 0.4252991 -1.6885489 1.0679324
0000f0 6e ef 1e 3d 4a 7c 96 3d 2b c5 b7 3d 04 b9 4d 3d
       0.038802557 0.07347925 0.08973154 0.050225273
000100 40 93 30 bc 39 b3 15 3e 78 40 8d 3e 5a 40 e4 bf
       -0.010777295 0.1461915 0.27588248 -1.7832139
000110 43 2a ab 3f a2 95 88 3d 52 d6 07 bd b8 56 65 bd
       1.3372272 0.06669165 -0.033163376 -0.055990905
000120 1c 88 77 be ff e0 13 3e 25 83 81 be c2 7f f1 3d
       -0.24173015 0.14441298 -0.25295368 0.11791946
000130 f9 6f ac bf 77 ea ca 3f dd a7 0a 3d be 31 60 bd
       -1.3471671 1.5852803 0.033851493 -0.054734938
000140 c1 f8 45 bd 91 78 d7 3d 94 73 74 bf ae 55 9c 3d
       -0.048332933 0.10521043 -0.9548886 0.076335296
000150 f1 19 1a be bc 0f fb be fc 7c 3b 3f 82 8b 18 3e
       -0.15048958 -0.49035442 0.73237586 0.14896968
000160 b6 44 c9 3e 94 7f 6c 3e b3 f6 ef be fd 5e 1a 40
       0.39310235 0.23095542 -0.46867904 2.4120476
000170 f0 15 80 be bc 6a 3b 3e 98 0b 05 3f ce 20 46 bf
       -0.25016737 0.18302435 0.51970816 -0.77393806
000180 58 95 fa be 69 3d 42 bf 44 14 e3 be bb 00 00 3f
       -0.48942065 -0.75874954 -0.443514 0.50001115
000190 27 d5 eb bf 9d 98 77 3e 71 10 38 be 09 20 97 3d
       -1.8424424 0.24179311 -0.17975022 0.07379157
0001a0 da b8 fd 3d da de de 3e b5 7f bd 3e 3f 0e 63 3e
       0.12388773 0.43529397 0.37011495 0.22173403
0001b0 2a 0b 93 bf da fc 81 bf 70 46 ab bf 0e 32 13 be
       -1.1487782 -1.0155289 -1.3380871 -0.14374563
0001c0 06 5f 1f 3f 95 60 83 3e c9 2f f1 3e 07 e0 95 3f
       0.6225437 0.25659624 0.4710677 1.1708993
0001d0 16 b4 24 3f d9 50 69 bf db 93 64 bf dd 52 33 bf
       0.6433729 -0.9113899 -0.8928811 -0.70048314
0001e0 c2 13 93 3e c6 e4 a2 3e 4d bc 52 3c 2e 75 ff 3e
       0.28726012 0.31815165 0.012862277 0.49894089
0001f0 98 88 6c 3f b6 5f 05 3f 02 92 cf be 7d ec c2 be
       0.92395926 0.5209917 -0.40541083 -0.3807105
000200 3f e8 6e 3d fa 07 33 bd fc 0a 9d 3e b0 4b ae be
       0.058326956 -0.04370878 0.30672443 -0.3404212
000210 7a f8 1c be 19 f6 4a 3f 5c dc ba 3e 07 57 a6 3e
       -0.15329161 0.79281765 0.36496246 0.32488272
000220 e4 6d 91 be 3c 7a 2e 3d 54 9c ad 3f 04 8f 22 be
       -0.28404152 0.04259704 1.3563333 -0.15874869
000230 b4 52 22 bf 15 37 04 3e 02 2a f1 3e 50 ce 42 3d
       -0.63407445 0.12911637 0.47102362 0.047560036
000240 c0 72 f4 b8 aa 65 15 3f 39 d1 2a 3e 5e 49 2b 40
       -0.000116562005 0.5835825 0.16681375 2.676353
000250 32 90 5e 3e 7b 96 06 3d d5 0b a8 be f6 99 94 be
       0.21734694 0.032858353 -0.32821527 -0.29023713
000260 20 b2 dd be 23 95 b9 be 07 36 06 3e 13 8f 05 3f
       -0.4329996 -0.36246595 0.13106547 0.5217144
000270 69 cf 8f be 21 fc f5 be 43 de d0 3e 21 1f bf be
       -0.2808793 -0.48043922 0.40794572 -0.37328437
000280 17 a4 c0 be 48 21 21 bf db c6 e4 be be 6a 58 bd
       -0.3762519 -0.6294141 -0.44682965 -0.052836172
000290 78 fb 31 3f 37 a5 e0 bf f5 1a 81 3f 6e 80 7a 3f
       0.69524336 -1.755042 1.0086352 0.9785222
0002a0 80 55 f9 be ec 0d 08 bf 1e 35 a4 3e 7c ed 0d be
       -0.48698044 -0.53146243 0.32071775 -0.13860124
0002b0 bd 6f 8c 3d f4 9c 25 3e a2 45 e3 bd 3a 68 df bc
       0.0685725 0.16173154 -0.11097266 -0.027271379
0002c0 67 53 ee 3d ff aa d1 bd a7 3c da 3d 2a 6c 20 3e
       0.116370015 -0.10237693 0.106561 0.15666261
0002d0 26 de 17 3f 15 47 8a bd a0 fd 51 bf c1 e6 e2 3f
       0.59323347 -0.06751839 -0.82027626 1.772667
0002e0 5c ba 77 bf 61 16 81 bf 36 dd 2d 3f fb 62 c3 3e
       -0.96768737 -1.0084955 0.67915666 0.38161454
0002f0 75 44 0f bf 7e fd c1 3d 08 5c f7 bc 05 ee d0 3e
       -0.5596383 0.09472178 -0.030195251 0.40806594
000300 78 ec 01 bf 05 8c 90 be 0d 74 d5 3e d9 50 db be
       -0.5075145 -0.28231826 0.41690102 -0.4283512
000310 30 37 23 3f fa 2b 1f 3f f9 d7 4f 3f f2 f0 16 bf
       0.63756084 0.6217648 0.81188923 -0.58961403
000320 f3 f4 91 be 23 37 04 3e e4 91 9b bf 64 55 19 bf
       -0.28507194 0.12911658 -1.2153897 -0.5989592
000330 e2 22 87 be 9a 69 9b be fb 64 bd be ea d7 51 3e
       -0.263938 -0.30354005 -0.36991104 0.20492521
000340 02 06 0e bf 1f d2 1f be 5f 73 2a bf eb ad a7 bf
       -0.5547792 -0.15607499 -0.6658229 -1.309995
000350 39 52 9c 3e ae ea 30 be 89 4f 07 be d6 1c 2b 3e
       0.3053148 -0.17277023 -0.13213934 0.16710219
000360 2e ed b2 be db 88 60 be 3d 91 3f 3e 10 48 fc be
       -0.3494658 -0.21927206 0.18707748 -0.4927373
000370 e5 17 40 3d a0 bf e9 3e 60 75 34 3f c2 08 f2 bf
       0.046897788 0.4565401 0.704916 -1.8908923
000380 0a fc 1d 3f 89 3d 8b be e5 1f 2d 3c 2f 51 28 bc
       0.61712706 -0.27195385 0.010566686 -0.010273262
000390 f9 68 01 bf b3 47 82 be 4a 78 8e 3f 44 9d ac 3e
       -0.505508 -0.25445327 1.1130459 0.33713734
0003a0 7b 74 ba bf 9d 8c c1 3e 6f 26 8f 3e bf 81 ac bd
       -1.4566797 0.37802592 0.2795901 -0.084231846
0003b0 d3 b7 4e bc de 7c 48 3e 0a 6a 87 be f6 a7 7a 3f
       -0.012617069 0.19578883 -0.2644809 0.9791254
0003c0 d4 68 0c 3f dd 7e 53 bf 7d 48 85 3e 97 de 64 be
       0.54847455 -0.82615453 0.26031867 -0.22350536
0003d0 0e 03 d2 bd 4e 6d 64 3f 54 34 22 3f ec ce 16 3e
       -0.10254489 0.89229286 0.63361096 0.14727372
0003e0 91 d6 0e c0 bf 33 05 be fb f7 b9 bd f4 40 3d 3f
       -2.231846 -0.13008021 -0.09080502 0.73927236
0003f0 a9 5c de bd db 8d 16 be f7 4d 83 3f 89 fd c8 bd
       -0.10857517 -0.14702551 1.0258168 -0.09813983

conv1.bias f4 [64]
000000 74 25 9b b8 c3 7a e4 37 ae ac 17 38 84 1a 55 b8
       -7.397952e-05 2.7236883e-05 3.6162026e-05 -5.0807852e-05
000010 1b 6d 8f 37 7d 20 c9 b7 78 34 8d 38 ef fa 62 b8
       1.7097735e-05 -2.3976196e-05 6.733177e-05 -5.41163e-05
000020 0c 54 67 b7 b7 a9 b3 b8 e4 97 78 38 66 ef 33 b8
       -1.3788242e-05 -8.566997e-05 5.9269267e-05 -4.2899883e-05
000030 98 53 f6 b8 ac c1 bf b8 9b 7e 11 36 b6 3f 59 b5
       -0.00011745765 -9.143664e-05 2.1680378e-06 -8.093151e-07
000040 96 f5 94 b8 6f 28 8d b7 56 96 29 37 86 9e 08 36
       -7.102934e-05 -1.6827338e-05 1.0108188e-05 2.0357852e-06
000050 b2 fb 8b 38 4f 34 21 39 da a5 9b 36 7b f4 55 38
       6.6749184e-05 0.00015373643 4.6386676e-06 5.1010848e-05
000060 df 4d 01 b9 87 80 81 b8 89 ca 70 b8 57 8a af b8
       -0.00012331408 -6.1751394e-05 -5.7409085e-05 -8.370418e-05
000070 56 5b 01 39 fb 61 4e b8 12 6c f5 38 26 dc 7e 38
       0.00012336424 -4.920548e-05 0.0001170264 6.076335e-05
000080 83 ec 27 38 66 ab ce b8 95 df 94 38 e5 d7 d1 37
       4.003617e-05 -9.854771e-05 7.098835e-05 2.5015275e-05
000090 ce 3c 82 37 d1 2c 9f 38 98 9e 84 b8 2c ab a4 37
       1.5525522e-05 7.5900585e-05 -6.323791e-05 1.9630032e-05
0000a0 50 c6 34 b8 e0 32 05 39 b9 a2 66 b9 7e 06 95 b8
       -4.3100037e-05 0.00012702821 -0.00021995128 -7.106083e-05
0000b0 fb 49 3c 39 f6 d0 37 b9 39 16 dc b7 98 d0 b5 38
       0.00017956637 -0.00017530084 -2.6236392e-05 8.669606e-05
0000c0 67 10 8c b6 ff c4 e8 38 a3 4b fb b6 2e d5 01 39
       -4.1742346e-06 0.000110993155 -7.489188e-06 0.00012381814
0000d0 e6 65 b6 b7 1a 12 4d 39 d8 d4 18 38 e7 1b f1 b8
       -2.174354e-05 0.00019557067 3.643785e-05 -0.00011496973
0000e0 04 eb e1 b8 c5 d8 bd 35 aa 81 82 b7 a1 62 36 b9
       -0.00010772611 1.4144686e-06 -1.5557587e-05 -0.00017393615
0000f0 fa 4c df 37 64 97 6f b8 31 36 8e b7 c1 b2 87 b8
       2.6619517e-05 -5.7123034e-05 -1.6952954e-05 -6.470597e-05

bnlr1.bn.weight f4 [64]
000000 84 33 20 3f 93 7e 16 3f a9 19 81 3f 0d 10 09 3f
       0.62578607 0.58786887 1.0085956 0.53540117
000010 34 1c 48 3f 5d 44 a5 3f a7 8f 92 3f 07 98 92 3e
       0.78168035 1.2911488 1.1450089 0.28631613
000020 f1 64 f3 3e cd fb 61 3f bc 9c 9a 3f ac 94 38 3f
       0.4753795 0.8827484 1.2079082 0.72101855
000030 37 f7 9c 3f 82 c0 c3 3f 3b 13 7d 3f 62 1e be 3f
       1.2262944 1.5293124 0.9885747 1.4853022
000040 50 bd 2e 3f 91 c0 4f 3f 3f f6 6d 3f 54 6f f3 3e
       0.6825762 0.8115321 0.92953867 0.47545874
000050 ee 39 d6 3e e7 6f 85 3f c9 8e 1e 3f 42 2f 29 3f
       0.41841072 1.0424775 0.6193662 0.66087735
000060 6b 09 5f 3f 2f a7 a5 3f 52 33 59 3f 11 4d 5b 3f
       0.87123746 1.2941645 0.84843934 0.8566447
000070 8d f2 2c 3f 53 97 b3 3f 08 57 ad 3f 9f 5d 1c 3f
       0.67557603 1.4030555 1.3542185 0.61080354
000080 ed f2 ae 3f a1 04 cd 3f a0 6f 5d 3f 53 06 df 3e
       1.3667885 1.6017038 0.8649845 0.43559512
000090 dc 17 21 3f 34 bf ac 3f 72 c2 64 3f fc 15 e5 3e
       0.6292703 1.349585 0.893592 0.44743335
0000a0 3c 8b 30 3f 33 e0 83 3e 1b cc 8e 3f 60 1d 4a 40
       0.68962455 0.25756988 1.1156038 3.158043
0000b0 90 46 25 3f ba 30 73 3f 4c 53 4a 3f e4 ed bf 3f
       0.64560795 0.94996226 0.7903335 1.4994473
0000c0 f9 dc 1f 3f b6 d1 8f 3f 80 d4 5a 3f 69 06 4b 3f
       0.6244655 1.1235874 0.854805 0.79306656
0000d0 9d 7d c4 3f 6f 48 2b 3f b2 06 45 3f a6 f1 34 3f
       1.5350834 0.669074 0.7696334 0.70681226
0000e0 03 15 31 3f 4a b3 43 3f 9e d8 2c 3f 62 ac 2d 3f
       0.69172686 0.7644545 0.6751803 0.6784116
0000f0 59 8b 85 3f 9b 49 5a 3f 51 fa 4a 3f 16 e6 0d 3f
       1.043315 0.85268563 0.792882 0.5542921

bnlr1.bn.bias f4 [64]
000000 9d b1 08 3f 62 f4 d2 3d db 6d 5b bd 19 0a 01 40
       0.53396016 0.103005186 -0.053571563 2.0162413
000010 be a5 a3 3e 2a b7 d0 bf f5 87 37 3f 6d 58 1a 3e
       0.3196239 -1.6305897 0.7169183 0.15072794
000020 7c f7 50 bd 7a 16 94 be d6 fc 31 3f b3 7b cb 3d
       -0.05101727 -0.28923398 0.6952642 0.09935703
000030 c6 4f 51 3f f5 ed d4 bf a9 71 23 3e 35 ce 9e bf
       0.8176235 -1.6635119 0.15961327 -1.2406679
000040 49 1a 0f 3f 10 0f 13 3f 0e fd 5f 3c d0 09 35 3f
       0.5589948 0.5744486 0.013671173 0.707181
000050 a5 f1 41 3e d4 9b 81 bf c5 d7 ea 3e 12 20 0a bf
       0.18939836 -1.012568 0.45867744 -0.53955185
000060 53 22 42 3f b1 94 a0 bc 0b 4d 0e 3f 88 1e 0c 3e
       0.75833625 -0.019602152 0.5558631 0.13683522
000070 16 74 17 3f 83 49 46 3f 7e 9f c1 bf f0 b6 bf be
       0.5916151 0.7745592 -1.5126798 -0.37444258
000080 3f 7b 1e 3f 3f 28 02 c0 fe 71 06 bf 71 28 c6 3e
       0.6190681 -2.0337064 -0.5251769 0.3870273
000090 e8 dc 59 3e e2 d1 97 bc 16 72 29 3f 51 22 16 3f
       0.21275675 -0.018532697 0.66189706 0.5864611
0000a0 24 1c 7e 3e d6 11 9b 3e fb a0 38 be 6f 53 54 c0
       0.24815422 0.30287045 -0.18030159 -3.3175924
0000b0 33 f2 d0 3e 01 4f cf 3e ad d3 4a be 8a 02 f6 bf
       0.40809783 0.40489963 -0.1980731 -1.9219525
0000c0 30 53 84 3e 81 0b a2 bf 33 21 fd be be 49 a2 bd
       0.25844717 -1.2659761 -0.49439391 -0.079242215
0000d0 cd 63 82 bf 3c 62 c3 3f 23 77 90 3d 10 e4 c9 3e
       -1.0186707 1.5264354 0.070539735 0.3943181
0000e0 eb 38 3f 40 75 63 41 bf 6c 9e 3d 3c 40 4f 6b 3f
       2.987849 -0.75542384 0.011573415 0.919178
0000f0 cc ea 49 3f 12 84 a5 3d ba 03 32 3f 71 10 c8 3f
       0.78873897 0.08081831 0.69536936 1.5630018

bnlr1.bn.running_mean f4 [64]
000000 d9 fd 1b 40 b9 0b 85 c2 0e a5 86 c1 b6 6c 54 40
       2.4373686 -66.522896 -16.830593 3.3191352
000010 33 13 b9 c1 18 c5 a0 43 30 a6 50 3e 53 d8 ce c3
       -23.134375 321.5398 0.20375896 -413.69003
000020 12 4a c7 c2 2e 57 9d c2 b4 24 18 c1 5e 06 2f 42
       -99.64467 -78.67027 -9.508961 43.756218
000030 7b 76 61 40 ac 7f b2 43 db a2 8d 41 a4 7f cf c3
       3.5228565 356.99744 17.70452 -414.9972
000040 73 ec 1d 3f b9 0b 40 40 ba 1f 5d c1 34 ef 21 42
       0.6168892 3.0007155 -13.820246 40.483597
000050 a9 8d 6a c0 ec 15 1b 42 66 0c 48 c2 3c 2a 96 c2
       -3.6648962 38.771408 -50.012108 -75.08249
000060 f2 94 c2 be 21 b0 e4 40 da 26 f6 c1 41 d0 03 42
       -0.3800426 7.1465 -30.76897 32.953373
000070 b5 80 5b 41 ec cc dc 40 08 e8 a6 43 19 02 28 c3
       13.718923 6.900015 333.81274 -168.0082
000080 d1 1d f7 c1 39 cc 8d c3 1f fd e5 c1 4e 79 35 43
       -30.889559 -283.5955 -28.748594 181.47385
000090 40 3a a3 42 b9 ee 29 c1 ab e0 f9 c0 fe 28 f2 41
       81.61377 -10.620782 -7.8086753 30.270016
0000a0 a2 8c 87 42 7f 4c f3 c2 9d b8 2b c1 17 4b 46 c4
       67.77467 -121.64941 -10.732572 -793.1733
0000b0 84 b9 b8 c1 f9 df 3d 41 87 1a d0 c2 ab 99 e1 c3
       -23.090584 11.867181 -104.05181 -451.20053
0000c0 ba d9 68 c1 de 78 fc 41 b4 fd a5 c3 72 0a 02 c2
       -14.553156 31.559017 -331.98206 -32.5102
0000d0 78 c9 a8 c3 0e c1 45 c0 78 7f 0b 43 ff 30 02 c2
       -337.57397 -3.0899081 139.49792 -32.547848
0000e0 81 a7 c3 c2 9b 16 ee c2 f7 76 a4 bf 15 d8 ba 41
       -97.827156 -119.04415 -1.2848805 23.355509
0000f0 63 87 03 c1 be 2e e1 41 78 6e b8 41 ae dd a6 41
       -8.220553 28.147823 23.05394 20.858242

bnlr1.bn.running_var f4 [64]
000000 ca 13 07 45 70 d9 55 47 f5 56 31 47 f7 b8 b1 44
       2161.2368 54745.438 45398.957 1421.7802
000010 aa f7 c3 47 bf fc 53 47 12 4e c2 45 ff 29 92 47
       100335.33 54268.746 6217.759 74835.99
000020 d8 ca 25 47 45 86 01 47 67 ae 25 45 13 37 9a 46
       42442.844 33158.27 2650.9001 19739.537
000030 3f 35 8b 45 95 2e 79 47 d4 8a 65 47 2b b2 49 47
       4454.656 63790.582 58762.83 51634.168
000040 a0 7b ca 45 8c fe de 45 5e 62 51 47 fb 08 7f 47
       6479.453 7135.8184 53602.367 65288.98
000050 97 64 25 47 6a ca a4 46 7d 26 08 47 60 a3 05 47
       42340.59 21093.207 34854.49 34211.375
000060 94 8f 65 45 72 e9 86 47 ef a8 87 47 37 8d 52 47
       3672.9736 69074.89 69457.87 53901.215
000070 f6 a7 3b 47 9a 56 43 45 86 05 51 47 09 56 e0 46
       48039.96 3125.4126 53509.523 28715.018
000080 2b 08 45 47 ad d2 3d 47 c7 56 0d 46 e4 81 3d 47
       50440.168 48594.676 9045.694 48513.89
000090 da fb 5b 47 ac 41 88 47 4d 8b 2e 47 b7 9b 92 46
       56315.85 69763.34 44683.3 18765.857
0000a0 f9 d6 c6 47 0f 85 06 47 87 b4 2e 45 18 c3 9e 48
       101805.945 34437.06 2795.283 325144.75
0000b0 4d 9a b0 46 36 2e 45 47 f5 49 1c 47 a0 1f 9e 47
       22605.15 50478.21 40009.957 80959.25
0000c0 25 54 88 47 17 59 98 46 9e 30 58 47 ea 7e 77 46
       69800.29 19500.545 55344.617 15839.729
0000d0 44 e5 bc 47 c4 ef 97 44 ed fe 28 47 a0 e8 28 47
       96714.53 1215.4927 43262.926 43240.625
0000e0 6b 4e 12 47 bb dd 46 46 6e f9 01 47 b6 cf c5 44
       37454.418 12727.433 33273.43 1582.491
0000f0 84 86 f2 44 68 d7 2e 47 68 e5 9b 46 4a d1 f2 44
       1940.2036 44759.406 19954.703 1942.5403

conv2.weight f4 [64, 64, 3, 3]
000000 e8 b4 ac be 29 2c 7e 3d 94 ed 00 3f 09 09 68 be
       -0.3373177 0.062053833 0.50362515 -0.22659697
000010 80 6d 12 3d ce d8 4f bb 94 19 b4 be a0 9e 38 3f
       0.03574896 -0.003171492 -0.35175765 0.7211704
000020 57 3b 06 3f 5b ae 4b 3f 54 a1 c8 3e fd d7 4e be
       0.52434295 0.7956292 0.39185584 -0.2019958
000030 91 2a 64 3e 56 30 26 be 59 14 15 3d 53 ba 63 bf
       0.22281863 -0.16229376 0.03639636 -0.88956183
000040 d4 20 49 bf e0 52 c4 3e b6 9f 8a be 49 73 8e be
       -0.78565717 0.3834448 -0.27074975 -0.2782233
000050 49 e5 df be cc b9 0b bf 3f ef 29 bf 97 0f 78 3d
       -0.43729618 -0.5458038 -0.66380686 0.060561743
000060 f5 48 00 bf 65 97 02 bc 73 53 4a bf 95 37 c6 be
       -0.50111324 -0.007970666 -0.79033583 -0.3871428
000070 d2 42 27 bf e8 a1 66 3e 8a c0 91 be 68 04 46 bf
       -0.65336335 0.225227 -0.28467208 -0.77350473
000080 19 a2 31 bf d1 de 76 3e 8e a3 96 3f e8 93 29 3e
       -0.69387966 0.24108435 1.1768663 0.16560328
000090 6f c5 b4 be bd c8 1c 3e a5 f7 b4 be b4 04 9e bf
       -0.3530688 0.1531095 -0.35345188 -1.2345185
0000a0 63 bc f1 bd 8a 0c 6e be f0 d1 07 be dc fa 5e 3f
       -0.1180351 -0.23246971 -0.13263679 0.8710153
0000b0 4a 2b cb 3e e9 4c 6c be e4 dc b0 be 4a b7 bc be
       0.39681464 -0.23076214 -0.34543526 -0.36858588
0000c0 0a 92 50 3e 7d 17 4e be 14 0b 6e 3e 46 a9 2a bf
       0.2036821 -0.20126148 0.23246413 -0.6666454
0000d0 fb 36 1f 3f e7 81 06 3f 2f 48 06 bd ba ea 35 be
       0.6219327 0.52541965 -0.032783683 -0.17765322
0000e0 b6 24 7c bf ea d4 14 bf 9b bd 22 bd 3a 98 4a bf
       -0.98493516 -0.5813738 -0.039731603 -0.7913853
0000f0 1e 4e b1 3e d1 d3 8c 3e 44 c5 3e 3f ea 03 a9 bd
       0.3462991 0.27505353 0.74519753 -0.082527
000100 e6 74 9f be 10 d0 bb be a0 e6 17 3e d8 51 99 bd
       -0.31143874 -0.36682177 0.1483407 -0.074863136
000110 e1 50 cc 3c 2f 7d 74 bd df 47 18 bd 00 6a 22 be
       0.02494091 -0.059689697 -0.037177917 -0.15860748
000120 73 79 a9 be 23 a8 10 3e 6e 05 72 be d9 03 a8 bd
       -0.3310047 0.14126639 -0.23634884 -0.08203859
000130 0f 37 a5 bd 3c 3e d3 3e d8 24 97 3c 71 33 17 3f
       -0.08067142 0.4125842 0.018450186 0.5906287
000140 16 09 00 3e d4 8a 98 be 24 bb 87 3e 37 3b c7 bd
       0.12503466 -0.29793417 0.26509964 -0.09728091
000150 59 fd ff 3e c3 9c 4a 3f a0 ee 99 3e e7 1b e6 be
       0.49997976 0.7914545 0.3006487 -0.44943163
000160 05 db 3c bf 9b ce 30 bf 25 a5 a5 3c cc e1 21 bf
       -0.737717 -0.69065255 0.020220349 -0.63235164
000170 f1 c3 5e bd 04 c1 3a 3e 88 c7 03 3f cf 4a c0 be
       -0.054386083 0.18237692 0.51476336 -0.37557074
000180 31 c6 c0 be c5 06 ed 3d 2e 13 dd bd bd 49 a5 3e
       -0.37651208 0.11573557 -0.10794674 0.3228282
000190 d7 4d 15 3f 8e 25 9a be c1 71 d0 3d 99 bf b2 3e
       0.583219 -0.30106777 0.10177947 0.34911802
0001a0 f8 9e f6 bd 30 1e 44 bf c0 d5 c8 3e 86 6c fe 3d
       -0.1204204 -0.7660856 0.39225578 0.12423043
0001b0 70 06 f8 3e b9 81 00 be 5c 71 e2 be b4 23 85 3d
       0.4844241 -0.12549485 -0.4422711 0.065009505
0001c0 dc da 76 3e 59 24 20 3f 55 25 10 3e 63 87 b2 be
       0.24106926 0.6255546 0.14076741 -0.34868917
0001d0 77 10 79 be 40 f6 18 be 6e e4 2e 3e a2 ab 3b be
       -0.24322687 -0.14937687 0.17079327 -0.18327191
0001e0 32 b5 1b be 17 dd 15 3e 75 3a 9e be 88 76 69 be
       -0.1520584 0.1463512 -0.30903974 -0.22799122
0001f0 85 f1 06 3f 6e cb 5e be c7 a1 55 3f a7 bc fa bd
       0.5271228 -0.2175729 0.8344998 -0.12243014
000200 5d f0 01 3e 83 f4 ef be 91 8c 42 3f 49 80 45 bc
       0.12689348 -0.46866235 0.7599574 -0.012054511
000210 a8 2b dc be f7 3a fb 3e d1 a0 de 3e 78 61 38 bf
       -0.43002057 0.49068424 0.43482068 -0.72023726
000220 8d b9 0f 3e 72 4f 3e 3e f5 64 24 3f d4 28 cc 3e
       0.14035626 0.18584993 0.6421655 0.398749
000230 39 21 fd 3e e5 81 a2 3d a1 e6 fe be 1f a0 0b bf
       0.4943941 0.07934932 -0.4978533 -0.545412
000240 a2 28 e1 be b6 03 9d be cd 34 87 bc 1c 5d 79 be
       -0.43976313 -0.30666894 -0.01650467 -0.24351925
000250 fa 54 12 3e c5 0c d0 3d 3e b6 b2 be f9 52 0c bf
       0.14290228 0.101586856 -0.34904665 -0.54814106
000260 a0 c0 29 bf 33 4e 9a be 96 4b a3 3e 6d 24 86 3e
       -0.6630955 -0.30137786 0.31893605 0.26199666
000270 2e 72 f9 be 70 ad 14 3e da d8 20 3e 0d 81 1e bf
       -0.48719925 0.14519286 0.15707722 -0.61915666
000280 f7 d2 7c bf c9 22 a1 3e e4 d7 55 bf aa 2e 36 be
       -0.98759407 0.3147185 -0.8353255 -0.17791238
000290 37 28 cc 3e d2 16 14 bf 28 9c ce 3d bc 0e b3 3e
       0.39874431 -0.5784732 0.10088378 0.3497218
0002a0 ac 1c 95 bf ec 0c a1 3e e9 aa ad be 6d 49 50 be
       -1.1649375 0.3145517 -0.33919457 -0.2034051
0002b0 17 bd de be 6f b7 00 be 33 d7 03 3f e9 b5 1c 3f
       -0.4350364 -0.12569974 0.5150024 0.6121507
0002c0 70 60 34 bc da 0c 92 bc 4a 50 d9 3e 54 51 63 3f
       -0.011009321 -0.017828394 0.42444068 0.8879597
0002d0 81 b6 8d bc 50 f9 53 bf 3c 9b 95 be 59 f2 44 3f
       -0.017298939 -0.82802296 -0.29219997 0.76932293
0002e0 4f 9b 67 3e 46 76 5a 3d e0 29 ce 3e e4 94 3a 3e
       0.2261784 0.05333545 0.40266323 0.1822086
0002f0 d2 64 9b 3e 47 19 c6 be db 0b a0 bd 0d 14 cd 3d
       0.30350357 -0.3869116 -0.07814761 0.1001359
000300 3b 80 6c be 2b d4 ca 3e 24 82 10 3f 81 ea 77 bc
       -0.23095791 0.39614996 0.5644858 -0.015131594
000310 3a 87 e6 3d 66 1e 43 be 5d 81 bb 3e 4e 5f 08 3e
       0.11256261 -0.19054565 0.36622134 0.13317606
000320 12 53 b8 3e 60 e6 c4 3c c7 16 02 be 13 6e a9 3d
       0.36000878 0.024035633 -0.12704001 0.08272948
000330 76 5f 3a bf 20 7f 2f 3d 1c d1 82 3e 47 a3 be bd
       -0.7280191 0.042845845 0.25550163 -0.093084864
000340 60 8e 09 bf 56 5b e9 be da a7 00 bf f7 1e bd bc
       -0.5373287 -0.45577496 -0.5025612 -0.023086054
000350 4d 26 10 3d c0 7d 5e be a1 d0 b1 bd 93 7b c2 3d
       0.035192776 -0.21727657 -0.08682371 0.09496226
000360 71 ec 02 3f 9d df 35 bf 07 f8 65 bf 40 ff 03 3f
       0.5114203 -0.7104433 -0.89831585 0.51561356
000370 2f 03 34 3f 5c ef 6b be 3c 8c eb be 98 89 c1 3e
       0.7031736 -0.23040527 -0.46005428 0.37800288
000380 c4 f5 c0 3e 78 9a 53 be 51 33 86 3e a7 b5 44 be
       0.37687504 -0.20664394 0.26211026 -0.1920992
000390 2a ab 5b 3e 3f 2f 09 bf 3d 32 12 be 1f d2 ba 3e
       0.21452013 -0.53587717 -0.14276977 0.36488435
0003a0 8f b6 ae be ce d5 1d be 29 d4 b6 3d 80 b4 49 3f
       -0.34123656 -0.15413591 0.08927185 0.78791046
0003b0 07 ec d1 bd a8 52 af be 08 61 51 3e eb 91 c2 bd
       -0.10250097 -0.3424275 0.2044717 -0.09500488
0003c0 24 32 d8 be 44 e1 7a be 4a 45 13 be db 0b b2 bf
       -0.42225754 -0.24499995 -0.143819 -1.3909868
0003d0 d6 95 52 bf d2 0e 5a be 94 87 ba be ed 4b 10 bf
       -0.8225988 -0.21294716 -0.36431563 -0.56365854
0003e0 5e 4a 93 3e c0 68 7f bd 3e 5a 02 3f 47 c7 ff 3e
       0.28767675 -0.062355757 0.5091895 0.49956724
0003f0 ab a5 83 3f f3 18 1f 3f f1 85 8c bd e5 67 6b 3e
       1.0284933 0.62147444 -0.06861485 0.22988851

conv2.bias f4 [64]
000000 3d 34 05 39 e5 1d 42 39 8c e6 3e 39 ed ca f3 b9
       0.00012703329 0.00018512418 0.00018205697 -0.00046499763
000010 ee c1 45 b9 58 cb ea 38 5e 5a a0 39 8f 92 a9 b9
       -0.00018859628 0.00011195865 0.00030584907 -0.00032343387
000020 9d 0f 9f 39 ae 4e 1e 37 f8 c2 b4 b9 52 ee 9b b9
       0.00030338476 9.435853e-06 -0.00034477538 -0.00029741466
000030 7d 73 b3 38 21 4b 24 38 ac c9 8c 39 05 6c 6b 39
       8.5568965e-05 3.9170616e-05 0.00026853138 0.00022451587
000040 da 8b be b9 18 dd 1c ba 01 1b fe 37 09 d3 72 b9
       -0.00036343822 -0.0005983873 3.0291734e-05 -0.00023157535
000050 e5 16 b0 39 a1 29 86 b9 41 7e 48 37 75 1e ad b9
       0.00033586394 -0.00025589488 1.1950325e-05 -0.00033019824
000060 c2 2c 75 b9 d1 cc 08 b8 57 89 1a 3a f7 12 20 b9
       -0.00023381694 -3.2615677e-05 0.0005895099 -0.00015265854
000070 d4 32 10 ba 52 28 65 39 8f 80 24 b9 4c 68 07 3a
       -0.0005500738 0.00021854162 -0.0001568815 0.0005165383
000080 b6 82 09 b8 d9 06 85 b8 b9 55 b7 38 d8 09 c0 b9
       -3.278508e-05 -6.34321e-05 8.742087e-05 -0.00036628428
000090 52 f6 36 b9 94 6a 8a 39 97 14 f8 b9 04 00 98 b9
       -0.00017448634 0.00026400818 -0.00047317587 -0.0002899171
0000a0 d1 af 8b b9 d2 e5 0a b9 77 16 ff 38 f8 49 ae b8
       -0.0002664314 -0.0001324632 0.00012163532 -8.310744e-05
0000b0 0c ba b3 37 f3 a9 a5 b9 03 eb 10 3a f9 31 99 b8
       2.1425098e-05 -0.00031597874 0.00055281835 -7.304917e-05
0000c0 76 27 01 b9 5c f1 3b b9 2f f9 bd 39 62 2a 2f b9
       -0.00012317099 -0.00017923623 0.00036234545 -0.0001670509
0000d0 95 b5 71 39 ff 46 2b 39 e2 d8 13 3a fd e0 b5 39
       0.00023051196 0.00016334279 0.0005639923 0.0003469064
0000e0 4d 1b 54 38 f6 99 42 b7 be b3 7a b9 02 f4 8a 39
       5.0570165e-05 -1.1599148e-05 -0.00023908817 0.0002650321
0000f0 e5 dc 0a 3a 0b ab d5 39 ef 2b 21 39 48 58 85 b9
       0.0005297198 0.00040753963 0.00015370523 -0.00025433511

bnlr2.bn.weight f4 [64]
000000 31 58 b0 3f 31 78 75 3f 4c 16 c9 3f 75 51 9a 3f
       1.3776914 0.9588652 1.570993 1.2056109
000010 ca 8f b1 3f 7b 20 6f 3f 64 86 ac 3f ac cc db 3f
       1.3872006 0.93408936 1.3478513 1.7171836
000020 7e 33 7e 3f ab 8a 2d 3f f6 ab 8e 3f 60 57 f0 3f
       0.9929732 0.67789716 1.1146228 1.8776665
000030 36 bd 9b 3f de df 41 3f c7 86 91 3f e5 20 8a 3f
       1.2167118 0.7573222 1.1369256 1.0791289
000040 7b c8 c3 3f a3 24 d3 3f 9b 23 98 3f 2c be 4d 3f
       1.5295557 1.6495556 1.1885866 0.80368304
000050 00 17 c2 3f fc b2 94 3f 6c 15 7e 3f ea 93 78 3f
       1.5163269 1.1617122 0.9925144 0.971007
000060 b5 38 ce 3f a8 6a 8d 3f 81 e1 9b 3f d5 eb 83 3f
       1.6111056 1.1048174 1.2178193 1.0306345
000070 ec aa 82 3f c3 b2 46 3f 01 e3 d8 3f a5 4d 38 3f
       1.0208411 0.7761652 1.6944276 0.71993476
000080 c2 aa a7 3f fb 46 54 3f 31 7a cf 3f 24 81 e0 3f
       1.3098986 0.8292081 1.6209165 1.753941
000090 68 a1 bf 3f cf 83 55 3f fd d2 d3 3f a2 39 e6 3f
       1.4971132 0.8340425 1.6548764 1.7986338
0000a0 d7 c3 c7 3f 97 28 99 3f c2 b7 b3 3f 09 82 cd 3f
       1.560664 1.1965512 1.4040453 1.6055309
0000b0 a9 d4 ea 3f ec b0 61 3f 91 22 fa 3f 33 93 2b 3f
       1.8346149 0.88160586 1.9541799 0.67021483
0000c0 ca cf 5c 3f 73 90 37 3f 12 17 9a 3f 21 2b ee 3f
       0.8625456 0.71704787 1.203829 1.8606912
0000d0 d4 2d 97 3f 8c d5 4b 3f 54 39 a2 3f 53 19 c6 3f
       1.1810861 0.7962272 1.2673745 1.5476478
0000e0 50 ab ac 3f 39 9e a1 3f 5c b9 a3 3f b1 62 d9 3f
       1.348978 1.2626411 1.2790942 1.6983243
0000f0 47 12 7d 3f 05 5c 5f 3f 69 04 d3 3f 37 3b 76 3f
       0.98856014 0.87249786 1.6485721 0.96184105

bnlr2.bn.bias f4 [64]
000000 7f 5d a0 be fa 8c 6a 3e 08 3e 13 bf bf 4c 5d be
       -0.31321332 0.22905341 -0.5751653 -0.21611308
000010 0d fd 26 be 17 4d 15 3e 92 be 43 be 22 a3 67 bf
       -0.16307469 0.14580189 -0.19115666 -0.90483296
000020 e3 9f 1c be 05 92 40 3f 18 79 43 bd e8 f5 4c bf
       -0.15295367 0.7522281 -0.047722906 -0.80062723
000030 df c6 b5 be d6 0b ae 3e c5 0a 0e be 27 41 00 3e
       -0.3550329 0.33993405 -0.13871296 0.12524854
000040 0b 36 65 bf a0 6a 8c bd d1 a4 34 be 3c 1f 11 3f
       -0.8953559 -0.068562746 -0.17640997 0.56688285
000050 e3 3c e0 bf 1d b0 a2 3d 55 ed 92 bd a2 d5 2d 3e
       -1.7518581 0.07943747 -0.07174174 0.16976026
000060 7d a7 38 be 9f a8 90 3b 94 6d b5 3d 63 93 31 3f
       -0.18032642 0.0044146325 0.08858791 0.6936552
000070 b7 85 a4 3f f6 50 0b 3f 72 5a 0d bf e9 03 0c 3f
       1.2853307 0.5442041 -0.55216134 0.54693466
000080 a3 21 9a be d5 9e 03 3f 3a 86 c6 be a9 ce 04 bf
       -0.30103788 0.51414233 -0.38774282 -0.5187784
000090 86 e9 9f be 79 84 7a be b0 57 0b bc a2 e1 6e bf
       -0.31232852 -0.24464597 -0.008504793 -0.9331304
0000a0 c9 c9 6c be a7 fb fa be 45 e7 9d be 8e c7 0b bf
       -0.2312385 -0.4902012 -0.30840507 -0.5460137
0000b0 2e 45 01 bf 96 c7 7a 3f 4e 83 da be 18 0a bb 3e
       -0.50496185 0.97960794 -0.42678303 0.36531138
0000c0 bb 66 50 3f 73 dc 33 3f 83 3b b9 3c 20 16 63 bf
       0.81406754 0.70258254 0.022611385 -0.88705635
0000d0 ce 31 a3 bb 0b 51 06 3f e4 a4 d5 3d d1 1b 99 bf
       -0.0049803024 0.5246741 0.10431841 -1.1961614
0000e0 2e e7 3b be ad 33 af bf 5a 87 83 be f1 9d ea be
       -0.18349907 -1.3687645 -0.25689203 -0.45823625
0000f0 d6 33 b8 3f 5e b1 58 3f 11 63 77 3d 04 df 2f 3f
       1.4390819 0.8464564 0.06039721 0.6869967

bnlr2.bn.running_mean f4 [64]
000000 fb 0a 65 c1 7e 69 95 c1 2f de 65 c1 9d bd 47 3f
       -14.315181 -18.67651 -14.366744 0.780237
000010 cf 69 c2 c1 92 27 64 40 fc 60 b2 c1 03 e3 42 c1
       -24.301664 3.5649152 -22.297356 -12.180423
000020 f9 bb 9d c0 db cf 51 c1 17 93 e0 c0 05 d9 b5 c1
       -4.929196 -13.113246 -7.0179553 -22.730967
000030 73 30 db bf 0c 5b 7d c1 20 94 15 c1 38 56 b3 c0
       -1.712416 -15.834728 -9.348663 -5.6042747
000040 b4 24 21 c0 5a 25 ad bf 39 3d ad c0 56 9e cb c1
       -2.5178652 -1.3527024 -5.4137235 -25.452312
000050 91 19 71 c1 3d 6a 0c 40 6c 7c b0 c0 3a be 3b c0
       -15.068742 2.1939843 -5.515188 -2.9334855
000060 70 c4 60 c1 ed 15 1c c1 a6 1d 2a 41 85 7f 92 c1
       -14.047958 -9.755353 10.632238 -18.312265
000070 b6 79 bd 3f bd 40 91 c1 f4 76 8f c1 f4 b7 0c c1
       1.4802768 -18.15661 -17.933083 -8.79491
000080 d4 fb 19 c0 25 79 20 c1 51 64 98 c0 51 fc 95 c1
       -2.4059954 -10.029576 -4.7622457 -18.748201
000090 21 0b 2c c0 84 86 21 41 ce aa a6 bf 76 a7 9b c0
       -2.6881793 10.095341 -1.3020875 -4.864192
0000a0 47 0a 93 c0 eb ef ac c1 31 3e 18 c1 34 d8 85 c0
       -4.5950046 -21.617147 -9.515183 -4.182642
0000b0 77 59 39 c1 86 0d 10 c1 fc 2a 51 c1 9a 23 f6 c0
       -11.584342 -9.003302 -13.072994 -7.691846
0000c0 5d c3 65 c1 79 a2 a0 c1 cf 8f 45 c0 76 d9 41 c1
       -14.360196 -20.079332 -3.0869024 -12.115591
0000d0 2d f7 9d c0 4e 8b 9d 3f 44 c9 9e bf db cc 22 c0
       -4.936423 1.2308137 -1.2405171 -2.5437534
0000e0 d4 fe 83 bf 08 7d c5 bf ec 35 2e c1 c2 f1 b3 c0
       -1.0312142 -1.5428782 -10.8881645 -5.6232615
0000f0 08 0b a2 c1 fd c3 bf be e8 41 a4 40 4e 81 dc c0
       -20.255386 -0.37454215 5.133045 -6.8907843

bnlr2.bn.running_var f4 [64]
000000 2c f2 a3 42 22 57 c1 42 c0 02 ec 42 9b a7 d3 42
       81.97299 96.67018 118.00537 105.827354
000010 2b 09 3e 43 f8 50 e1 42 4d e7 dd 42 ef f2 23 43
       190.03581 112.65814 110.95176 163.94896
000020 17 0d eb 42 15 f6 f1 42 6f ed 12 43 a4 e5 68 43
       117.525566 120.98063 146.92747 232.89703
000030 19 05 ce 42 b1 1a 0b 43 4b b5 f6 42 f9 a4 5e 42
       103.00996 139.10426 123.35409 55.661106
000040 3f 8e f1 42 86 fe 09 44 54 2a 11 43 f9 9e ad 42
       120.777824 551.9769 145.16534 86.81049
000050 0f 82 85 42 7f 57 24 43 be 45 c4 42 a4 4f 41 42
       66.75402 164.34178 98.136215 48.327774
000060 9b 4c 46 43 43 6d 71 42 d7 39 d0 43 de ec 90 43
       198.29924 60.3567 416.45187 289.85052
000070 9e 2d 18 43 49 68 ac 42 a5 45 d9 42 b7 44 95 42
       152.17819 86.20368 108.636024 74.63421
000080 bc dc 11 43 d0 a1 1d 43 7d b9 63 43 20 84 91 43
       145.86224 157.63208 227.72456 291.03223
000090 9e f6 6a 42 b1 fe 8a 42 ec 93 00 44 96 48 86 42
       58.740837 69.497444 514.3113 67.14177
0000a0 c7 8c ce 42 52 1b 08 43 01 62 87 42 58 d2 7b 43
       103.274956 136.10672 67.691414 251.82166
0000b0 50 33 37 43 ee 67 82 43 d9 5a 84 43 32 76 17 43
       183.20044 260.81195 264.70975 151.4617
0000c0 ee 07 82 43 8f 10 cb 42 23 62 1e 43 17 40 06 43
       260.06195 101.53234 158.38335 134.25035
0000d0 16 f7 dc 42 65 e8 92 43 0d a7 af 42 e3 4e 56 42
       110.48259 293.81558 87.82627 53.577038
0000e0 5d 1a ad 43 29 dd 98 42 b3 60 cd 42 00 24 52 43
       346.20596 76.43195 102.688866 210.14062
0000f0 68 81 ad 43 24 05 d6 42 0e 43 02 44 b7 e3 b9 42
       347.011 107.01004 521.0477 92.944756

conv3.weight f4 [64, 64, 3, 3]
000000 52 4c ef be 4e ab 08 3f 3b 7f 5e bf eb b1 67 bf
       -0.46737915 0.5338639 -0.8691289 -0.90505856
000010 53 02 cf 3e 8f d0 54 3f 05 e2 73 3e 40 e6 26 3f
       0.4043146 0.83130735 0.23816688 0.65195084
000020 cf a1 b4 3e 31 ea cb 3e 04 aa cc be 2c 3c 14 bf
       0.352797 0.3982711 -0.39973462 -0.57904315
000030 a5 2a a4 3e 66 76 34 3e cc f5 a4 3e 98 77 d3 3e
       0.32063785 0.1762329 0.32218778 0.4130218
000040 54 61 bc be 23 00 e2 3d eb fe 97 be cc 36 03 bf
       -0.36793005 0.11035182 -0.29686674 -0.5125549
000050 86 77 ce 3e 6e 55 8e 3e c8 c0 c3 be a4 b2 a4 3f
       0.40325564 0.27799553 -0.38233018 1.2867017
000060 8d 0d 46 3c 91 4f 00 3f 3f 69 ac 3e dc d8 46 3f
       0.012088192 0.5012141 0.33674046 0.7767465
000070 04 ce e9 3e 55 67 bc 3d 74 9d 62 3e 77 66 c0 be
       0.4566499 0.091993965 0.22130376 -0.37578174
000080 c5 5d 31 3e 43 46 9c 3e 32 39 3f bf 98 70 b6 3e
       0.17320926 0.30522355 -0.7469665 0.35632777
000090 37 ce 57 be 68 19 02 3f 09 62 3f bb 30 dd 5d 3e
       -0.21074758 0.50820017 -0.002920272 0.21666408
0000a0 c2 ea 24 bf b2 23 ef bd 21 69 c4 3e 5c 2c c5 3e
       -0.6442071 -0.1167673 0.38361457 0.38510406
0000b0 98 0b c3 be b2 02 70 3e 86 b9 02 bf 1e 5e 37 3f
       -0.38094783 0.23438528 -0.51064336 0.71627986
0000c0 2e ea d0 bc 52 62 5e 3e d8 28 1d bf 29 15 59 be
       -0.02550229 0.21717194 -0.6139045 -0.21199478
0000d0 a4 9d cb bd 57 2b b1 be 70 2d 7f be ec f2 8e bd
       -0.09942177 -0.34603378 -0.24919677 -0.069799274
0000e0 2a c1 41 bf 72 0b a9 3e b4 8d 81 be 37 1f ff be
       -0.7568537 0.33016545 -0.25303423 -0.49828503
0000f0 19 4d 78 3e 7d 23 be be 7f 0b a6 be 96 ce bf 3d
       0.2424816 -0.3713645 -0.32430646 0.09365575
000100 04 b0 ea 3d ac b8 6a 3f bf f2 49 3f 43 d9 80 3f
       0.114593536 0.91688037 0.78886026 1.0066303
000110 04 40 70 3e 9e 10 72 3f 48 5d 93 bd 8a 9f fc bc
       0.2346192 0.94556606 -0.07195526 -0.030837793
000120 9b e8 e3 bd 8c 10 5d be 40 2c d0 be a1 88 20 bf
       -0.1112835 -0.21588343 -0.4065876 -0.6270848
000130 0a 52 18 3e bb e1 36 3b 3e 2b bb be 3e c5 07 bf
       0.14875045 0.0027905542 -0.3655643 -0.5303534
000140 2f 23 92 be c0 e2 9b bc ad 8f 3a 3d 3c aa b0 3e
       -0.28542468 -0.019029021 0.045547176 0.3450488
000150 30 72 9e be 29 65 d9 3e d0 3b e9 be 50 c6 78 bf
       -0.30946493 0.42459992 -0.45553446 -0.971776
000160 80 ac e3 3d ac f3 b9 3b 03 63 88 3e 54 75 63 be
       0.11116886 0.0056748 0.2663804 -0.22212726
000170 2b 87 1b 3f 52 a7 7e 3f be 00 9c bc 21 dc 54 bd
       0.60753125 0.9947406 -0.019043323 -0.051967744
000180 67 e2 f9 3d 2d fd ce 3e 02 5e 73 3e c5 7b 07 3f
       0.12201386 0.40427533 0.2376633 0.5292323
000190 79 7d b5 3e a3 4f a5 bf b2 d5 40 be e3 64 ac bf
       0.3544729 -1.2914928 -0.18831518 -1.3468288
0001a0 11 a9 9c bd ca 1d 0b bf 21 7a 17 bf a3 26 fc be
       -0.07649434 -0.5434233 -0.5917073 -0.49248227
0001b0 60 92 ff 3c cf e5 5a 3f 46 a0 7d 3e 38 ad bb 3c
       0.031197727 0.8550691 0.2476817 0.022909746
0001c0 4c 5b 1c 3e 5f f4 f9 3d 58 0a 2d 3f f9 6f c6 3d
       0.15269202 0.12204813 0.6759391 0.09689326
0001d0 1f da e2 bd 98 28 be 3e d1 0b 34 3f c0 ae 4f 3f
       -0.110767595 0.37140346 0.7033053 0.8112602
0001e0 df df a6 3b 50 83 11 3f ca 04 31 3e b2 b4 0d 3f
       0.0050926055 0.5684099 0.17286983 0.55353844
0001f0 ea d3 c1 be 0f 2e 9f 3f 51 17 06 be c2 44 04 3f
       -0.3785699 1.2435931 -0.13094832 0.51667416
000200 c7 c5 95 3b a1 77 92 3b 5f 74 03 3f 95 70 e4 be
       0.004570696 0.0044698273 0.51349443 -0.44617143
000210 21 82 f3 3d b9 7d 78 bd 7b b1 29 3f 24 83 93 bc
       0.118900545 -0.060666773 0.6628644 -0.018006869
000220 4c a8 a4 3e 93 4d e2 be fe f2 4a be 3a 3d 81 be
       0.3215965 -0.4419981 -0.19819257 -0.25242025
000230 6c 4b 7f 3f dc fb 18 bd ef 30 92 3d 22 05 29 bf
       0.9972446 -0.037349567 0.071382396 -0.6602346
000240 e7 32 bf 3e ce 96 07 bf 7c e9 00 be 94 ff b6 3b
       0.37343523 -0.52964485 -0.12589067 0.0055846665
000250 6a a5 5c bd e0 cf ba 3e 15 e5 b4 be 7b 53 26 3e
       -0.05386869 0.3648672 -0.35331026 0.16242783
000260 67 99 1e bf e9 4d d3 be a0 ec 8b 3e 0a 24 10 be
       -0.61952823 -0.41270378 0.27328968 -0.14076248
000270 6e 40 a7 3e 3e 5a 8c 3e f6 51 79 3f a7 39 3a 3f
       0.32666343 0.274126 0.9739069 0.7274422
000280 56 33 73 3f 0f a9 e8 3e 76 10 a3 be 81 e2 ee bf
       0.9500021 0.4544148 -0.31848496 -1.8662874
000290 11 2f 15 bf 08 ca a7 3e 92 4c 6e bf 34 0e 08 bf
       -0.5827494 0.32771325 -0.9308559 -0.5314667
0002a0 91 2d bf 3e a1 6c 3d bf d8 58 6a 3e 92 2d cc be
       0.37339452 -0.7399388 0.22885454 -0.39878517
0002b0 cd 48 d3 be 33 81 fc 3b 28 7d 27 be db bb 82 be
       -0.4126648 0.0077058314 -0.16356337 -0.25533947
0002c0 87 5d 66 3e 81 a5 bc be 62 1c cd be 04 05 19 bf
       0.22496615 -0.3684502 -0.40060717 -0.5977328
0002d0 42 89 0a bf ca 17 84 3f 33 42 e0 3d 93 3b 58 3d
       -0.5411569 1.031976 0.109501265 0.05279119
0002e0 36 50 6d bd 79 7c 45 3f 5a 38 c1 3d 75 f0 c6 bd
       -0.057937823 0.77143055 0.09434576 -0.09713832
0002f0 16 f6 dc 3e 53 44 88 3f fe 5b 12 3e 5d 09 9b bf
       0.431565 1.0645851 0.14292905 -1.2112232
000300 d8 48 71 3c 19 f5 92 be 51 fc c0 be 70 34 37 bf
       0.01472684 -0.2870262 -0.37692502 -0.7156439
000310 8c c5 b4 3e 06 98 e4 be b4 32 53 3f 8f 52 fc 3d
       0.35306966 -0.44647235 0.8249924 0.12320434
000320 0e 36 cf bd f3 69 3e 3f 24 f1 12 3f 2e 15 42 3e
       -0.10117732 0.74380416 0.573992 0.18953392
000330 19 e7 80 3e f2 ee 91 3e 10 5d b4 3d f3 9c 81 3f
       0.25176314 0.28502613 0.08806813 1.0126022
000340 2f 57 c6 3e 26 81 fb 3e 54 95 7f 3e 5c 7e 8f 3f
       0.3873839 0.4912197 0.24959308 1.1210437
000350 68 36 16 3e 1d 72 b9 3d 73 dc ab 3e ee 89 d0 be
       0.14669192 0.090549685 0.33566627 -0.40730232
000360 7d 4c 5f 3f 16 e1 3c 3d f6 fa 84 3f f4 f4 12 3e
       0.87226087 0.046113096 1.0389087 0.14351255
000370 21 7a 2b 3f 12 41 3f be dc 18 cc 3c 03 54 b3 3e
       0.6698323 -0.18677166 0.024914198 0.35025033
000380 62 58 03 3f e7 a7 84 bf 0d 40 ad bc 46 16 1e bf
       0.51306736 -1.036374 -0.021148706 -0.61752737
000390 54 43 0c 3f 8c f0 cf 3d c5 f1 36 bf 6f 39 fe be
       0.54790235 0.101533026 -0.7146266 -0.49653193
0003a0 29 7b 19 3e 05 59 98 bd ad 89 cb bd 6a ae 09 3f
       0.14988388 -0.07438854 -0.09938369 0.5378176
0003b0 31 a1 82 3f 72 f3 15 3f 0b 3a 10 3f dd b0 c4 3e
       1.0205442 0.58574593 0.56338567 0.38416186
0003c0 ae 74 ae 3e f3 73 c9 3e c5 55 84 bc 02 9d 58 be
       0.34073395 0.39346275 -0.01615418 -0.21153644
0003d0 d1 17 8f 3e 4b 6e 97 bd 3e b2 a0 bf b1 b8 db be
       0.27947858 -0.073940836 -1.2554395 -0.42914346
0003e0 f6 29 c8 be 22 6f df be 00 ad c8 3d e9 8c 0c 3f
       -0.39094514 -0.43639475 0.09798622 0.5490251
0003f0 c6 53 17 bf 28 25 7b 3e 04 12 be 3d f4 6f 7c be
       -0.59112203 0.24525893 0.0928078 -0.24652082

conv3.bias f4 [64]
000000 d3 74 ae b9 3c 3e ea b8 2c e2 1a b9 5a 12 9c b8
       -0.00033274907 -0.000111695816 -0.0001477084 -7.442078e-05
000010 b1 22 4a b9 35 87 1b b9 1e 2a 41 b9 22 08 94 38
       -0.00019277145 -0.0001483232 -0.00018421604 7.058705e-05
000020 c2 2b 75 39 32 c0 02 ba 34 10 c2 b8 41 1b 0b b8
       0.00023381322 -0.0004987746 -9.253659e-05 -3.3165565e-05
000030 72 bd 95 b9 d6 72 1e 39 64 2d 51 b8 b8 20 7a 39
       -0.00028560642 0.00015110834 -4.9871756e-05 0.00023854047
000040 ea 59 b7 b9 3d 97 43 38 2d 6b 85 39 36 a5 1c 3a
       -0.0003497147 4.6632475e-05 0.0002544759 0.0005975546
000050 63 a0 af b9 2c d5 01 b9 b6 bc ce b9 f6 6b 25 ba
       -0.00033498098 -0.00012381811 -0.00039431982 -0.0006310338
000060 08 24 9e b9 b9 f6 5b b9 35 e7 6a 37 d5 81 2a 37
       -0.00030162954 -0.00020977379 1.4001319e-05 1.01630185e-05
000070 3d 63 de b8 c6 e0 25 ba 31 28 34 ba 2d 95 13 b8
       -0.000106042695 -0.00063277443 -0.0006872444 -3.5186462e-05
000080 11 01 44 38 c3 2f e7 38 7f 1f 67 36 66 1d 07 39
       4.6731035e-05 0.00011023835 3.4440015e-06 0.00012885555
000090 fa 91 9b 37 11 44 40 3a 7e fa e8 b9 ef 83 b8 36
       1.8545416e-05 0.00073343614 -0.0004443712 5.4989864e-06
0000a0 41 df 2e b9 bc f6 57 39 76 46 16 b8 38 ce 63 b9
       -0.00016677102 0.00020595914 -3.582841e-05 -0.0002172523
0000b0 de e6 b3 39 20 3f 16 ba ac 9d e2 b8 a8 fb 89 38
       0.0003431355 -0.0005731452 -0.000108058885 6.579544e-05
0000c0 1b fb 3d b9 64 87 6d 39 30 c7 59 39 d1 77 db b9
       -0.00018117989 0.00022652518 0.00020768936 -0.00041860205
0000d0 75 a3 4f b9 e0 09 9d 39 22 28 7d b9 8f 62 f4 b8
       -0.00019801951 0.0002995273 -0.00024142911 -0.000116531846
0000e0 40 59 2e 3a b9 c7 b3 b9 6f ae c3 b8 c1 cf d0 b9
       0.00066508725 -0.00034290346 -9.3308154e-05 -0.0003982764
0000f0 06 44 91 39 3c 73 07 b9 3a 3b 34 b9 fe 3c e3 39
       0.00027707237 -0.00012917531 -0.00017188201 0.00043342257

bnlr3.bn.weight f4 [64]
000000 a8 0d 7f 3f 09 a8 82 3f e5 be a0 3f c9 c3 9d 3f
       0.9963021 1.020753 1.2558256 1.2325374
000010 cc 15 53 3f ab dd b3 3f fb c9 ab 3f cb e2 7e 3f
       0.82455134 1.4052023 1.3421015 0.9956481
000020 53 55 91 3f bb 7e 7f 3f 07 42 9d 3f 63 51 a9 3f
       1.1354164 0.9980275 1.2285775 1.3227962
000030 a9 dd 5f 3f 85 96 8e 3f 28 dd c2 3f 40 14 78 3f
       0.874476 1.1139685 1.5223742 0.969059
000040 f7 e7 74 3f 8b 82 eb 3f 49 93 86 3f 6e 62 88 3f
       0.9566645 1.8399214 1.0513698 1.0655038
000050 dd 55 a2 3f 4e eb 9a 3f 33 27 e9 3e 64 54 61 3f
       1.2682453 1.2103059 0.4553772 0.88019395
000060 38 8e 96 3f b5 c9 83 3f 61 45 a0 3f 2b 05 89 3f
       1.1762152 1.0295931 1.2521173 1.0704702
000070 c1 3c 94 3f d0 0d ae 3f 8c 26 93 3f 4f 54 85 3f
       1.1581041 1.3597965 1.1496139 1.0416354
000080 23 75 71 3f 8c 49 67 3f 04 6f 65 3f 52 f1 96 3f
       0.9431936 0.903466 0.8962252 1.1792395
000090 5a 75 58 3f ed 87 96 3f ea 35 a7 3f 27 7b 92 3f
       0.84554064 1.1760231 1.3063328 1.1443833
0000a0 a9 09 6d 3f 53 cd 3b 3f 1d 39 aa 3f 6d a1 2c 3f
       0.92592865 0.73360175 1.329868 0.67433816
0000b0 c8 18 5a 3f 3f 7c 85 3f a5 20 9c 3f 04 c5 4f 3f
       0.85194063 1.0428542 1.2197462 0.81159997
0000c0 89 e8 f2 3f 03 70 ac 3f 62 2a 65 3f 09 a4 48 3f
       1.8977214 1.3471683 0.89517796 0.783753
0000d0 71 7e 78 3f ec 22 a5 3f cc de 5a 3f 64 2d 0d 3f
       0.97067934 1.2901282 0.8549621 0.55147386
0000e0 54 98 94 3f 72 5d 2b 3f 01 bf 9b 3f c8 f3 6c 3f
       1.1608987 0.6693946 1.2167665 0.9255948
0000f0 1e 8d 82 3f 29 8d a1 3f 9b 2b 92 3f d3 1b ca 3f
       1.0199316 1.2621204 1.1419557 1.5789741

bnlr3.bn.bias f4 [64]
000000 b3 91 2a be fc b9 02 bd 1f cd 50 bf c3 ce 3d be
       -0.16657142 -0.03191565 -0.8156299 -0.18535905
000010 17 9f 92 bd c5 af 11 bf 33 74 4f bf c9 97 a3 be
       -0.0715925 -0.5690883 -0.8103668 -0.3195174
000020 02 02 dd 3d 22 d6 6b ba 40 95 ed 3c 52 69 28 bf
       0.107913986 -0.0008996447 0.029001832 -0.65785706
000030 4b 58 3e 3e 70 b9 ca be 59 05 f8 be 16 fa 99 be
       0.18588369 -0.39594603 -0.4844158 -0.30073613
000040 4f e6 a1 3d 0c 80 97 be 82 01 0f bd 53 b6 bf 3c
       0.07905256 -0.2958988 -0.034913547 0.023402369
000050 7b 37 20 bf 19 35 84 be 68 e4 8f 3f 36 4f ed 3e
       -0.62584656 -0.2582176 1.1241579 0.46349496
000060 fb b5 9d be d8 69 d1 be 27 ba 80 bf 8f 07 8a 3d
       -0.30802903 -0.40901065 -1.0056809 0.06739723
000070 b7 dc a4 be 8c 20 74 be 9b 95 ec be f6 ba 30 bd
       -0.32199642 -0.2384054 -0.4620789 -0.04314705
000080 a5 53 e8 3d c7 0a 1c be 4f fa ef 3d b4 e7 c7 be
       0.11344079 -0.15238486 0.117176645 -0.39043963
000090 ad d6 87 3e 3e a8 0f 3e 66 54 a5 3d cc ff 0a bd
       0.26530972 0.14029023 0.08072738 -0.033935353
0000a0 49 6e 5b 40 78 00 18 bf cf 24 34 bf 76 fc 5a 40
       3.4286063 -0.59375715 -0.70368665 3.421659
0000b0 ee af 67 3e 03 bd 28 c0 c4 31 c0 be ec 03 48 3d
       0.22625706 -2.6365364 -0.37537968 0.048831865
0000c0 b5 47 53 bf b1 25 2e bf a1 53 30 3e 43 d5 8f 3e
       -0.8253129 -0.6802626 0.17219402 0.28092393
0000d0 8e af 18 3e 1a 50 21 bf 03 6a bd 3e e0 6f 9d 3e
       0.14910719 -0.6301285 0.36994943 0.30749416
0000e0 e5 2e 94 3f 33 d9 89 3e 81 b8 53 be 11 f7 ff 3d
       1.1576811 0.26923522 -0.20675851 0.12498296
0000f0 15 8f 4f 3d 4b 4f 1c bf 35 97 ac be 89 b6 68 bf
       0.050673563 -0.6105849 -0.33709112 -0.90903527

bnlr3.bn.running_mean f4 [64]
000000 0b 07 bf c0 e4 29 89 c0 bb 5e ab bf c3 7d 29 c0
       -5.9696097 -4.2863636 -1.3388284 -2.648301
000010 8e 8c 99 40 85 47 c3 c0 ba c1 20 c0 d6 35 a1 c0
       4.7984076 -6.1024804 -2.5118241 -5.037822
000020 15 c4 0a c1 1c 47 0c 3f 32 fd 50 c0 c0 e2 84 c0
       -8.672872 0.54796004 -3.2654538 -4.1526794
000030 ee b5 74 3f 31 49 de 3d 74 54 fe c0 7d 02 c4 c0
       0.955901 0.10853804 -7.947809 -6.1253037
000040 60 81 b4 c0 77 99 65 40 db 68 69 c0 c2 06 01 40
       -5.640793 3.5874918 -3.6470249 2.0160375
000050 bb 2f 24 c0 a5 43 c9 c0 da c3 60 c1 b2 c9 7c 40
       -2.5654132 -6.2895074 -14.047815 3.9498105
000060 a1 f3 4d 3f 4b d2 71 c0 58 be 93 bf 8d 11 9e c0
       0.80449873 -3.7784603 -1.1542463 -4.9396424
000070 c4 68 ce c0 27 5e 1d c1 32 9b 2e c1 c5 62 c9 c0
       -6.450289 -9.835486 -10.9128895 -6.293307
000080 ff 44 f6 c0 f5 6b 98 c0 8c 9a e8 c0 d7 b7 36 bf
       -7.6959224 -4.7631783 -7.2688656 -0.7137427
000090 69 bb 19 41 f2 1b 68 c1 4a 64 27 40 d4 f3 36 c1
       9.608254 -14.506823 2.6154962 -11.434528
0000a0 eb 3f f7 40 d3 4b 7f c0 49 4d a4 c1 b2 9b a9 c0
       7.7265525 -3.989003 -20.537737 -5.300256
0000b0 21 20 8d 3f e2 9a 40 40 09 54 94 c0 51 70 fc c0
       1.102543 3.0094533 -4.635258 -7.8887105
0000c0 2d d1 c0 c0 78 e5 ba bf f9 4d d3 c0 78 5f ce bf
       -6.025534 -1.4601278 -6.603268 -1.6122885
0000d0 77 78 2f c1 8f 66 26 c1 1e 06 ad 3f 9f 63 3e 40
       -10.96691 -10.400039 1.3517492 2.9748304
0000e0 82 7b 61 41 c2 2f fc 40 37 67 76 c0 7a 8e 0f c1
       14.092653 7.88083 -3.8500497 -8.972284
0000f0 28 71 1e c0 fd e6 ea c0 b1 0c df 3f b8 63 d3 c0
       -2.4756565 -7.340697 1.7425748 -6.6059227

bnlr3.bn.running_var f4 [64]
000000 cd 50 b8 42 ff 55 2f 43 28 06 b7 42 8f ec 2a 43
       92.157814 175.33592 91.512024 170.92406
000010 67 07 fa 42 be ab ae 42 3f 9b 84 42 00 a5 72 43
       125.01446 87.335434 66.303215 242.64453
000020 30 3d f8 42 7b 46 ff 42 76 1e fb 42 ba c9 e9 42
       124.11951 127.63766 125.559494 116.894
000030 c1 17 9c 42 4d ab a1 42 e5 08 de 42 f2 93 33 43
       78.046394 80.83457 111.01737 179.57791
000040 95 ff bb 43 08 8f fb 42 14 56 7c 43 c4 3b b5 42
       375.99673 125.77936 252.33624 90.61673
000050 b5 da c9 42 57 df ed 42 5f 08 e1 42 de 3a de 43
       100.92716 118.93621 112.51635 444.4599
000060 d7 bf 17 43 50 94 c8 42 e5 90 c0 42 ce ff 06 43
       151.74937 100.28967 96.283 134.99924
000070 f9 f7 b2 42 10 33 bd 42 d9 e2 bf 42 57 79 d2 42
       89.48432 94.59973 95.94306 105.23699
000080 1a 66 d9 42 23 50 5b 43 d8 75 b4 42 ef e6 b3 42
       108.69942 219.31303 90.23016 89.95104
000090 19 9f e1 42 c3 88 0b 43 ad df 1d 44 a7 e3 5c 43
       112.81074 139.53423 631.49493 220.88927
0000a0 43 8c 8d 43 5f 76 00 43 5e 20 b2 42 23 13 0a 43
       283.0958 128.46239 89.06322 138.07475
0000b0 72 08 4b 43 43 e7 53 43 cb 26 f5 42 39 d3 a6 42
       203.03299 211.90337 122.57577 83.412544
0000c0 8c 5d e9 42 cd 21 a1 42 53 30 ec 42 bf 1f 31 43
       116.68271 80.56602 118.09438 177.12401
0000d0 eb 82 06 43 64 10 b5 42 52 1a fe 43 fe 5f a6 43
       134.5114 90.53201 508.20563 332.74994
0000e0 b2 7c 21 44 59 b7 92 43 a6 58 0b 43 f0 d7 ca 42
       645.94836 293.4324 139.34628 101.42175
0000f0 a0 cb e1 42 e9 e8 d0 42 ca c4 ba 42 96 9d df 42
       112.897705 104.4549 93.38435 111.807785
