models/leaner_model1.pt (torch, 455029 bytes, 16 tensors)

enc_conv0.weight f4 [16, 3, 3, 3]
000000 89 5a 2c bd 7f 7b d6 bd a9 d6 39 bd 8c 36 21 bd
       -0.04207853 -0.10472774 -0.04537073 -0.03935866
000010 83 5b 03 be 5c 42 30 be 88 8a 1d 3e c6 bc 5f bd
       -0.12827878 -0.17212814 0.15384877 -0.054623388
000020 05 0c bb 3d ac 5c 29 bc bc 0a b9 bc 66 27 de bc
       0.09133152 -0.010337036 -0.022588126 -0.027118396
000030 01 f3 0b be 1f 7b 0a be a0 1f 30 3e 2d 69 17 3e
       -0.13666917 -0.1352353 0.17199564 0.14786215
000040 fb e6 de 3d 00 48 10 3e 18 00 14 3e 68 34 f4 3c
       0.108839 0.14089966 0.14453161 0.029810145
000050 d0 0b 8d 3d 87 aa 48 3e b1 30 a8 bc 57 39 9f bd
       0.06887019 0.19596301 -0.02053103 -0.077746086
000060 f7 ea 97 bc 3d 1c 0a 3e ea 77 26 be bd 70 a2 bd
       -0.018544657 0.13487335 -0.16256681 -0.07931659
000070 6e 42 b8 3b 2d 4c ed bd e5 48 be bd d5 00 5f bc
       0.0056231534 -0.11586795 -0.09291247 -0.013611038
000080 66 c1 c7 3b 1e 78 29 3e 33 93 19 3e a4 e3 9e bd
       0.006096053 0.16549727 0.14997558 -0.07758263
000090 ac 0b 04 be ba ca 14 3e f9 f0 e0 bc d0 7d fd 3d
       -0.12895077 0.14530459 -0.027458655 0.123775125
0000a0 77 bc 41 3e 5c 6e b4 bd 40 cd 5a 3e e2 be 1d 3e
       0.1891955 -0.08810112 0.21367359 0.15404847
0000b0 4a b2 61 3d 7c e9 4a 3e 0c fa 8b bd 9a c0 c3 bd
       0.05510167 0.1981563 -0.06834802 -0.0955822
0000c0 d1 32 a1 bd c7 ae 1b be 5f 61 d4 bb 43 03 c8 3d
       -0.078710206 -0.15203391 -0.006481334 0.09766247
0000d0 cf 4e 4c 3c 24 0e d4 bd 87 51 14 3e 90 10 82 bb
       0.012469961 -0.103542596 0.14484225 -0.0039692596
0000e0 2f c8 ec bc 2a 15 1b bd ac 3b fb 3d de 8e 22 be
       -0.028904049 -0.03786198 0.12267241 -0.15874812
0000f0 cd 72 03 3e e0 28 9f bd a0 56 05 3e 0f 0d 33 be
       0.12836762 -0.07771468 0.13021326 -0.1748545
000100 03 99 18 be b1 7e 0b 3d c9 7d 2c 3e 1a 00 ec 3d
       -0.1490212 0.03405637 0.16844858 0.11523457
000110 bd 8d c6 bd ed 97 9b bb 3b 8c 57 3d b1 bd 79 3b
       -0.09695003 -0.0047483356 0.05262397 0.003810745
000120 92 28 21 be b5 e1 06 3e 03 15 2f bd 4c dd 39 be
       -0.15738133 0.13172038 -0.042744648 -0.18150824
000130 8d 64 a1 bd 65 0a b9 bd 4a 0f 33 be 26 7e d4 bd
       -0.07880507 -0.09035186 -0.17486301 -0.103756234
000140 da 2c 3e be a5 0e cb bd e6 c0 6f 3d be 68 4c 3e
       -0.18571797 -0.099149026 0.05853357 0.19961831
000150 37 2e d1 3d 8f 45 4d 3e e6 2d c8 bd a4 2f df bd
       0.10213893 0.20046066 -0.097743794 -0.108977586
000160 4e ff cb 3d ba fc d3 bd c9 33 f5 3d c8 c9 03 bd
       0.09960805 -0.10350938 0.11972768 -0.032174855
000170 cd 63 dd bd c8 19 ce bd 5c 0c 7c bd ac c6 ad bd
       -0.10810051 -0.10063511 -0.061535224 -0.08485159
000180 cb 65 31 3e 35 28 84 3c cd 27 01 3c bb ae dd bd
       0.17323987 0.016132453 0.007883024 -0.10824343
000190 96 86 2c bd 90 22 bc bd 76 7b 9c 3d b3 41 5f 3d
       -0.04212054 -0.0918628 0.07640736 0.054506015
0001a0 09 5b 73 bd 2a 1d d8 3d 3a e6 3d 3e e0 04 66 3c
       -0.05941299 0.105524376 0.18544856 0.014039248
0001b0 e5 3e 80 3c be c8 1c 3d aa c5 2a 3d 1e ef 01 bd
       0.01565499 0.03827738 0.041692413 -0.03172218
0001c0 df a3 bb 3c 42 de 75 bd 2b 9a 07 3d 39 c2 aa bc
       0.022905288 -0.060026415 0.03310601 -0.020844566
0001d0 fd 0f 03 3e 06 bf 10 be de 95 2f be e9 02 ae 3d
       0.12799068 -0.1413537 -0.17147014 0.08496649
0001e0 92 cf 13 3e 1e 01 97 bd c8 c4 fc 3d 50 3d 3d 3e
       0.1443465 -0.0737326 0.123422205 0.1848042
0001f0 f9 dd 11 3d 41 29 a5 bd fe 37 37 3e 9a 8e c9 bd
       0.03561208 -0.08064509 0.17892453 -0.09841652
000200 d3 b6 3a be f2 34 ad 3c ba e4 23 be 74 15 17 be
       -0.18233804 0.02114341 -0.16005221 -0.14754277
000210 35 96 a0 3d fc 05 26 3e 31 1d 9d 3c 1b fd 5d bd
       0.0784115 0.1621322 0.019178959 -0.05419646
000220 42 26 87 3d 31 ea 4a 3e d4 cc 43 3e 70 f6 a6 3d
       0.06599094 0.198159 0.19121104 0.08152473
000230 6b 11 88 bd bc 97 b3 bd 1b 8c 99 3d 7d ac 34 3d
       -0.06643947 -0.087691754 0.07497426 0.04410981
000240 34 a6 10 be 67 ef 06 3e a8 1f aa bd 01 bb 93 bd
       -0.14125901 0.13177262 -0.08306819 -0.072134025
000250 96 27 18 3e 7d d4 35 3d 8b c0 ef 3c 50 0a cb 3d
       0.14858851 0.044392098 0.029266616 0.09914076
000260 34 24 47 bd 56 16 12 3e 93 96 18 3e 21 e7 35 3e
       -0.04861851 0.14266333 0.1490119 0.1776395
000270 aa 41 08 3e 75 af 07 be a8 03 1c be 09 5f bc bd
       0.13306299 -0.13250525 -0.1523577 -0.09197814
000280 a2 76 81 bd 57 0a 1e be 20 77 14 be 0a 1d 24 3d
       -0.063214555 -0.15433632 -0.14498568 0.040066756
000290 fe 56 33 be 75 5d e4 bd ea ba 86 3d 7a fa 70 bc
       -0.17513654 -0.11150638 0.0657862 -0.014708156
0002a0 cd 7a 44 bd 8c af 17 be 0c 29 9e bc e3 8f e0 3d
       -0.047968674 -0.1481306 -0.019306682 0.10964944
0002b0 09 5e f6 3c 3c 3a 9b bd 06 d2 5b bd 24 3e 25 3e
       0.030074136 -0.07579467 -0.05366709 0.16136986
0002c0 df ce e2 3d 86 3b 2d 3e cc d0 9c 3c 84 2d 23 3e
       0.11074614 0.16917238 0.01914253 0.15935332
0002d0 38 e7 3d 3e ff 6c bd 3d ce be ba bb 15 38 e1 bd
       0.18545234 0.09249305 -0.005699015 -0.10997025
0002e0 ae 9d 18 3d fe ce 9c 3d c1 cc 06 3e 41 51 2c be
       0.03725975 0.07656668 0.13164045 -0.16827871
0002f0 7b 83 f2 bd 52 ee a2 3d a2 a9 ed 3d 68 18 e5 bb
       -0.11841484 0.07955612 0.116046205 -0.006991435
000300 35 1b ab 3d ee 96 3d 3d 2f 74 8a 3c 4d 09 81 3d
       0.08354799 0.046286516 0.016901104 0.06300602
000310 20 cf d2 bd 25 8e 89 3d 69 3a 1a 3d 8b f8 6e 3d
       -0.10293412 0.06716565 0.03765336 0.058342498
000320 c2 50 bf bd 7a 8d e3 bd 20 10 12 3e a8 90 ab bd
       -0.09341575 -0.11110969 0.14263964 -0.083772
000330 0e 03 28 bc b3 83 82 3d 0e ef 02 3e 73 6f 77 3d
       -0.010254635 0.06372776 0.12786505 0.06040902
000340 cf 91 f4 bd bc f6 d1 3d 64 b6 24 be 65 ce 05 3e
       -0.11941873 0.10252139 -0.16085202 0.13067015
000350 3d 06 45 3e a6 52 78 3c 60 e3 02 3c 05 c5 19 3e
       0.19240661 0.015156424 0.007988781 0.15016563
000360 27 31 08 bd f2 89 32 3e a3 78 17 3e e7 8f d9 bc
       -0.03325 0.17435434 0.14792113 -0.026557876
000370 18 e1 4c 3d 9c 38 13 3e 37 8a 8b bd d0 bd 7e 3d
       0.050019354 0.14377064 -0.06813472 0.062192738
000380 c2 8d c9 bd ce 43 22 3e ba 4d 71 bd 5a b2 2f bd
       -0.09841491 0.15846178 -0.058912016 -0.0428947
000390 70 00 a6 b9 8b ca c6 3c e0 38 aa 3d 40 89 46 be
       -0.00031662313 0.024266502 0.08311629 -0.19388294
0003a0 2d 63 13 be 42 36 a6 3d 29 f0 17 3e ae 0c 0f be
       -0.14393301 0.081158176 0.14837708 -0.1396968
0003b0 d8 06 0f bc 1d e2 2f be e1 08 cb bd 92 94 4d bc
       -0.008729659 -0.17176099 -0.09913803 -0.012547629
0003c0 10 ca 90 3d 0c 49 12 be da 6f 03 3e 12 cb 7e bd
       0.0706979 -0.14285678 0.12835637 -0.06220538
0003d0 65 0c 60 bd 7c ca 21 be 71 75 2d 3e 69 2b 11 be
       -0.05469932 -0.15799898 0.16939332 -0.14176716
0003e0 2f ed 83 bc 52 a4 a7 bc b4 dc 41 3e e6 8c 43 3e
       -0.016104309 -0.020464096 0.18931848 0.19096717
0003f0 cc 50 97 3d e6 00 1b be 2f f9 38 be 47 16 e0 bd
       0.07388458 -0.15137061 -0.18063806 -0.10941749

enc_conv0.bias f4 [16]
000000 95 5f 01 3d 73 d9 78 3e fd 3b 27 be 3c 47 86 bd
       0.031585295 0.243017 -0.16331477 -0.06556556
000010 1d 54 07 3d d9 68 b0 3d c7 84 a0 bd 3d 66 ac bd
       0.0330392 0.08613748 -0.07837825 -0.08417938
000020 18 9a 0f 3e b6 13 23 be 69 57 9e 3d e0 70 bf bd
       0.14023626 -0.15925488 0.07731516 -0.09347701
000030 3e 56 e4 3d 13 44 08 3e cd a3 6b bd 82 44 1f be
       0.11149262 0.13307218 -0.05752926 -0.15553477

enc_conv1.weight f4 [32, 16, 3, 3]
000000 7a 7e 72 bd 84 84 02 3d 75 9b 1a bc 74 32 52 bd
       -0.05920265 0.031864658 -0.009436478 -0.051317647
000010 b5 bf 4b 3c f9 7c 83 bd 1c 88 67 3d 05 35 a3 bd
       0.012435843 -0.06420321 0.05652629 -0.07969097
000020 64 01 9a bd d9 63 51 3d 5c 87 90 3d 35 53 2f 3d
       -0.075197965 0.051120613 0.07057068 0.04280396
000030 fc 6d 55 bd e3 b0 3d 3d 73 b7 7e bd d5 c1 43 3d
       -0.052106842 0.04631127 -0.06218667 0.047792275
000040 66 f0 8b bd b4 c6 88 3d a0 78 37 3d d7 c2 11 bd
       -0.06832962 0.066785246 0.04479277 -0.035586204
000050 08 f2 58 bd c6 d3 8e 3c ff 65 a0 bd 22 55 68 3d
       -0.052965194 0.017434966 -0.07831954 0.056721814
000060 7d 63 62 3d b7 ae 93 3c 95 29 2c bd 3e 1d 95 bd
       0.05527066 0.018027646 -0.042031843 -0.07280968
000070 43 22 8e bc 28 97 22 bc 59 9f a8 3c c2 01 c3 3b
       -0.017350322 -0.009923734 0.020583795 0.0059511373
000080 0c 87 70 3d 66 f4 39 3d 8a 60 a6 bc 29 47 9a 3b
       0.05872254 0.045399092 -0.020309705 0.00470819
000090 6e e4 e0 3c f2 4f 77 3c 3c 5e 64 3d 46 e6 75 3d
       0.027452674 0.015094744 0.05575393 0.06003406
0000a0 e5 2b 28 3c d2 c8 6d 3d 56 50 94 bc 76 2e 02 3c
       0.0102643715 0.058052845 -0.018104713 0.007945647
0000b0 15 77 06 bd 96 57 23 bc 1f 54 4d bc b9 55 b6 bc
       -0.03282841 -0.009969613 -0.012532263 -0.022257673
0000c0 06 32 e9 3c d0 a1 8f 3d a8 27 b9 3c db 60 e1 bd
       0.028466236 0.07013285 0.022601917 -0.11004802
0000d0 f4 44 13 be 1e 34 a3 3c 9d 53 d2 3c 7b ff 87 3d
       -0.14381772 0.019922312 0.025674636 0.06640526
0000e0 2f 5b 5c bd 89 7b 7a bd 13 8d 67 3d 6c 54 45 bd
       -0.053797897 -0.06115297 0.056531023 -0.048176214
0000f0 53 ee 4e bd 1c 5c a0 3b 8c be ad 3c bf a6 9e 3d
       -0.050520252 0.004893793 0.021209024 0.07746648
000100 96 55 c0 3c f9 1e a3 3d 56 d6 20 3d 39 a2 2e bd
       0.02347831 0.07964892 0.039266907 -0.042635176
000110 0a 47 76 3d 94 37 3f 3d 3e 20 9b bc 83 0d 4e 3c
       0.060126342 0.046683863 -0.018936273 0.012576464
000120 f0 1f 7b 3d 38 7d 66 3d ed 81 f2 39 13 97 72 3d
       0.061309755 0.05627176 0.0004625464 0.059226107
000130 9f dd a6 bc 3f 46 50 bd 66 7c e5 3c e4 46 7e bd
       -0.020369349 -0.050848242 0.02801342 -0.062079325
000140 f7 f3 9d bd 1f 12 2e bd a9 40 1d 3d a2 e4 c4 3a
       -0.07712548 -0.04249775 0.038391743 0.0015021751
000150 0b f9 2e bd 8f de f7 bc 8e 7c 17 3d e5 5a 7a 3d
       -0.042717975 -0.030257491 0.03698402 0.06112184
000160 f0 57 04 bd a0 04 87 bd 09 ae c9 bc 46 9d 44 bc
       -0.032310426 -0.06592679 -0.02461912 -0.012000388
000170 e0 3a 46 bd 26 04 b1 3d 24 93 be 3d 95 38 0f bd
       -0.04839599 0.086433694 0.093054086 -0.03496607
000180 c1 70 a4 bc 9c 5b 3f 3d 2c 58 0e bb d4 40 9d bd
       -0.020073297 0.046718225 -0.0021720035 -0.076783806
000190 ab 46 3e bd 7e 6d 9b 3d fa 26 69 3d 91 37 91 3d
       -0.046454113 0.07589243 0.056921937 0.070906766
0001a0 1d 64 92 3d ef ac fd 3c 77 13 8e bc 2a 84 a0 bd
       0.07148001 0.03096625 -0.017343266 -0.07837708
0001b0 96 7c c1 3d 1a 4f 5a 3d 25 27 6e 3d 29 70 74 bc
       0.09447591 0.053298093 0.0581428 -0.014919319
0001c0 bd 73 23 bc 98 fa 0e bd 9c 66 b4 3b 1d 82 62 bc
       -0.009976325 -0.034906954 0.005505396 -0.013824967
0001d0 3a e2 b9 3c fc d0 6d bd 5e a2 49 3d 1b 84 0b bd
       0.022690881 -0.05806063 0.04922711 -0.034061532
0001e0 71 2a 8f bd 82 92 1b 3d 54 75 9d bd b0 3b ef b8
       -0.06990517 0.037981518 -0.07688394 -0.00011407526
0001f0 ed 5f 8b bd b8 aa 96 3d dd 2c 7d bd 6e fc 27 3d
       -0.06805406 0.07356781 -0.061810363 0.04101222
000200 63 79 6a bd 02 33 31 3d d7 60 b5 3d d5 80 44 bd
       -0.05724467 0.043261535 0.08856361 -0.047974426
000210 f8 b7 04 bd d6 de 38 bd 84 df 06 bd 67 40 68 bd
       -0.03240201 -0.045134388 -0.032928005 -0.056702044
000220 c9 0b 2a 3d f3 71 8f bd 7d da 3d 3d fc d3 9d 3c
       0.041515145 -0.07004156 0.046350945 0.019266121
000230 88 98 80 3c 7f 53 56 3d 8a b9 8a 3d a5 a6 4b 3d
       0.015697733 0.05232572 0.0677367 0.04971947
000240 b2 39 95 3c 3c 75 8d bc ef 0f 0a bc 77 93 53 bd
       0.018215988 -0.017267816 -0.00842665 -0.051654305
000250 d5 ba 34 bd d3 99 95 3d 9a 78 f6 3b 2f 73 39 3b
       -0.04412349 0.0730473 0.007521701 0.0028297415
000260 6f 97 29 bd 8b f6 5a 3c 1a d4 53 3d 87 d8 91 3d
       -0.041404184 0.0133644445 0.051715948 0.071213774
000270 81 4a 13 3d b7 0f 59 3d 99 4f 6b bd 6f a1 9a 3b
       0.035959724 0.052993502 -0.057448957 0.0047189514
000280 72 2b 56 bd 36 7c 4e bd 21 26 cc bb 52 2d 98 bd
       -0.052287526 -0.050411426 -0.0062301313 -0.07430519
000290 d9 63 86 bd 6a b6 07 3d ee e6 9e bc 47 18 e0 3c
       -0.06562013 0.033132948 -0.019397225 0.027355326
0002a0 c2 32 09 3d f8 63 9e bb b1 ed 79 3d b8 e6 ad bd
       0.033495672 -0.0048336945 0.061017696 -0.08491272
0002b0 22 ab bd bd c1 56 28 3d c0 40 85 bd 8c 1d c7 3c
       -0.092611566 0.04109836 -0.06506491 0.024306081
0002c0 5b 43 63 3b ba d6 3b bd ee d9 eb 3c 8a 8b 86 3d
       0.0034677598 -0.045859076 0.02879044 0.06569584
0002d0 c6 01 78 bc 57 39 c5 ba 1f 0d 67 bd e7 65 85 bd
       -0.015137142 -0.0015046996 -0.056408998 -0.06513577
0002e0 c1 54 79 3b 23 e0 3b 3b ac 80 93 bd 33 b2 5b bd
       0.0038044902 0.0028667531 -0.072022766 -0.05363674
0002f0 ad cd 6f 3d 84 58 28 bb e0 95 0c bd 4b 6a 5a 3d
       0.058545757 -0.0025687525 -0.03432262 0.053324025
000300 b3 0f c1 3d f6 f9 cc 3d f9 ce e0 3d c7 b8 ab 3d
       0.094268225 0.10008614 0.10976977 0.08384853
000310 64 9c 51 bd d1 44 9b bc a9 ba 67 3d df 48 9e 3d
       -0.051174536 -0.018953713 0.056574497 0.07728743
000320 ce 4b 58 bd 15 05 28 bd ba 2e 4a bc 00 7d 30 3d
       -0.052806668 -0.04102047 -0.012340242 0.04308796
000330 dc 09 bd bd 40 a8 9a 3c e2 61 51 3d 65 56 a5 bd
       -0.09230396 0.018879056 0.05111874 -0.08073119
000340 84 82 5d 3a 98 21 33 bd 76 5c 3b 3d 46 47 8e 3d
       0.00084499293 -0.04373321 0.045742474 0.06947188
000350 6c 75 ad 3c fa af 84 bd b8 cf 01 3d 29 a4 ab bb
       0.021174155 -0.06478877 0.031692237 -0.0052380753
000360 31 ab 55 bd 04 2e c2 bc f4 30 9b 3c bc 06 14 3d
       -0.052165214 -0.023703583 0.018944241 0.036139235
000370 a9 eb ca 3d 7a c8 33 3d c7 70 37 bd 4c 00 cb bc
       0.0990823 0.04389236 -0.044785287 -0.024780415
000380 f6 a1 1b bd f4 ec fa 3c 52 e2 88 3d f9 77 90 bd
       -0.037996255 0.030630566 0.06683792 -0.07054133
000390 a2 62 0c bd a4 11 cf bc 46 18 29 3d 9b ed 89 bd
       -0.03427375 -0.025276966 0.041282915 -0.06734773
0003a0 52 41 85 3b fa 0f 99 3d 45 d8 ff 3c 6f af 0e 3d
       0.0040666247 0.074737504 0.031231055 0.034835275
0003b0 54 bb 1d 3d 08 0d ef bc d7 5a 70 3d 0d 91 c7 bc
       0.03850873 -0.029181018 0.05868038 -0.024361158
0003c0 d7 b7 cf 3c a4 f2 ed 3c 17 96 b1 bd cf 0c 3e 3d
       0.025356216 0.029046364 -0.086712055 0.046398934
0003d0 a7 ef 28 3d 98 07 46 3d d4 b9 73 bd 57 03 c1 bc
       0.041244175 0.048347086 -0.05950339 -0.023561163
0003e0 e9 f8 5e 3d 72 81 a3 bd 82 53 7b 3d 39 e5 65 3d
       0.054436598 -0.07983674 0.061358936 0.056126807
0003f0 9e e1 25 3d 4f b8 29 3d 5c 66 95 3d fc 9b 0a 3d
       0.04049837 0.041435536 0.07294914 0.033840165

enc_conv1.bias f4 [32]
000000 ca 2c cc 3c d9 44 3b bc 65 ec f1 bc 5c 06 8c 3d
       0.0249237 -0.011429989 -0.029531667 0.068371505
000010 40 9d 65 bd e2 0d 10 bd d1 61 18 bc 30 27 9a 3c
       -0.05605817 -0.03516949 -0.009300665 0.018817514
000020 71 59 b9 3c e7 4a 3b 3d 34 fc 0c 3c 5c c9 e6 3b
       0.022625657 0.04572573 0.008605052 0.007043047
000030 fa 9f 81 3d 2a 51 5b bd af 3c 1b bd e2 97 22 3c
       0.06329341 -0.0535442 -0.03789967 0.009923907
000040 14 74 9f 3d 3d 6a 52 3c fb 53 bf bb 2a 76 06 bc
       0.07785812 0.012842712 -0.0058388687 -0.008206883
000050 3d 77 3d 3d ca a1 ec 3c ce 6f 45 3d ce 8d ca bc
       0.046256293 0.02888574 0.04820233 -0.02472582
000060 91 ba 38 bd b9 3e aa bc 59 d0 1d 3b 69 2e 9d bb
       -0.0450998 -0.020781862 0.0024080484 -0.0047967923
000070 af 86 e5 3c b4 32 3f bd 58 90 18 3d 6f fe a6 bb
       0.028018324 -0.046679214 0.037247032 -0.005096249

enc_conv3.weight f4 [32, 32, 3, 3]
000000 0c 1e 58 bd 0d 4c ea 3c 49 13 21 bd 7f b0 4a 3d
       -0.05276303 0.028600717 -0.039325032 0.049484726
000010 fb d1 d5 b9 f5 68 3b 3d 75 10 87 bc b3 17 dc 3c
       -0.00040782974 0.04575439 -0.01648734 0.02686677
000020 1d 85 93 3c 86 70 25 3d d1 e8 6f bc eb 62 80 bd
       0.01800781 0.040390514 -0.01464291 -0.06268867
000030 36 28 8d 3c fe c0 ab 3c 36 78 6f 3c bc 2a ac bc
       0.017231088 0.02096605 0.014616063 -0.021016471
000040 fd e5 39 bc e6 1a 49 bd 4b 7e 0d bc 66 bc 65 3d
       -0.011346337 -0.049097918 -0.008636068 0.056087874
000050 28 18 e9 bc 00 53 79 3d e3 32 b6 bc ec 1c f0 3b
       -0.028453901 0.06087017 -0.022241062 0.0073276665
000060 3b 5a d2 3a 9e 81 17 3d 44 55 41 3d 48 f6 95 3c
       0.0016048619 0.036988847 0.047200456 0.018305913
000070 d9 e0 d4 bc d3 85 09 3c f8 60 92 3c c1 66 c1 3c
       -0.025986122 0.008393723 0.017868504 0.023608567
000080 50 1b 37 3d 26 af 55 3b 82 74 10 bd d6 58 bc bc
       0.04470378 0.0032605617 -0.03526736 -0.022991579
000090 0f 05 be bc d2 1a 74 bd 47 a3 ae 3b 8c 78 8e 3d
       -0.023195772 -0.05959589 0.005329523 0.06956586
0000a0 71 30 be 3c dc 50 be bc 92 02 91 3c 0f 3c 96 bc
       0.023216458 -0.023231916 0.017701421 -0.018339185
0000b0 05 76 9d 3c 0b 01 0e bc 2e 76 e9 3c c8 a8 3a bc
       0.019221315 -0.008667241 0.028498735 -0.01139278
0000c0 e3 76 85 ba 11 c3 f0 3c 72 24 2d bd 47 b5 10 3d
       -0.0010182526 0.02938989 -0.042271085 0.03532913
0000d0 1a a8 5a 3d 0e a5 7c 3d 61 c3 02 3d 6e 2a 1a bd
       0.05338297 0.061680846 0.03192461 -0.03763812
0000e0 33 88 ac 3a b6 dd 59 3d dc fb 71 3c 65 63 77 3c
       0.0013163149 0.053189956 0.014769521 0.015099381
0000f0 c5 17 b7 3c 10 36 65 3d 8b 35 0a bd 8f b8 8f 3c
       0.022350201 0.05595976 -0.03374247 0.01754406
000100 58 c5 71 bd ae 68 f7 bb 64 e8 0b 3d 5f 9c 0f bd
       -0.059026092 -0.0075503206 0.03415717 -0.035061236
000110 79 e2 d9 bc 0e e3 5d 3d 26 0b 55 bd 2c 95 24 bd
       -0.026597248 0.054171614 -0.052012585 -0.040181324
000120 2d 26 2d bd fc 54 2a bd 91 ac 78 bd 46 9e 4e 3c
       -0.042272735 -0.041584954 -0.060711447 0.0126109775
000130 ea b0 7a 3d e2 2b 70 bd c2 f4 37 3c cc 27 97 bc
       0.061203875 -0.0586356 0.011227788 -0.018451594
000140 2b 6d b7 3c c9 d4 13 3d b1 3f 4a 3d 61 a1 1d bd
       0.022390923 0.0360916 0.049377147 -0.03848398
000150 c1 37 58 bd 59 70 b1 3c d4 31 bf 3b 24 81 52 3d
       -0.052787546 0.021660017 0.0058347974 0.05139269
000160 fa 07 9a 3c 5c 24 eb 3c 83 12 77 bd 20 6d 00 bd
       0.018802632 0.028703861 -0.06032039 -0.03135407
000170 9f b9 81 3c 0a eb 3f 3d c6 cc 6f bd c0 b9 30 bc
       0.015835581 0.04685501 -0.058544897 -0.010786474
000180 e6 bc 53 bd ca 75 6d 3c fe 8a 2b bc 54 d3 65 3c
       -0.05169382 0.014493415 -0.01047015 0.014027435
000190 15 52 8c bc d8 d3 3d 3d 82 9b 52 3d 8f 5e 11 bb
       -0.017128984 0.046344608 0.051417835 -0.0022181605
0001a0 9f 62 c6 bc 89 45 c2 3c 5c 41 35 bd ea 8a 45 3d
       -0.024216948 0.023714798 -0.044251785 0.048228182
0001b0 0a 90 a0 bd 2d e9 66 bb b7 9a 3b 3d 3d 0c 1d bd
       -0.07839973 -0.0035234198 0.045801844 -0.03834175
0001c0 06 cd 93 bb bb 69 c4 bc 21 d6 1d bd 2e 76 61 3c
       -0.0045105247 -0.023976197 -0.038534287 0.013761086
0001d0 ab 84 0f bc e1 bd a7 bd b4 bc 18 bd 46 1f cd 3c
       -0.008759658 -0.081905134 -0.037289336 0.025039326
0001e0 02 35 af bd 0c b7 49 bc e9 91 f3 bc 1e 3b 86 bd
       -0.08555032 -0.012311708 -0.029732661 -0.065542445
0001f0 1f 17 c9 bb 8d f5 e6 3c 18 18 2c bd 52 a1 63 3c
       -0.0061367895 0.02819326 -0.042015165 0.013893442
000200 19 ea 0f 3d bb b1 b2 3b 20 6d 77 3d 59 79 50 3d
       0.035135362 0.005453316 0.060406804 0.050896976
000210 bf a2 07 3c 4c 45 02 bd 44 a6 4c bd 7c f4 9d 3c
       0.008278548 -0.031804368 -0.04996325 0.019281618
000220 47 45 14 3d b9 04 8f 3b 46 aa 41 3d b3 54 b4 3c
       0.03619888 0.0043645767 0.047281526 0.022013044
000230 a7 09 ed 3c 21 38 4c 3c 7d ca 26 bd 5f 95 31 bd
       0.028935267 0.012464554 -0.04072045 -0.043355342
000240 3f d6 fa 3c f2 0f ff bb 31 82 10 bc 9f b9 01 3d
       0.030619739 -0.0077838833 -0.008820103 0.031671163
000250 7a 11 56 3d f7 5e e8 bc bb 8a e1 bc e9 1a d5 3c
       0.05226276 -0.028365595 -0.027531972 0.026013808
000260 77 60 47 3c dd 96 62 3d 4c ca 27 3c b9 02 6e bc
       0.012168995 0.055319656 0.010241102 -0.014527016
000270 bc 53 37 bd d0 6a df b8 44 a4 c0 3c 41 c1 04 3c
       -0.04475759 -0.00010653364 0.023515828 0.008102716
000280 c0 14 18 bd 57 31 da 3c 48 90 61 bd 36 56 c1 bc
       -0.037129164 0.026634855 -0.055069238 -0.023600679
000290 31 0f 63 bd fc 53 00 3d fb d0 19 3d 60 c5 0d 3d
       -0.05543441 0.031330094 0.037552815 0.03461206
0002a0 81 14 c3 bc a8 6c 68 bd 5c 21 1e bd a3 16 2d 3d
       -0.023813488 -0.056744248 -0.038606033 0.042257916
0002b0 b6 a5 a3 bc a1 9b 34 bc b0 f0 47 3d 02 10 e7 3b
       -0.019976478 -0.011023433 0.04881352 0.007051469
0002c0 c5 d9 02 bd 42 c3 0b 3d 12 36 7a bd 31 94 63 3c
       -0.031945962 0.03412176 -0.06108672 0.013890312
0002d0 e7 c3 d1 3a f2 26 80 39 3f 0c ad 3c 9b 15 1b bd
       0.0016003818 0.0002444308 0.021124003 -0.0378624
0002e0 4d 4f 43 bd cd 51 dc bc 02 23 80 3c de a6 03 bc
       -0.04768305 -0.026894474 0.015641693 -0.00803539
0002f0 72 b5 f7 bc e0 46 12 bd 39 63 dc 3c 2d d4 0b 3c
       -0.030237887 -0.035712123 0.026902782 0.008534473
000300 45 17 03 3d 0b 54 b7 3c c7 0a e7 3c e5 10 fa bb
       0.032004613 0.022378942 0.028203381 -0.0076314085
000310 40 c9 92 3c 10 32 aa 3c 47 c3 2f bd 0a 48 42 bd
       0.01791823 0.020775825 -0.04291084 -0.047431983
000320 90 ae 76 3c 3c 5d 95 3c 07 46 d4 3c 6d 37 33 bc
       0.015056267 0.018232934 0.025912298 -0.0109385075
000330 3f 0f 71 3c 5f c5 a7 bc fa 11 27 bd 2f b8 86 3c
       0.014713108 -0.020479856 -0.04078863 0.016445247
000340 15 1e 20 3c d2 14 5b bd de 94 2f 3d 99 06 3f 3d
       0.009772797 -0.053486653 0.04286658 0.04663715
000350 21 2b 4f 3d de ad 71 3c 96 2d 67 bb a7 9c 94 3c
       0.05057824 0.014750926 -0.0035274974 0.018141104
000360 cc 3a 19 3d 60 50 46 3d bf cf 08 bd 3b 04 6d bd
       0.03740959 0.048416495 -0.033401247 -0.057865363
000370 3c 22 3a 3d 5d 9b 30 3d 33 ed 94 3c 5e b8 04 bc
       0.045442805 0.043116916 0.018179512 -0.008100597
000380 09 3c 39 bd 8f a2 b4 3b fa 73 0c bc ec 0c 9b 3c
       -0.04522327 0.0055125426 -0.008572573 0.01892706
000390 2c 09 08 3d 69 2c 69 3d 21 00 42 bd 5c bd 25 3d
       0.033211872 0.05692712 -0.047363404 0.04046379
0003a0 fb 1f fc bc e7 20 52 bb 17 f6 36 bd d6 2d 2b 3d
       -0.030776968 -0.0032063068 -0.044668283 0.04179176
0003b0 04 47 1f 3d 03 bc 6e bd a4 fa 6d 3b 05 59 50 bb
       0.038886085 -0.05828477 0.0036312724 -0.003179134
0003c0 74 4a 84 bc 7b fd b5 bb 1b 0a 0f bd ba c8 03 bd
       -0.016148783 -0.005553899 -0.034921747 -0.03217385
0003d0 28 3d f7 bc 8d 68 17 bd 06 27 32 3d 30 7e e3 bc
       -0.030180529 -0.03696494 0.043494247 -0.027770132
0003e0 9b 2d d3 bc 1e a0 08 bd 37 1f bd bc 80 35 44 bb
       -0.025778582 -0.033355825 -0.023086173 -0.0029939115
0003f0 0d fa 1e bd 3f ee 61 bd 9b ba 4b bd 2c cb 67 3d
       -0.038812686 -0.05515885 -0.049738508 0.056590244

enc_conv3.bias f4 [32]
000000 88 24 93 bc e5 c4 3e bd 3f 56 30 bd ce dd 6a 3d
       -0.017961755 -0.046574492 -0.043051 0.057340436
000010 69 33 08 bd cc 37 50 bc 65 6c d8 bc b2 2e 61 3d
       -0.033252154 -0.0127086155 -0.026418874 0.054976173
000020 ad ee 32 bd 6b d2 a8 3c bf 5a 7e bc f3 40 f2 3c
       -0.04368465 0.020608148 -0.015524565 0.029571986
000030 8e ab e8 3c ef c7 7f 3c f9 b0 bd 3c 5c 54 88 3c
       0.028402116 0.015611633 0.023155676 0.016641788
000040 57 a0 c8 3a a0 0d 41 bd 63 73 0b 3d c0 d3 c8 bc
       0.0015306574 -0.047132134 0.03404559 -0.024515033
000050 85 d3 67 3d eb 3f 2e 3d 18 47 39 bd e6 3b bf 3c
       0.056598205 0.042541426 -0.045233816 0.023343991
000060 7e c4 08 bd 6b 53 7d bd c8 14 46 3d 66 d3 4b bd
       -0.033390515 -0.06184713 0.048359662 -0.049762152
000070 98 25 ce 3c be 15 06 3d 20 6b 17 3d 7c 44 57 bd
       0.02516441 0.03273558 0.036967397 -0.052555546

dec_conv2a.weight f4 [64, 64, 3, 3]
000000 17 b1 a2 bc 7d 92 87 3c 84 52 7c 3c b3 93 0b 3d
       -0.019859834 0.016549343 0.015400533 0.034076404
000010 2b 3e e7 3c 3c 66 9d 3d ed 54 e8 3c 39 b6 9d bc
       0.028227886 0.07685515 0.028360808 -0.01925193
000020 29 f6 86 3a f3 8b 10 3c 29 32 03 3e 07 af ad ba
       0.001029675 0.008822429 0.12812103 -0.0013251015
000030 40 17 70 b8 d7 03 4b 3d 80 5a 15 3c 33 5b 1e 3d
       -5.7242112e-05 0.04956421 0.009115815 0.038661193
000040 a8 01 4f 3b 69 e6 31 bd 45 49 47 bd 6e b7 cf 3c
       0.003158668 -0.043432627 -0.04865386 0.02535602
000050 40 ad a8 bc 28 b8 06 3d 45 b2 04 bc 59 28 d0 bc
       -0.020590425 0.03289047 -0.008099143 -0.025409864
000060 14 06 93 3c 2e 9d 8f bc b9 a7 4a bc da 49 c8 3b
       0.017947234 -0.017531004 -0.01236909 0.0061123194
000070 be 90 4f 3d 18 55 37 bd 06 87 19 3c 40 1d c8 bb
       0.050675146 -0.044758886 0.009370571 -0.0061070025
000080 3f 1c a1 bc 04 e8 b4 3b 07 79 01 bd 69 f2 52 bd
       -0.01966679 0.0055208225 -0.03160956 -0.05150071
000090 33 3f 4e bd cd 2c 21 3d 7b 27 7e bd 50 08 c0 bc
       -0.05035324 0.039349366 -0.06204937 -0.023441464
0000a0 07 55 2e 3c a9 46 33 bd f3 a2 97 bd 3f f1 2d 3d
       0.010640389 -0.04376856 -0.07404127 0.0424664
0000b0 d2 c5 30 bc 4e ef 0d 3d 49 66 d1 bb d7 83 ed 3c
       -0.010789352 0.034652047 -0.006390367 0.02899353
0000c0 0a 95 82 bd 59 da 94 bb fe df 73 bd 49 7a 85 bd
       -0.06376083 -0.0045426306 -0.059539787 -0.06517465
0000d0 c1 77 69 bb 04 99 9d bd 1e c3 bd 3d b6 ea 26 3d
       -0.0035624357 -0.07695201 0.09265731 0.04075118
0000e0 13 85 46 3d c3 c6 a1 bc 51 5f 90 bc 9e 3a 0f 3b
       0.048466753 -0.019748097 -0.017623575 0.0021855007
0000f0 02 e3 95 3c 02 80 df 3a 8d e9 e1 3c da 2f 36 3d
       0.018296722 0.0017051699 0.027577186 0.04447923
000100 a3 91 87 3d 07 e0 42 3d 01 f6 8e bc 4c 64 71 3d
       0.06619575 0.04757693 -0.017451288 0.05893354
000110 29 47 6c bb b2 e5 2e 3b 7a fb b1 bc a3 42 0d bd
       -0.0036053157 0.0026687202 -0.021726359 -0.034487378
000120 8e 01 af 3a ae 4a 83 3d 16 6c 39 bd 87 a8 cc 3d
       0.0013351904 0.064107284 -0.045269094 0.099930815
000130 36 ab 98 3d f5 b5 01 3d 95 e5 93 3b cb aa 1d 3d
       0.07454531 0.03166767 0.0045134523 0.03849296
000140 d5 93 e3 bc 0a a8 7b bd 1c 1c 5d 3d 4d fb a3 bb
       -0.027780453 -0.06143955 0.053981885 -0.0050043226
000150 d8 c5 97 3c 1c 4a cb 3c 2d e4 24 3c 3c 53 9b bd
       0.018526956 0.024815612 0.010064167 -0.07584235
000160 14 d6 4e bd 35 ff c5 bc 34 51 2c bc b3 a3 df 3c
       -0.05049713 -0.024169544 -0.010517407 0.027299738
000170 2a 18 fb bc 03 12 46 3c d8 2f 86 3d f4 c2 34 bc
       -0.03065117 0.012089255 0.06552094 -0.011032809
000180 54 36 d4 bc d6 39 e3 bc 61 0c 68 bc 0f a5 79 3d
       -0.025904812 -0.02773754 -0.014163108 0.060948428
000190 e3 90 1f 3d 92 39 b0 3c 2f 8b 06 3d 8c ad 90 3d
       0.038956534 0.021511827 0.03284758 0.070643514
0001a0 b8 e3 1a bc 65 39 d3 bc a8 80 ee bc 08 cc 68 bc
       -0.009453706 -0.025784204 -0.029114082 -0.014208801
0001b0 7a 72 85 bd 04 1e 04 3b f9 46 ae 3c ff 61 1e 3c
       -0.06515975 0.0020159492 0.021274077 0.009666919
0001c0 79 a7 60 3d c5 e9 12 3d 6a bf fd bb 13 33 e3 bc
       0.054847214 0.03586747 -0.0077437656 -0.027734315
0001d0 51 24 fe bb c7 00 66 3c f8 e5 c1 3b 11 b6 95 3b
       -0.007755794 0.014038271 0.005917307 0.004568823
0001e0 c2 c7 4b bd fa 8a 7a bc a2 22 b2 bc 01 b3 52 bd
       -0.04975105 -0.015291924 -0.02174503 -0.051440243
0001f0 b0 e2 de bc 55 c8 3c bd da a1 27 bd 8c 92 82 bd
       -0.027207702 -0.04608949 -0.040925838 -0.06375608
000200 66 95 d6 bc 11 49 79 3c 24 61 8a bd 19 19 c3 bc
       -0.026194286 0.015215174 -0.06756809 -0.023815678
000210 52 4c 11 3d 09 5f ba bc 16 b8 02 bd 98 0a cc bc
       0.035473175 -0.022750394 -0.03191384 -0.024907395
000220 27 7e 6e bb b4 ce 8e 3c 4f 1d 10 3d 77 0e 18 bc
       -0.003639111 0.017432548 0.0351842 -0.009280792
000230 68 af 16 bd 8d d3 24 3c 38 11 b0 bc 25 6f ae 3c
       -0.036788374 0.010060203 -0.021492586 0.021293232
000240 16 93 c5 3d 2f 06 ca 3d cd 71 dd 3c 58 32 b2 bd
       0.09647195 0.09864461 0.027031804 -0.087010086
000250 eb 0a da b9 23 98 38 bd 98 b9 76 bc 37 85 32 3c
       -0.00041588335 -0.045066964 -0.015058897 0.010896019
000260 a8 e6 91 3d 55 bd 27 3c 74 ba bc 3c 43 1f b9 3c
       0.07124072 0.010238011 0.023038127 0.022597915
000270 cd bd ae bd a8 49 40 bd 5d 2e 6a bc 31 f1 90 bd
       -0.085322954 -0.046945244 -0.01429328 -0.070772536
000280 ff 45 4d bd 3f 4e 6e bc b7 b7 64 bd 3d 1e 19 bd
       -0.05011558 -0.0145450225 -0.055839267 -0.037382353
000290 7d 18 64 3c 79 ba 23 bd a8 5c ee bc 58 8a 90 3b
       0.013921854 -0.039972756 -0.029096916 0.004411023
0002a0 3f e1 8b 3c 1e de 65 bc 7a 00 fa 3c 54 3d 36 bd
       0.01707518 -0.014030008 0.030517805 -0.04449208
0002b0 64 75 54 bd 84 ac 99 3c 11 24 24 ba a0 14 0c bc
       -0.051869765 0.01875902 -0.0006261478 -0.008549839
0002c0 71 e5 d7 bc d3 13 7a bd f5 df 88 bd f6 a8 ef bc
       -0.026354523 -0.061054062 -0.066833414 -0.029255372
0002d0 f4 b1 02 bd 9b ed 82 bb 04 4c 67 bc 12 6f 86 bc
       -0.03190799 -0.00399561 -0.014117245 -0.016410384
0002e0 07 86 51 3d d7 57 64 3d fa 8b f4 bc fe 94 64 3d
       0.05115321 0.055747833 -0.029851902 0.055806153
0002f0 d7 02 2c 3d bf 49 3c bc f5 bd b1 bc d1 27 95 bd
       0.041994896 -0.011492192 -0.021697024 -0.07282985
000300 89 05 01 3d 85 da 17 3d 65 97 84 bd f2 bb 8f 3c
       0.03149942 0.03707363 -0.06474189 0.017545674
000310 d6 fb 82 bc e4 77 80 bd fe 4e 3d bd 89 16 ac bb
       -0.015989225 -0.06272867 -0.04621791 -0.00525171
000320 55 58 38 bd 6b 7f ce bc 71 62 70 bc 03 85 89 bd
       -0.045006115 -0.025207242 -0.014671908 -0.06714823
000330 7d a4 f3 3c 0d ff b5 bc f8 3e 65 3c 0e d3 19 bd
       0.02974152 -0.022216344 0.013992064 -0.037554793
000340 dd 27 81 bb 7d cb 62 3d 92 14 fb 3c 60 6c 14 3c
       -0.0039415197 0.055369843 0.030649457 0.009059042
000350 9e f0 c2 3c d3 89 1c 3d f1 06 8a 3c 4a c6 97 bc
       0.023796376 0.038217377 0.016849013 -0.018527169
000360 df 8c 30 3d 61 86 d0 3c 09 2d d3 3c 3c e9 af 3c
       0.043103095 0.025454702 0.02577831 0.02147352
000370 df 7b 3f bd cd 77 c2 bc b1 3d 31 3b 89 ea 07 3d
       -0.046748992 -0.023738766 0.0027044828 0.033182655
000380 7d 1f 09 3d b1 4a 05 3c d4 6f 31 bd 47 4b 5f bd
       0.033477295 0.008135484 -0.04331954 -0.05451515
000390 34 ec fc 3c 87 27 e4 3a 35 31 4d bc 6f e4 ce 3c
       0.03087435 0.00174068 -0.012523939 0.02525541
0003a0 a1 8f 1e bc fc 86 85 ba 08 81 c9 bd 2e ff 8c bc
       -0.0096777985 -0.0010187323 -0.09839064 -0.017211523
0003b0 0c ea ad 3b ca 6a ab bc c8 fb 31 3d 14 c8 9e 3d
       0.0053074416 -0.020924944 0.043453008 0.077530056
0003c0 15 fa 55 3d ff 48 8d 3d e3 5c da 3c 15 4e 0e bc
       0.05224045 0.068986885 0.02665562 -0.008685608
0003d0 de 03 4b bc cd 9d 9e bc c7 a2 86 3c a6 d0 bd 3c
       -0.012391059 -0.019362355 0.01643504 0.02317078
0003e0 25 15 b0 3c f9 2a c6 3c 58 aa 7d bb e2 a0 dd ba
       0.021494457 0.024190413 -0.003870627 -0.0016908909
0003f0 c3 d5 fa bb 40 5f ca bb 52 dc 84 bd 00 a9 14 bd
       -0.007654877 -0.0061759055 -0.06487335 -0.036293983

dec_conv2a.bias f4 [64]
000000 44 f8 f5 3c 5e 3d 35 3b d1 10 94 3b 58 c1 92 bc
       0.030025609 0.0027654986 0.0045186062 -0.01791446
000010 71 58 75 bd d0 f5 91 bc 8b a6 f3 3c 88 03 a5 3c
       -0.059898797 -0.017817408 0.0297425 0.020143285
000020 2d 9f 8f bc ed 14 d8 3c 24 fd 53 3c b2 6c de 3c
       -0.017531956 0.026377166 0.012938771 0.02715144
000030 b1 05 32 3d 71 2c 3a 3c 06 b3 84 3c 33 f4 37 3d
       0.04346246 0.011363135 0.016198646 0.04491062
000040 e9 d5 eb bc 91 fb d7 3b aa 8b ad 3c d3 14 a2 3d
       -0.028788524 0.0065912683 0.021184761 0.07914128
000050 9b d4 de bb a4 7d 48 3b d1 5c 61 bb f8 a3 01 bc
       -0.006800247 0.0030592466 -0.0034387598 -0.007912628
000060 7a 2b 43 bc 17 09 48 39 bd 30 c7 3c d8 cb 24 bb
       -0.011912221 0.00019076873 0.024315232 -0.0025145914
000070 89 35 78 bd 2a 75 78 3c 50 2a 07 bd 2c 07 41 bb
       -0.06059793 0.015164653 -0.032999337 -0.0029453738
000080 cf 55 33 bc 59 5f a1 bc c4 dc 9d 3c c5 d3 4b bc
       -0.010945751 -0.019698786 0.019270308 -0.0124406265
000090 56 c6 a8 bc 47 79 5d 3c e1 e7 e4 bb 59 5a f1 3c
       -0.020602386 0.013517684 -0.00698565 0.029462026
0000a0 cc d5 78 bc a8 2f 8b bb 0c 30 c6 bb 6c 48 5d bc
       -0.015187692 -0.0042476244 -0.006048208 -0.013506036
0000b0 8c eb b0 3c 0c 24 3f 3b 23 c0 c3 3c 32 24 1f bd
       0.021596693 0.0029165773 0.023895329 -0.038852878
0000c0 39 38 20 bb 76 05 04 3d 80 3d 14 3d c0 cb d7 bb
       -0.0024447574 0.03223177 0.036191463 -0.006585568
0000d0 ea fb b8 3c f0 8d 7f 3c f6 39 a8 3c 35 04 d5 bc
       0.02258106 0.015597805 0.02053545 -0.026002983
0000e0 10 e8 55 bc c1 bf 2d 3d 1d ad ae 3c 83 85 ca bc
       -0.013055816 0.0424192 0.021322781 -0.024721866
0000f0 cf ad 28 3c aa d5 0f 3c d0 38 11 bc 1b 2a 16 bc
       0.010295345 0.008778969 -0.008863643 -0.009165312

dec_conv2b.weight f4 [64, 64, 3, 3]
000000 9d 26 02 3d e1 e0 29 3d 6a b4 c2 3c 05 ed 07 3d
       0.031775106 0.041474227 0.023767669 0.033185024
000010 5f 77 04 bd 7d d0 11 3d 92 c2 c1 3c 3b d3 ef bc
       -0.032340404 0.03559922 0.023652349 -0.029275527
000020 c8 71 8e 3b 5a 1f bf 3c d6 14 32 bc e1 84 01 3d
       0.00434706 0.02333038 -0.0108692255 0.031620864
000030 88 19 e0 3b 7e b7 b0 3c f6 f4 29 bd 92 cd f8 3c
       0.006838981 0.02157187 -0.04149338 0.030371461
000040 e9 65 29 3d cc 0c 12 bd ce 0a af bc 90 05 92 bc
       0.041356955 -0.035656735 -0.021367457 -0.017824918
000050 7c ec 4c 3c cf 08 2a 3d 80 c1 a0 3a b0 f5 01 bc
       0.012507554 0.041512307 0.0012264699 -0.007932112
000060 cf df 03 bd a0 b4 e2 bb be 46 93 bc 20 c9 4d 3c
       -0.032195862 -0.006918505 -0.017978068 0.012560159
000070 8a 6d 29 bd e2 97 23 bd 50 4c 4e bc 5a 3d ec 3c
       -0.04136423 -0.03993977 -0.0125914365 0.028837848
000080 d0 92 28 3c 7a 9f fd 3c c8 81 12 bd 73 c6 04 bd
       0.010288909 0.030959833 -0.0357683 -0.03241582
000090 d0 1a 79 bb 6a 12 cf 3c 06 7d 1c bd 78 6e ba bc
       -0.0038010366 0.025277335 -0.03820517 -0.022757754
0000a0 0c 63 1b 3c 06 63 bb bc 80 f4 d9 39 58 7a ce bb
       0.009484064 -0.022874366 0.00041571632 -0.0063012056
0000b0 c5 1f 05 3d 76 15 b1 3c 50 6e ca bc ef 10 24 3d
       0.032501 0.021616679 -0.024710804 0.04005521
0000c0 f8 aa d5 bb 46 9e fa 3c a0 70 17 3c 9c 57 59 bc
       -0.006520625 0.030593049 0.0092431605 -0.013265517
0000d0 50 ec 74 3c 1a 28 03 bd 50 91 55 bc eb 4d 84 bc
       0.014948919 -0.032020666 -0.0130351335 -0.016150435
0000e0 80 c9 59 3b e9 1b 16 3d 31 e6 17 3d 80 1f ac 39
       0.0033231676 0.03664771 0.037084762 0.00032829866
0000f0 23 b4 f0 bc 20 10 c5 3a a6 4e 85 bc a3 e3 12 bd
       -0.02938277 0.0015034713 -0.016272854 -0.035861623
000100 b0 96 68 3b 80 fc 07 bc 96 72 88 bc ac 58 3f 3c
       0.0035490207 -0.008299947 -0.016656201 0.011678856
000110 74 ab 52 3c fa e2 8f 3c 97 95 10 bd ec 43 6e bc
       0.01285826 0.017564286 -0.03529891 -0.014542561
000120 f0 f7 05 3b f3 58 07 bd 00 5f 0a b9 9c e8 46 3c
       0.0020441972 -0.033043813 -0.00013196096 0.012140419
000130 da 3d e1 3c 60 2e f4 ba 63 23 ae bc 08 2e e7 bc
       0.027495313 -0.0018629543 -0.021257108 -0.028220192
000140 c6 3f aa 3c 66 ed 07 bd 70 15 ec bc 2e 7e e0 bc
       0.020782363 -0.033185385 -0.028818816 -0.027403917
000150 7e c9 fa bc 8e 03 97 bc c0 d4 85 3b 2c aa 29 bc
       -0.030613657 -0.018434312 0.0040841997 -0.010355514
000160 c6 1c b6 bc c4 96 65 3c 80 69 a9 3b 64 b6 7c 3c
       -0.022230517 0.014012996 0.0051700473 0.015424345
000170 6c d2 60 3c 30 fb 3b 3b f8 d7 01 bd 89 b9 0f 3d
       0.0137220435 0.0028683655 -0.031700104 0.03508905
000180 96 b0 90 bc ce 41 fa 3c 60 6c 0d bd 5d 70 06 3d
       -0.017662328 0.030548956 -0.034527183 0.032822
000190 e9 39 01 3d d0 0f 0f 3c 00 b8 9d b8 80 76 6e bb
       0.031549368 0.008731797 -7.520616e-05 -0.003638655
0001a0 53 cd 23 bd 18 b8 91 3b 3f be 0b 3d c8 7d b1 bb
       -0.039990734 0.0044469945 0.03411698 -0.0054166056
0001b0 60 b2 8a 3b 76 3b d9 3c f0 01 9b 3c 70 83 20 bb
       0.0042326897 0.026517611 0.018921822 -0.0024492405
0001c0 de 51 c1 3c 7b 11 24 3d 13 aa d6 bc 38 72 b7 bc
       0.023598608 0.040055733 -0.026204145 -0.022393331
0001d0 da ae c3 3c 6c 45 58 bc 00 66 b1 38 9b be d8 bc
       0.023887087 -0.013200145 8.459017e-05 -0.026458075
0001e0 08 f2 b6 3b 38 c3 b0 bb bd 5f 0b 3d 39 9c 1f 3d
       0.0055830516 -0.0053943656 0.03402685 0.038967345
0001f0 e6 52 54 bc 4a ef 1c bd d0 e1 39 bb 40 0d 43 bb
       -0.012959218 -0.03831414 -0.0028363355 -0.0029762536
000200 8c 91 72 bc 95 d7 28 3d 6b da d2 bc 8b c8 93 bc
       -0.014805209 0.04122122 -0.025738915 -0.018039962
000210 02 96 ff 3c 36 d2 c3 bc c0 f3 5f 3b 08 43 86 bb
       0.031199459 -0.023903947 0.0034172386 -0.004097346
000220 d0 6f 77 3b 8a 5d ce 3c 18 87 98 bb c6 2c 3f bc
       0.0037755854 0.025191087 -0.0046547763 -0.01166839
000230 1a b3 fc 3c 40 c4 49 3b 70 19 58 3c 04 e4 07 bc
       0.030847121 0.003078714 0.0131896585 -0.008294109
000240 9e 6e d5 3c 5c d5 01 3c d4 7f 13 3c 32 fc fc 3c
       0.026053723 0.007924404 0.009002645 0.030881975
000250 10 77 2e bc c0 08 49 3b 78 9c ad 3b 5b 06 d7 bc
       -0.010648504 0.0030675381 0.0052981935 -0.026248148
000260 5a af fd 3c 5f cf 07 bd 20 b6 40 bc fb cb 89 bc
       0.030967403 -0.03315675 -0.011762172 -0.016820898
000270 87 c5 07 bd 7e 33 a5 bc 6e 27 fb 3c 5c 0c 69 bc
       -0.03314736 -0.020166155 0.03065845 -0.014224138
000280 e7 a5 1e bd 2e f2 f2 3c 84 b6 05 3c 38 c4 bf bb
       -0.038732436 0.029656496 0.008161191 -0.0058522485
000290 8c a3 0f 3c cc 99 79 bc b3 7c 09 bd eb dd e8 bc
       0.00876702 -0.015234422 -0.033566188 -0.028426131
0002a0 66 e6 68 bc 34 49 74 3c 70 ff 7b bc 56 55 77 bc
       -0.0142150875 0.014910031 -0.015380725 -0.015096029
0002b0 93 97 19 3d eb 44 23 bd fa 48 95 3c b1 63 28 3d
       0.037498068 -0.039860647 0.018223274 0.041110698
0002c0 66 c6 43 bc 20 de 87 bb eb 9f b2 bc 33 b9 23 bd
       -0.011949157 -0.0041463524 -0.02180477 -0.03997154
0002d0 3f 4b 1a bd ce b3 fb 3c 83 83 24 3d 60 ad d4 3b
       -0.037669417 0.030725386 0.04016448 0.0064903945
0002e0 a0 07 90 3a 18 f0 e6 bb 67 3a 12 bd d0 24 84 bc
       0.00109886 -0.0070476644 -0.035700228 -0.016130835
0002f0 a6 f0 9b bc 06 9e e4 3c d8 d9 c3 bc 7f d1 27 bd
       -0.019035649 0.027907383 -0.023907587 -0.040971275
000300 a0 7c 51 bc b0 de 4b 3b 80 1b ee 39 00 d3 4b ba
       -0.012786061 0.0031108074 0.00045415387 -0.0007775277
000310 26 2f 9e 3c 63 44 21 bd ea c5 f2 3c 80 53 da 3b
       0.019309592 -0.03937186 0.029635388 0.006662786
000320 80 5d 7b 3c 50 99 ba bc 74 8b 11 bc e3 62 cb bc
       0.015342116 -0.022778183 -0.008883346 -0.024827426
000330 d2 fd f8 3c 6b 52 26 bd 8d cc 14 3d 6b bd d4 bc
       0.030394468 -0.040605944 0.036327887 -0.025969228
000340 a0 ff 6a 3c b2 a0 d6 3c 40 f9 57 3b 68 75 c0 bb
       0.014343172 0.026199672 0.003295496 -0.005873371
000350 c7 56 21 bd 34 84 74 3c d4 0e 74 3c 22 dc a5 3c
       -0.039389398 0.014924098 0.014896113 0.020246569
000360 6f 7a 24 bd eb 4e c6 bc 5f b9 03 bd 10 04 91 3c
       -0.040155824 -0.024207553 -0.032159206 0.017702132
000370 18 73 94 3c c2 b3 b9 3c 23 74 21 3d 78 59 bb bb
       0.018121287 0.022668723 0.039417397 -0.0057174526
000380 20 d6 20 3c ee b6 a3 3c 50 76 2b bc 19 86 00 3d
       0.009816676 0.019984689 -0.01046522 0.031377885
000390 00 ec 08 38 e0 d8 be bc b8 45 d7 bb 1c bf 54 bc
       3.264472e-05 -0.023296773 -0.0065695904 -0.012985017
0003a0 33 6f 0d 3d 60 a7 ae 3a 72 88 b2 3c d0 9a 4f bc
       0.034529876 0.0013325028 0.021793578 -0.0126711875
0003b0 54 16 18 bd 90 95 66 3b d3 56 f5 bc be 10 f0 3c
       -0.03713067 0.003518436 -0.029948628 0.029304858
0003c0 00 4e e1 bc 36 3b e1 3c f6 c9 02 bd d2 8e e8 3c
       -0.027503014 0.027494054 -0.031930886 0.028388415
0003d0 e8 23 a9 3c aa 20 dc 3c 0f 63 0f 3d 20 a7 be ba
       0.020647004 0.026871044 0.03500658 -0.0014545657
0003e0 64 18 1e bd 68 ba dd bc ce 1e a3 bc 5b c4 8d bc
       -0.03859748 -0.027066424 -0.01991215 -0.017305544
0003f0 7b ed cf bc 00 c6 5c ba 00 32 0f bc 96 99 d4 3c
       -0.025381794 -0.0008421838 -0.008739948 0.025952142

dec_conv2b.bias f4 [64]
000000 53 5a d4 bc 77 0a 28 bd 47 57 2a 3d 94 31 0b bc
       -0.025921976 -0.041025605 0.04158714 -0.008495707
000010 a6 91 aa bc ba c0 f8 3c e8 f0 be bc 66 5b b4 bc
       -0.020821404 0.030365337 -0.023308232 -0.022016238
000020 fe 6e cb 3c ec 7c 65 3c c8 b2 0c bd 28 6e 0c bd
       0.024833199 0.0140068345 -0.034350187 -0.03428474
000030 48 a2 dc 3b e2 5f b3 3c 90 96 30 bc 36 ad 04 bd
       0.0067332126 0.021896306 -0.010778084 -0.03239175
000040 03 78 95 bc 74 b7 35 3c 17 00 00 bd ec 71 3d 3c
       -0.018245703 0.011091102 -0.031250086 0.011562806
000050 d0 f9 53 bb e0 60 dc bc 28 99 94 3c ca 41 18 bd
       -0.0032344945 -0.026901662 0.018139437 -0.037172116
000060 23 98 0a bd dc 1f 0d 3c f8 15 96 3b 90 5e 7d 3b
       -0.033836495 0.008613553 0.0045802556 0.00386611
000070 88 0d 92 3b 04 12 14 bc 66 de 87 bc be 1c ff 3c
       0.0044571795 -0.009037498 -0.01658554 0.031141635
000080 82 51 92 3c a0 3f d3 3a 4b 43 1a 3d 86 c5 dd 3c
       0.017861132 0.0016116984 0.03766183 0.027071726
000090 06 dc 35 bc c0 ae 62 3a d7 7b 22 bd 85 f5 12 3d
       -0.011099821 0.00086472556 -0.039668884 0.035878677
0000a0 f0 2e 1c bb 94 19 30 3c 50 5d 21 bb 16 81 12 bd
       -0.0023831688 0.010748286 -0.002462227 -0.035767637
0000b0 d0 62 4a bc 78 e2 ef bb 6e 08 af bc f1 3e 24 3d
       -0.01235266 -0.0073206984 -0.021366324 0.040099088
0000c0 95 b2 24 3d 68 7f a9 3b 5c 9a 24 bd 22 b1 f2 3c
       0.04020937 0.0051726587 -0.04018627 0.02962548
0000d0 4e 4b 17 bd 63 ac 97 bc 29 be 00 3d e9 df 02 3d
       -0.03693705 -0.018514818 0.03143135 0.03195182
0000e0 66 56 ee bc 34 48 4b 3c b8 4e bb 3b 26 1b e7 3c
       -0.029093932 0.012407351 0.005716171 0.028211188
0000f0 46 97 86 bc bb 15 0a bd 20 da b6 ba ca 56 97 3c
       -0.016429555 -0.03371213 -0.0013950504 0.018474001

dec_conv1a.weight f4 [32, 67, 3, 3]
000000 fa 15 b5 3c 8a a5 23 bc 99 b0 4e bd 76 6e 1b 3d
       0.022105206 -0.009988198 -0.050461385 0.03794714
000010 cc 25 9c ba ad b9 f2 bc 29 8b 4e 3c 01 b3 52 3c
       -0.001191312 -0.029629553 0.012606421 0.012860061
000020 4f 9f 68 3c 73 af 13 3d ba b2 da 3a 78 69 5b bb
       0.014198138 0.036055993 0.0016685345 -0.0033479612
000030 4c 12 9e 3c 40 1e 8f 3d 54 f9 40 bb a3 7b ad bc
       0.019295834 0.069881916 -0.0029445486 -0.021177119
000040 72 4c f6 3c 47 6f 01 3d bf de 8a bc 3e 6f f8 3c
       0.030065749 0.031600263 -0.016951917 0.030326482
000050 6e 4a d9 bb ed 2c 89 3c 96 18 1e 3d 26 ad ee bc
       -0.006631187 0.016745055 0.038597666 -0.029135298
000060 69 d3 bc 3a 85 2b 20 3d ad 13 0a 3d 8e 02 0d 3c
       0.0014406267 0.039104003 0.03371017 0.008606566
000070 57 6f a7 3c 62 84 12 bd 4a 44 e5 bb 3c 96 f9 3b
       0.020438833 -0.03577078 -0.006996666 0.0076167863
000080 f9 58 22 3c 14 85 aa 3c 21 32 f7 3c d1 61 37 3d
       0.009908908 0.02081541 0.03017527 0.04477102
000090 81 94 e5 bc 56 85 0f 3c fe 1b 0a 3d 60 53 ad bb
       -0.028024914 0.008759817 0.0337181 -0.00528948
0000a0 71 85 01 3d 94 bf 39 ba 5b 30 a0 3c 5e 20 2f bd
       0.0316214 -0.00070857373 0.019554308 -0.042755477
0000b0 23 3f 03 3d 93 40 aa 3c 72 a2 b7 bc 38 5a 0a 3b
       0.032042634 0.020782745 -0.022416327 0.0021110903
0000c0 0f 69 44 bc 5a 94 85 3c 5d 6b 3b 3c fa 0c 8b 3c
       -0.011987939 0.016306091 0.011439172 0.016973961
0000d0 1b 66 a4 bc 06 c1 fe 3c 1c a9 2d bd ab b5 ed 3c
       -0.020068219 0.0310979 -0.042397603 0.02901729
0000e0 38 41 e6 3c 9f 4e 7e 3b b5 4b 15 bd 27 f2 2a bc
       0.02810727 0.0038804186 -0.036449153 -0.01043371
0000f0 5c a8 05 3d 10 0b cf bc 57 fa c0 bc 0f 02 2e bc
       0.032631263 -0.02527383 -0.023556871 -0.010620608
000100 ef f9 09 bc 77 75 9a 3c 02 74 e8 bc 19 18 30 3c
       -0.008421405 0.01885484 -0.02837563 0.010747933
000110 4a 87 4e bc 0d 61 0f 3d 70 7d c6 bb 71 f0 0f 3c
       -0.012605498 0.035004664 -0.006057434 0.008785353
000120 31 e4 07 3d 7e a6 ac bc c5 41 0d 3d e3 3c 28 3d
       0.033176605 -0.021075483 0.03448655 0.04107369
000130 94 a5 c6 3c 66 48 09 bd af 49 cf 3c 8d e5 2c 3d
       0.024248876 -0.03351631 0.02530369 0.042211104
000140 38 db 45 3b 3e 7f 7e 3c 74 98 84 3c e9 09 2c 3c
       0.003019048 0.015533267 0.016185977 0.01050041
000150 d2 26 eb bb 8b 41 ff bc ea 39 1d bd f8 aa f2 3c
       -0.0071762586 -0.031159183 -0.03838531 0.02962254
000160 83 5d a4 bc 1f 9c 33 bd 46 96 82 bc 80 be 96 bb
       -0.020064121 -0.04385006 -0.015940797 -0.004600346
000170 01 00 a8 3c f6 ec fe bb ac ee a8 3c 1f 98 0a bb
       0.020507814 -0.007779713 0.02062162 -0.00211478
000180 76 aa 5e 3b ae 84 4d 3d 1f 22 c4 bc fe 05 fa bc
       0.0033976114 0.05017536 -0.023942051 -0.030520435
000190 de 5a 74 bc 19 a1 0d bd 47 a7 5b bb 7c 2d 36 bc
       -0.014914243 -0.034577463 -0.0033516453 -0.011119243
0001a0 bc 61 ff bc 27 62 46 bc ab 10 3d bd f6 a1 5b 3b
       -0.031174533 -0.012108362 -0.046158474 0.0033513284
0001b0 9a 50 95 3a 25 86 d2 bc 55 54 8d 3c 6f 58 e8 3b
       0.0011391819 -0.02569873 0.017252127 0.00709062
0001c0 d4 58 dd 3b b2 ab 8f bc 63 ff 12 3d eb c8 23 3c
       0.006754974 -0.017537925 0.035888087 0.009996633
0001d0 bf a2 ab 3b 1e 2d b9 bc 0b c8 2b 3d 01 3e 8b bc
       0.0052379067 -0.022604521 0.041938823 -0.01699734
0001e0 e4 9b bd bb 83 b9 6d 3c 9e 76 37 3d 42 75 00 3d
       -0.005786406 0.0145095615 0.044790857 0.031361826
0001f0 f4 4d 3d 3d eb 06 be 3c d2 75 8c 3c 3e 88 1b 3d
       0.04621692 0.023196658 0.017146025 0.037971728
000200 0b 08 a8 3c bf ad bd 3c e5 c5 32 bc 5c 37 66 3b
       0.020511648 0.023154138 -0.01091144 0.0035128212
000210 3e 74 f5 bc d2 12 4a bb 86 0a fd bc 53 21 7c bc
       -0.029962655 -0.0030833972 -0.030888807 -0.0153888045
000220 3f 75 e5 3c ed c1 96 3b e5 30 71 3c 13 4d 2f 3c
       0.028010009 0.0046007545 0.01472113 0.010699528
000230 cb ce 15 3d c2 6f ce bc 64 32 6f bc bd bb 2f 3d
       0.036574166 -0.025199775 -0.014599416 0.04290365
000240 8b de 05 3d 5d 0f 7d bb 9b 7f 81 bc 48 22 a6 bc
       0.032682937 -0.0038613894 -0.015807917 -0.020280018
000250 8e 54 d8 bc 0e af 85 3c 50 aa e6 bc 79 b9 78 3c
       -0.026407506 0.016318824 -0.028157383 0.015180939
000260 f5 94 c0 3b 99 17 a3 3c 60 fc c9 3c 9f a0 b5 3c
       0.005877132 0.019908713 0.024656475 0.022171317
000270 9d a4 44 3c 17 f9 18 3d d1 71 08 3d 48 11 1c 3d
       0.0120021375 0.037346926 0.03331167 0.03810242
000280 d2 93 fc 3c f4 ba cc 3c e5 c9 54 3c 9b 0b ff 3c
       0.030832205 0.02499149 0.0129875885 0.031133464
000290 2d 82 26 bd 5c 56 35 3d ba 8a a4 bc 1c fd b4 3c
       -0.04065149 0.04427181 -0.020085681 0.022093348
0002a0 65 1c cd ba 04 b5 da 3c 5e 9d 04 3d 9c 51 09 3d
       -0.0015648721 0.026697643 0.03237664 0.033525094
0002b0 94 9a 62 3d cc 86 f4 3c e4 cc fa 3b 20 ba 21 3d
       0.0553232 0.029849432 0.0076538194 0.039484143
0002c0 ab cd a6 ba f1 d2 29 3d 9f df 62 3d fd 58 cb bc
       -0.0012726089 0.041460935 0.055389043 -0.024822706
0002d0 4e 00 1a 3d 94 a2 20 bd d4 fd 0d 3d bc 69 e8 bc
       0.037597947 -0.039217547 0.034665897 -0.02837073
0002e0 ad 61 72 bc e5 5b 8c bc d9 9e 99 3c 51 29 0b bd
       -0.0147937955 -0.017133662 0.018752502 -0.03397495
0002f0 d0 e2 ea bc bf 67 2f bd 8e 00 98 bc 67 23 61 bc
       -0.028672606 -0.04282355 -0.018554952 -0.013741351
000300 53 de 73 bc 7e 85 5d bd 56 4a 2b bd 3d c8 a0 3b
       -0.014884549 -0.054082386 -0.04181894 0.0049066828
000310 ac 6c 21 bd 56 8b 5e 3c 2e b1 6f 3c 81 a1 cc 3c
       -0.03941028 0.013583025 0.014629645 0.024979355
000320 57 3a 54 3c 69 4a 03 3b d9 30 e8 bc ac 3f e5 3a
       0.012953362 0.0020033366 -0.028343605 0.0017490289
000330 9c 91 29 3c 61 56 3b 3d fc 78 af 3c 9e 57 0e 3d
       0.010349657 0.045736674 0.021419995 0.034751527
000340 31 a0 04 3d b9 ce 0d 3d 1e 74 00 bd 56 f8 60 3c
       0.032379333 0.034620974 -0.031360738 0.013731083
000350 3f 58 60 3b 56 49 59 bc 34 3a f9 3c 8d a3 24 3d
       0.0034232286 -0.013262114 0.030423261 0.040195037
000360 83 84 d2 bc a5 57 f7 bc 5b f2 ed bc d9 02 29 bc
       -0.025697952 -0.03019316 -0.029046228 -0.01031562
000370 33 f1 8b 3c 14 da fb 3c 05 79 83 bc 2f a9 3f 3b
       0.017082786 0.030743636 -0.016048918 0.0029245128
000380 fb df 16 bd 99 89 dd 3c 89 9c f2 3c 1b 1d 02 3a
       -0.0368347 0.02704315 0.029615657 0.00049634435
000390 0b 03 d6 3c 0b 3e 57 3c ba 1a 94 bc 92 b0 b2 3c
       0.026124498 0.013137351 -0.01807915 0.02181271
0003a0 bf 29 8b ba 87 0f 07 3d b2 6a 16 bd 55 68 13 bc
       -0.00106173 0.032973792 -0.036722846 -0.008997043
0003b0 6a c8 1a 3d 98 7b 9a 3c 68 be f6 bc e3 66 39 3d
       0.037788786 0.018857762 -0.03012009 0.045264136
0003c0 7c 52 07 3d 12 95 05 3d 3c ca 33 bc 87 71 04 3d
       0.033037648 0.032612868 -0.010973509 0.03233483
0003d0 f8 4c 15 bd 2c 17 dc bc 6b cb 09 3d fd 46 77 3b
       -0.036450356 -0.026866518 0.03364126 0.0037731521
0003e0 bc d7 b5 3c 53 c7 77 bc 2b bb c0 3c ee 05 bd bb
       0.022197597 -0.015123206 0.023526749 -0.005768529
0003f0 f6 44 af bc 8d ed 1b 3d 29 a2 c5 3b 98 cc 35 3c
       -0.021395188 0.038068343 0.006031294 0.011096142

dec_conv1a.bias f4 [32]
000000 82 b3 a1 3c d7 cb 09 bd f5 dc 36 3c 38 91 5a bc
       0.019738916 -0.033641662 0.011161079 -0.013340287
000010 73 07 28 bb b8 ec 26 bd a7 a6 af 3c 01 24 4d 3d
       -0.0025639206 -0.040753096 0.02144177 0.050083164
000020 8a 4d e9 3b 93 66 f6 3c c2 cb 90 39 d4 13 4e bd
       0.007119839 0.030078208 0.00027617632 -0.05031188
000030 49 b0 72 bc ba d4 f8 3b 36 21 0c 3c 11 bb f4 3a
       -0.0148125375 0.0075937184 0.00855284 0.0018671473
000040 b0 00 e3 bc 09 b5 19 3d 67 60 2a 3d 05 14 ea bc
       -0.027710289 0.037526164 0.041595843 -0.028574
000050 7e cb 85 bd 12 10 62 3d 0e 88 ba 3c 44 1a b2 3c
       -0.06532954 0.055191107 0.022769954 0.02174104
000060 76 e5 ba bc e1 2f 9a 3c 6d c9 19 3d 4b b6 9e 3c
       -0.022814494 0.018821659 0.03754561 0.019374033
000070 5e 7e 4f 3d e4 53 d2 3b f9 20 b0 bc ec 80 bd bb
       0.050657623 0.006418692 -0.021500098 -0.005783191
