models/leaner_model1_3.pt (torch, 455029 bytes, 16 tensors)

enc_conv0.weight f4 [16, 3, 3, 3]
0	0xbe276b13	-0.1634944
1	0xbb673332	-0.0035278318
2	0x3dc5ef64	0.09664801
3	0xbe36ca09	-0.17850508
4	0x3c82c30d	0.015962148
5	0x3df4a612	0.11945738
6	0xbe23c5c9	-0.15993418
7	0xbc97a65a	-0.01851194
8	0x3e05f42a	0.13081422
9	0xbd1e744b	-0.038685124
10	0xbcb1522b	-0.021645626
11	0x3d0c9588	0.03432229
12	0x3dc03247	0.0938459
13	0x3c9c16e5	0.019053886
14	0x3d861c48	0.06548363
15	0x3d63ac07	0.05558398
16	0xbd3471b9	-0.044053767
17	0x3d9aac74	0.07552424
18	0x3d4081b5	0.0469987
19	0xbde77c97	-0.113030605
20	0xbbcbd95a	-0.0062209787
21	0x3e5299b5	0.20566447
22	0xbd74210e	-0.059601836
23	0xbd970623	-0.07374217
24	0x3dab5df3	0.08367529
25	0xbadd7777	-0.0016896565
26	0xbe4b0e2d	-0.19829626
27	0xbd984973	-0.07435884
28	0xbdb32806	-0.08747868
29	0x3dc7576a	0.0973347
30	0xbde2e937	-0.110796385
31	0xbbbe4a5c	-0.005807204
32	0xbe05bb39	-0.13059701
33	0x3df97364	0.12180212
34	0x3c5afbda	0.01336571
35	0x3d07f20b	0.033189815
36	0x3dac3969	0.084093876
37	0x3d86f1c3	0.06589081
38	0x3d87f73b	0.06638952
39	0xbd02dabb	-0.03194688
40	0x3e135474	0.14387685
41	0x3d0f37a3	0.03496517
42	0xbd4e49e6	-0.050363444
43	0xbdd5ba58	-0.10435933
44	0x3de97e57	0.114010505
45	0x3e096083	0.13415723
46	0xbd441091	-0.04786736
47	0x3cf034a9	0.029321985
48	0xbe175adf	-0.14780758
49	0xbbffce96	-0.0078066094
50	0xbbc35b24	-0.0059617925
51	0x3d889962	0.066698804
52	0xbd56429b	-0.052309614
53	0xbe3aa342	-0.1822634
54	0x3d8cd952	0.06877388
55	0xbe4797e8	-0.19491541
56	0xbda915dc	-0.082561225
57	0x3b8c7047	0.0042858454
58	0xbd7d40eb	-0.06182949
59	0xbd736043	-0.059417974
60	0x3e5ea1f5	0.21741469
61	0x3d83b80b	0.06431588
62	0x3cf9c83f	0.030490993
63	0xbd9a3d80	-0.075312614
64	0xbe8fafb8	-0.2806375
65	0x3c72a3ed	0.014809591
66	0x3d315358	0.043292373
67	0x3e05c368	0.13062823
68	0xbb93080c	-0.0044870432
69	0x3cf8daab	0.030377707
70	0x3e1e0d9f	0.15434884
71	0x3d586610	0.05283171
72	0xbdf11016	-0.11770646
73	0xbd6abfe9	-0.057311926
74	0xbdd2a5d0	-0.102855325
75	0x3e497a09	0.19675459
76	0xbd67e622	-0.056615956
77	0xbd58e165	-0.052949328
78	0x3df853e0	0.12125373
79	0xbda4e6b3	-0.08051815
80	0x3dd14561	0.10218311
81	0xbe044528	-0.12917006
82	0xbe1139c4	-0.14182192
83	0xbdc572c7	-0.09641033
84	0xbccd8452	-0.02508751
85	0xbd66faa9	-0.056391392
86	0xbd6de862	-0.058082946
87	0xbda25826	-0.07926969
88	0x3da7e1a9	0.08197338
89	0x3e36fbaa	0.1786944
90	0xbdd4e54f	-0.103953
91	0xbc8da78d	-0.017291809
92	0x3d21399a	0.039361574
93	0x3d0f9267	0.03505173
94	0x3e658c66	0.22416839
95	0xbdf67c20	-0.12035394
96	0x3d5e78e6	0.054314516
97	0xbdeffd26	-0.11718206
98	0xbddb4978	-0.107073724
99	0x3de59633	0.11210289
100	0xbdf43030	-0.119232535
101	0xbd91426b	-0.07092746
102	0x3e1da21a	0.15393868
103	0x3e74c952	0.23904923
104	0x3dc0eaee	0.09419809
105	0xbd3fca00	-0.0468235
106	0xbdb9c8d1	-0.09071506
107	0xbdef1678	-0.116742074
108	0x3da32114	0.079652935
109	0x3ddf5473	0.10904779
110	0xbe7bb494	-0.24580604
111	0xbd67d86a	-0.056602873
112	0xbd2be1a7	-0.041963246
113	0x3dc875fe	0.0978813
114	0x3d3876ad	0.045035053
115	0x3d205a74	0.039148763
116	0x3cf1fcc2	0.02953947
117	0x3d85282d	0.065018035
118	0xbe006cac	-0.12541455
119	0xbd93aa37	-0.072102
120	0x3cefefe9	0.029289203
121	0x3e222d44	0.1583758
122	0xbd46ac30	-0.048504055
123	0x3da5cd0a	0.08095749
124	0x3d1a3d39	0.037656043
125	0x3d49f018	0.049301237
126	0xba01c627	-0.00049504865
127	0x3e549fab	0.20764033
128	0xbd96c6f4	-0.07362166
129	0xbd92673f	-0.07148599
130	0xbe104350	-0.14088178
131	0xbcfb0321	-0.03064114
132	0xbd89c059	-0.067261405
133	0xbd001ee5	-0.031279463
134	0xbd4228b2	-0.04740209
135	0x3dc08d17	0.09401911
136	0xbc434b74	-0.011919845
137	0x3c4ce247	0.012505121
138	0xbcd3f9fd	-0.02587604
139	0xbdd16360	-0.102240324
140	0x3dda99f2	0.10673894
141	0xbd3a022a	-0.04541222
142	0x3d51c71f	0.051215287
143	0x3e20986a	0.15683141
144	0x3d34301f	0.043991204
145	0x3d18efe4	0.037338153
146	0x3b9534d3	0.0045534163
147	0xbe4fb037	-0.20282064
148	0xbde73eec	-0.11291298
149	0x3e24232a	0.16029039
150	0x3de91ddf	0.113826506
151	0xbd99bf8e	-0.07507239
152	0xbce0eca7	-0.027456595
153	0x3e0beae3	0.13663821
154	0x3c8e2c15	0.017355004
155	0xbcadd045	-0.021217475
156	0xbe07f517	-0.13277088
157	0xbda2e0d0	-0.07953036
158	0x3dc078a9	0.09398014
159	0xbd179836	-0.037010394
160	0x3d242710	0.040076315
161	0xbd9c73a0	-0.07639241
162	0xbb5a571d	-0.0033316084
163	0xbdbda985	-0.09260849
164	0xbcbc8500	-0.023012638
165	0x3e23ab0e	0.15983221
166	0x3e36eafb	0.17863075
167	0xbd2b6de6	-0.041852854
168	0x3d4bba29	0.049738083
169	0xbd0be938	-0.03415796
170	0xbd45915b	-0.048234325
171	0xbc5ea234	-0.013588477
172	0x3d8a711d	0.06759856
173	0x3c2e5d70	0.010642394
174	0x3b760fa3	0.0037545941
175	0x3e29d36b	0.16584556
176	0xbe2e299f	-0.17008065
177	0x3daa3dbd	0.08312557
178	0xbe48acee	-0.19597217
179	0xbdd28caa	-0.10280736
180	0x3c222464	0.0098963715
181	0x3d90e0a7	0.07074099
182	0xbde830bc	-0.1133742
183	0x3d98aa86	0.074544
184	0x3dcaef4a	0.09908922
185	0x3e100200	0.14063263
186	0x3db870e6	0.09005909
187	0xbe00277d	-0.12515064
188	0xbdfb12be	-0.12259434
189	0xbd28ac28	-0.041179806
190	0x3e256023	0.16149954
191	0x3d3c2063	0.045929324
192	0x3db925d8	0.09040421
193	0xbe0fca34	-0.14041978
194	0xbd80d6d5	-0.06290976
195	0x3d51cf1f	0.051222917
196	0xbe155310	-0.14582467
197	0xbdc7b7ea	-0.09751876
198	0xbbd8fe96	-0.006622146
199	0x3e1d38d6	0.15353712
200	0xbd083161	-0.033250216
201	0x3d926831	0.07148779
202	0xbdee7caa	-0.116448715
203	0x3d4bf66b	0.04979555
204	0x3db8b288	0.09018427
205	0x3de4df82	0.11175443
206	0x3d637646	0.055532716
207	0xbd4ed36c	-0.050494596
208	0xbc74aae9	-0.014933326
209	0xbe0ab0c8	-0.13543999
210	0xbd980082	-0.07421972
211	0x3ce4551c	0.027872615
212	0x3dc97d24	0.09838322
213	0xbd986cfb	-0.074426614
214	0xbdc0d489	-0.09415538
215	0x3e12c780	0.14333916
216	0xbd000fbd	-0.03126501
217	0x3d0ba6aa	0.03409449
218	0x3cfcd1bd	0.03086173
219	0x3dcb3dc0	0.09923887
220	0x3bafbb17	0.005362879
221	0xbe2a557a	-0.16634169
222	0xbd47fffb	-0.048828106
223	0xbd898545	-0.06714872
224	0xbdfae467	-0.122505955
225	0xbc3b3acc	-0.0114275925
226	0xbdda8a65	-0.10670928
227	0xbdb4b1a2	-0.08822943
228	0x3e422081	0.18957712
229	0x3defdb46	0.11711745
230	0xbd54b328	-0.05192867
231	0x3d8bd2c3	0.06827309
232	0x3e1cb937	0.15305029
233	0xbd4f7ad1	-0.050654236
234	0x3bd40fc2	0.006471605
235	0x3d292c3d	0.041301955
236	0x3d8f68c9	0.07002408
237	0x3e23d2f9	0.15998448
238	0xbd2574d4	-0.04039462
239	0xbe1eb0b3	-0.15497093
240	0x3cadec1f	0.021230755
241	0xbe3d54c8	-0.18489373
242	0x3de87479	0.113503404
243	0xbdff72e9	-0.12473089
244	0x3e4d6af8	0.20060337
245	0x3d52ab71	0.05143303
246	0xbdda4344	-0.10657361
247	0x3e3a1284	0.18171126
248	0xbd850530	-0.0649513
249	0xbe25f1f6	-0.16205582
250	0xbd3b25b5	-0.045690257
251	0x3d418680	0.04724741
252	0x3c7c11d0	0.015385106
253	0xbe1f9f1d	-0.1558804
254	0xbda3a8b8	-0.07991165
255	0x3d079d07	0.033108737

enc_conv0.bias f4 [16]
0	0xbde80c3d	-0.11330459
1	0xbc7b9c73	-0.015357125
2	0x3d95503c	0.07290694
3	0x3e75147a	0.23933592
4	0x3d65b06b	0.05607645
5	0xbdbc2e86	-0.09188561
6	0x3daf0ec7	0.085477404
7	0xbe0b36e1	-0.13595153
8	0xbdfa41b5	-0.12219564
9	0x3d6b7c2b	0.057491463
10	0x3e80f26c	0.25184953
11	0xbd486291	-0.048922125
12	0x3cdcfbb1	0.026975485
13	0x3e269d1f	0.16270874
14	0x3ea21127	0.3165371
15	0xbd2cf5bd	-0.04222654

enc_conv1.weight f4 [32, 16, 3, 3]
0	0xbd78dcae	-0.06075733
1	0xbd2b6910	-0.041848242
2	0x3cc19434	0.02363024
3	0xbd936f8c	-0.0719901
4	0xbd9fc896	-0.078019306
5	0xbd4d2207	-0.05008128
6	0x3cb5c08a	0.022186536
7	0xbceba5c9	-0.028765576
8	0xbc46c660	-0.012132257
9	0xbded9abb	-0.11601778
10	0xbd9957ad	-0.07487426
11	0x3c147502	0.0090611
12	0xbd889716	-0.06669442
13	0x3d5b4b39	0.053538535
14	0x3d378ce6	0.044812106
15	0x3bf07b25	0.0073388987
16	0x3d4ce748	0.050025254
17	0x3d25de69	0.04049531
18	0x3c88f203	0.016716963
19	0x3cb939a6	0.022610497
20	0x3d01c4b9	0.03168175
21	0xbd92ec1a	-0.07173939
22	0xbd86ede8	-0.06588346
23	0xbce095f5	-0.027415255
24	0xbd149b85	-0.036281127
25	0xb9a19c9f	-0.00030825005
26	0xbceb2f5f	-0.028709112
27	0x3dfb990f	0.12285053
28	0xbe519237	-0.20465933
29	0x3dbdf71b	0.09275647
30	0xbdf80b49	-0.121115275
31	0xbd55b67e	-0.05217599
32	0xbd76809b	-0.06018124
33	0xbd9157ec	-0.07096848
34	0x3c4f5ef8	0.01265692
35	0x3e0459f0	0.12924933
36	0xbe2336a9	-0.1593882
37	0xbc828d32	-0.015936468
38	0xbcfdceaf	-0.030982343
39	0xbd6353ff	-0.055500027
40	0xbd29a055	-0.04141267
41	0x3d4b0b2b	0.049571197
42	0x3d55482c	0.05207078
43	0xbd1039b0	-0.035211265
44	0xbcee4803	-0.029087072
45	0xbdfa478d	-0.122206785
46	0x3b8b1257	0.0042441296
47	0x3d235ad7	0.039881554
48	0x3d7b258a	0.061315097
49	0xbd3ef439	-0.046619628
50	0xbd978dfe	-0.0740013
51	0xbd8f3808	-0.06993109
52	0xbcdb3934	-0.026760675
53	0xbd521de3	-0.051298033
54	0x3db37b30	0.087637305
55	0x3d46a270	0.048494756
56	0xbc75e18d	-0.015007389
57	0xbc413d55	-0.011794408
58	0xbda09a6c	-0.07841954
59	0xbd66bc11	-0.056331698
60	0xbcd2ad98	-0.025717542
61	0xbd5b946e	-0.05360835
62	0xbd61e5ba	-0.055150725
63	0x3da4debc	0.08050296
64	0x3d3ff2b2	0.04686231
65	0xbd7307e5	-0.0593337
66	0xbcd52669	-0.026019292
67	0xbb532a38	-0.003222121
68	0x3d8fa752	0.07014336
69	0x3db9ddf2	0.09075536
70	0xbcd1171f	-0.02552372
71	0x3b00b264	0.001963758
72	0x3e01e88b	0.12686364
73	0xbd2f8431	-0.042850677
74	0xbde6bf2d	-0.11266933
75	0x3aa4f6a4	0.0012585712
76	0xbdb849cb	-0.0899845
77	0xbab955cb	-0.0014139948
78	0x3d6193ff	0.05507278
79	0xbb97f1ff	-0.0046370025
80	0x3bc47e71	0.0059965183
81	0xbd60c4ee	-0.054875307
82	0x3c55de1f	0.013053446
83	0xbcd89eb7	-0.026442869
84	0x3dd875ec	0.10569367
85	0x3bfe306d	0.0077572376
86	0x3e1c707a	0.15277281
87	0xbd25e262	-0.0404991
88	0xbb8de4fd	-0.004330276
89	0x3d25f5ac	0.040517494
90	0x3c94c7e3	0.01816172
91	0x3cbc2b85	0.02296997
92	0x3d2a85a0	0.04163134
93	0x3d78f3a0	0.060779214
94	0xbb60cb40	-0.0034300834
95	0xbd634976	-0.05548998
96	0xbd0d45d9	-0.03449044
97	0x3d0e49c2	0.03473831
98	0xbd87ca5a	-0.066303924
99	0xbb989b21	-0.0046571647
100	0x3d3920c1	0.045197252
101	0x3d1f65da	0.038915493
102	0xbd625e80	-0.055265903
103	0x3bd5c542	0.006523759
104	0x3d63f80c	0.055656478
105	0x3d3c58a7	0.045982983
106	0xbcb935ba	-0.022608627
107	0xbd0fa003	-0.03506471
108	0xbd11a224	-0.03555502
109	0x3c22389c	0.009901192
110	0xbc90e41d	-0.017686898
111	0xbc77126e	-0.015080078
112	0x3d75e392	0.06003148
113	0x3b16a9ae	0.002298932
114	0xbd11b6c4	-0.03557469
115	0x3c285bae	0.010275764
116	0x3d1fc81c	0.0390092
117	0xbcb676af	-0.02227339
118	0x3e394827	0.1809393
119	0xbd28c74a	-0.04120568
120	0x3d81ba3c	0.063343495
121	0x3b2f8adf	0.0026785654
122	0xbb5c68fd	-0.0033631914
123	0x3c9eb986	0.019375574
124	0xbac5957b	-0.0015074456
125	0xbd3bd804	-0.045860305
126	0xbd4bc024	-0.049743786
127	0xbda6de50	-0.081478715
128	0xbe2eb06b	-0.17059486
129	0x3d9d2f2b	0.07675012
130	0xbd635892	-0.05550439
131	0x3dd0d394	0.10196605
132	0xbd0dc98b	-0.034616034
133	0x3bf4d499	0.0074716327
134	0xbda18258	-0.07886189
135	0x3d98124f	0.07425367
136	0x3c045c66	0.00807867
137	0x3d5a2fc7	0.05326822
138	0x3c115d4e	0.008872343
139	0xbd52f256	-0.05150064
140	0x3da9a145	0.08282713
141	0xbbc77218	-0.006086599
142	0x3d35223e	0.04422211
143	0xbdaf6bf8	-0.08565515
144	0xbcf7f205	-0.030266771
145	0x3bca92aa	0.0061820345
146	0xbc45ab65	-0.012064789
147	0x3c27d018	0.0102424845
148	0xbd10dcc5	-0.035366792
149	0x3cbae29b	0.022813132
150	0xbd6ae880	-0.057350636
151	0xbc85e060	-0.016342342
152	0x3ce5ab20	0.0280357
153	0x3c41789d	0.011808542
154	0xbd5c9f04	-0.053862587
155	0x3d2c26d6	0.042029224
156	0xbcfb2cc4	-0.030660994
157	0x3cf1286f	0.029438226
158	0xbdb2a70c	-0.08723268
159	0xbc306839	-0.010767036
160	0x3c988c14	0.018621482
161	0x3c45b7c0	0.012067735
162	0x3ccf43c9	0.025300877
163	0xbd2cefb3	-0.042220782
164	0xbcf3d1d3	-0.029763138
165	0xbcb48f66	-0.022041034
166	0xbdcc1d69	-0.09966547
167	0xbe0d46e0	-0.13796568
168	0xbdb507f4	-0.088394076
169	0x3c6a983c	0.014318522
170	0x3de0cb03	0.109762214
171	0x3d276a38	0.040872782
172	0x3d1d125c	0.038347587
173	0x3d7bf716	0.061514936
174	0x3dadcb8d	0.0848609
175	0x3d0e4e73	0.034742784
176	0x3d4f49b6	0.050607406
177	0xbccc9aa7	-0.024976088
178	0x3da543a7	0.08069544
179	0x3def76fb	0.116926156
180	0xbd7af9d4	-0.06127341
181	0xbcda9307	-0.026681436
182	0x3d84f0ca	0.06491239
183	0x39ea2a0d	0.00044663288
184	0xbe28e024	-0.16491753
185	0x3d91e059	0.07122869
186	0xbe18d49d	-0.14924856
187	0x3e3e0879	0.1855792
188	0x3de31ace	0.11089097
189	0x3cb4ae93	0.0220559
190	0x3d411974	0.047143415
191	0xbc836b80	-0.016042471
192	0xbd1c3314	-0.03813465
193	0x3abe9728	0.0014540898
194	0xbd709862	-0.058739074
195	0xbd1832c5	-0.037157793
196	0x3c96df3e	0.018416997
197	0x3d3966a7	0.045263913
198	0xbd5f6215	-0.054536898
199	0x3d0f67c9	0.035011087
200	0x3da23a80	0.07921314
201	0x3cf883b9	0.030336248
202	0xbd4fd344	-0.050738588
203	0xbc8d7e26	-0.017272066
204	0x3d766330	0.060153186
205	0x3cf75ffd	0.030197138
206	0xbcb0e803	-0.021595007
207	0xbce73779	-0.028224694
208	0x3cb323ec	0.021867715
209	0x3d0d75aa	0.03453604
210	0x3ac80aaf	0.0015261973
211	0xbc19df2f	-0.00939159
212	0xbcd8ecb6	-0.02648006
213	0x3d498ea6	0.049208306
214	0x3a80fc16	0.0009840752
215	0xbd07fca2	-0.033199914
216	0xbd267951	-0.04064304
217	0xbd973a29	-0.0738414
218	0x3d25dff3	0.040496778
219	0x3d432e02	0.0476513
220	0x3dc979b8	0.09837669
221	0x3db9b79e	0.09068225
222	0x3cc82aaf	0.024434416
223	0x3db33276	0.08749859
224	0xbc9904cf	-0.01867905
225	0x3bee8be5	0.0072798603
226	0xbd901bb4	-0.07036534
227	0xbd38d19c	-0.045121774
228	0x3c6e5c6f	0.014548405
229	0xbd787e96	-0.060667597
230	0xbcac7b46	-0.021054875
231	0x3c49f5ba	0.012326652
232	0xbbca8583	-0.0061804666
233	0xbd4be4ce	-0.049778752
234	0xbd48c27b	-0.049013596
235	0xbc4672c5	-0.012112324
236	0x3df8f4cd	0.12156067
237	0xbcb7c454	-0.022432484
238	0xbd972433	-0.07379951
239	0x3d8cdd1c	0.06878111
240	0x3d66a523	0.05630983
241	0x3cee2e26	0.02907474
242	0xbbd3c19f	-0.0064622904
243	0x3c770304	0.015076403
244	0x3d0159f3	0.031579923
245	0x3d51cc84	0.051220432
246	0xbb95b5e8	-0.004568804
247	0xbca2d570	-0.019877166
248	0x3d122c55	0.03568681
249	0x3cec615a	0.028855015
250	0xbdaacbc5	-0.08339647
251	0xbd964993	-0.07338252
252	0x3ccebe7f	0.02523732
253	0xbce2c540	-0.027681947
254	0xbd3c7302	-0.046008117
255	0xbcf2bfb8	-0.029632434

enc_conv1.bias f4 [32]
0	0xbdfe36f7	-0.124128275
1	0xbd011ef9	-0.03152368
2	0x3d93c77c	0.07215783
3	0x3ce4bf01	0.027923109
4	0xbc901ab6	-0.017590862
5	0x3d554d8d	0.05207591
6	0x3cd981b5	0.026551107
7	0x3d339679	0.043844674
8	0xbda987c0	-0.082778454
9	0xbd4a7eb4	-0.04943724
10	0x3dcdaa35	0.1004223
11	0x3b570514	0.0032809423
12	0xbc194033	-0.009353685
13	0x3e4db360	0.20087957
14	0x3deb8b61	0.11501194
15	0x3da62191	0.08111871
16	0xbd004ed9	-0.031325195
17	0x3c8f4845	0.017490515
18	0x3d894459	0.067024894
19	0x3e5fb5bf	0.21846674
20	0xbb733ba1	-0.00371144
21	0xbe0c926d	-0.13727732
22	0x3e13f5a2	0.1444917
23	0xbe29ce07	-0.165825
24	0x3c89ca45	0.016820082
25	0xbd867e72	-0.06567086
26	0xbcbca448	-0.023027554
27	0x3c53868f	0.012910499
28	0x3d7fe3b8	0.06247303
29	0x3d32ad36	0.043622218
30	0x3d18f89e	0.037346475
31	0xbdab4f0d	-0.08364687

enc_conv3.weight f4 [32, 32, 3, 3]
0	0x3da5c446	0.08094077
1	0x3ceeee43	0.029166346
2	0xbbc52e0a	-0.006017451
3	0x3d09f842	0.033684023
4	0x3bb54af2	0.005532616
5	0xba9bea79	-0.001189544
6	0x3bd66376	0.0065426184
7	0xbd8bee21	-0.06832529
8	0xbdc50067	-0.09619217
9	0x3c6450ce	0.013935281
10	0xbd11c88a	-0.03559164
11	0xbcce90c1	-0.025215508
12	0xbce2b958	-0.02767627
13	0x3cf1e8f7	0.029530032
14	0x3c8525e9	0.016253429
15	0xbbed7ed3	-0.0072477846
16	0xbd53f52c	-0.051747486
17	0x39658a58	0.00021890679
18	0xbb93c69b	-0.0045097596
19	0x3cd4d3a6	0.025979828
20	0x3b68385a	0.0035433979
21	0x3d837ab3	0.064198874
22	0xbd9b9759	-0.07597227
23	0xbc50d746	-0.012746638
24	0x3d93e805	0.072219886
25	0x3d25304a	0.040329255
26	0x3d2f1cbb	0.04275201
27	0x3dc557fe	0.09635924
28	0x3d29d63e	0.041464083
29	0x3d8bd7d4	0.06828275
30	0x3e17c2c1	0.14820386
31	0xbd0c70a8	-0.034287125
32	0xbb7a73de	-0.0038216035
33	0x3e3e5a78	0.18589199
34	0xbabaf483	-0.0014263544
35	0x3c9b0161	0.018921556
36	0x3c937737	0.018001182
37	0x3c8687f9	0.016422259
38	0xbd0de34f	-0.034640606
39	0xbd1444f2	-0.036198564
40	0xbd74a295	-0.059725363
41	0x3d8f0253	0.06982865
42	0x3d401a31	0.046899978
43	0xbd0f2da2	-0.03495563
44	0xbcb8aa0f	-0.022542028
45	0xbd9eafc9	-0.07748372
46	0x3bcbabd3	0.0062155514
47	0xbcf37b83	-0.02972198
48	0xbe53658b	-0.20644204
49	0xbe326b33	-0.17423706
50	0xbdb4bc82	-0.088250175
51	0xbcb58947	-0.022160186
52	0xbd73e264	-0.059542075
53	0x3bcb4b5a	0.006204051
54	0xbd752e69	-0.059858713
55	0xbd6824eb	-0.056675833
56	0x3d420e27	0.047376778
57	0xbc327045	-0.010891025
58	0xbb6331a3	-0.0034667037
59	0x3af93fd4	0.0019016215
60	0xbc9fc496	-0.01950292
61	0x3cdc60b8	0.026901588
62	0x3d4fe991	0.050759856
63	0x3b65aefd	0.0035046928
64	0xbb2b7f78	-0.0026168507
65	0xbda2c0e2	-0.07946946
66	0xbc692b94	-0.014231581
67	0x3d202539	0.039098
68	0xbd1efd0b	-0.03881554
69	0xbd72f188	-0.059312373
70	0xbcb9b457	-0.022669
71	0xbdfb4d0f	-0.12270557
72	0xbc942e26	-0.018088412
73	0xbd4b50f4	-0.04963775
74	0x3c40decd	0.01177187
75	0xbde03168	-0.109469235
76	0x38b09bd2	8.421358e-05
77	0xbd24faf0	-0.040278375
78	0xbd13d4e9	-0.03609172
79	0xbd2d067e	-0.04224252
80	0xbda8efb4	-0.08248845
81	0xbc6c27cd	-0.014413786
82	0xbc6b29fa	-0.01435327
83	0x3b10bcb0	0.0022085123
84	0x3da9784a	0.082748964
85	0xbcfd0706	-0.030887138
86	0x3d047ce8	0.032345682
87	0x3d67b699	0.056570623
88	0xbbd47d16	-0.006484638
89	0x3cf14549	0.029451983
90	0xbc2489d3	-0.0100426255
91	0x3d6de849	0.058082853
92	0x3ce01f55	0.02735869
93	0x3d2293af	0.039691623
94	0xbc2313e0	-0.009953469
95	0x3be3d79d	0.0069531933
96	0xbda6f105	-0.081514396
97	0xbd026a2e	-0.031839542
98	0xbd7023f8	-0.058628052
99	0xba3a0e33	-0.0007097453
100	0x3c5d8a6c	0.013521772
101	0x3d2f686a	0.042824186
102	0xbd2cc203	-0.04217721
103	0xbd8cc7e0	-0.06874061
104	0x3d0a5cf6	0.03378006
105	0xbc70988a	-0.014684806
106	0xbc927a96	-0.01788072
107	0xbd14fd44	-0.036374345
108	0x3cfa6564	0.030565925
109	0x3dd9a68e	0.10627471
110	0xbda301d6	-0.079593346
111	0xbe3d9386	-0.18513307
112	0x3cf7b7ed	0.03023907
113	0xbdae8eda	-0.085233405
114	0x3d32355d	0.043507922
115	0x3cedb4e7	0.029016925
116	0xbb815da5	-0.003947931
117	0xbc3d8921	-0.011568339
118	0xbca1e1a3	-0.019760912
119	0x3cb4b06b	0.022056779
120	0x3e01a8eb	0.12662093
121	0xbc8ae473	-0.016954636
122	0xbd721f13	-0.059111666
123	0x3e8d038a	0.27541763
124	0x3dfe198e	0.12407218
125	0x3b3ef86a	0.0029139766
126	0xbdcabcdd	-0.09899304
127	0xbb7561af	-0.0037442257
128	0xbd456721	-0.048194055
129	0xbd46de95	-0.048552115
130	0xbcde388a	-0.02712657
131	0x3c8b5976	0.017010432
132	0xbdd8ed89	-0.10592181
133	0xbc6271f3	-0.013821113
134	0xbca8c77c	-0.020602934
135	0xbd05275d	-0.032508243
136	0x3d25de0b	0.04049496
137	0xbd1ebf1b	-0.03875647
138	0xbc8c08dc	-0.017094068
139	0x3cc5f37e	0.024163958
140	0x3c8b2e73	0.016989922
141	0xbe0eaf70	-0.13934112
142	0x3d19ff9b	0.03759728
143	0xbd54986b	-0.05190317
144	0x3d4a0458	0.04932055
145	0x3da11f8e	0.07867347
146	0x3da05863	0.078293584
147	0xbd2461a4	-0.04013218
148	0x3d2ba38e	0.041904025
149	0xbd227972	-0.0396666
150	0xbda9e553	-0.08295693
151	0xbdbdf3ca	-0.09275015
152	0xbc0a90b5	-0.008457352
153	0x3d0e0b36	0.03467866
154	0xbc8b03fc	-0.016969673
155	0xbd4400f8	-0.047852486
156	0xbd9b842c	-0.07593569
157	0xbdac99c2	-0.084277645
158	0xbd8f4162	-0.06994893
159	0x3dabaaec	0.0838221
160	0xbc8afc21	-0.016965928
161	0xbd00a017	-0.031402674
162	0x3d7e6ac0	0.062113523
163	0x3d60ebbb	0.05491231
164	0x3ca4c576	0.020113688
165	0x3da42ae9	0.08015997
166	0x3ccbc49a	0.02487402
167	0x3d4cd30f	0.05000597
168	0x3dbed3fb	0.09317776
169	0xbd01970b	-0.031638186
170	0x3d5e7226	0.05430808
171	0x3d3dfc8a	0.04638342
172	0x3cf6bde4	0.030119844
173	0x3d1da5c2	0.038488157
174	0xbcc6c5ce	-0.024264243
175	0xbdba3c01	-0.09093476
176	0xbde0a70c	-0.10969362
177	0x3d6d86cd	0.057989884
178	0x3d958a2f	0.07301747
179	0x3cce7b4d	0.025205279
180	0x3c74cbf0	0.014941201
181	0x3d03f7cb	0.032218736
182	0x3d7178ea	0.058953203
183	0x3bdc94ee	0.006731621
184	0x3ce7155f	0.028208433
185	0xbcd01a47	-0.025403155
186	0x3e04996c	0.12949151
187	0x3d6e6d9a	0.058209993
188	0xbd2d28b6	-0.042275153
189	0xbdcc5256	-0.09976642
190	0xbc0f7e93	-0.008758205
191	0x3cdacc50	0.026708752
192	0x3c6896ac	0.014196079
193	0xbcdf5b07	-0.027265085
194	0xbd26bd0c	-0.040707633
195	0x3d29a993	0.041421484
196	0x3ddac7b3	0.10682621
197	0x3da2c2a3	0.0794728
198	0x3d3c46ee	0.04596608
199	0xbb9e2a5f	-0.0048268284
200	0xbda9238d	-0.08258734
201	0xbd18593f	-0.037194487
202	0xbda6802d	-0.08129916
203	0x3d28b434	0.04118748
204	0x3c854f1d	0.016273076
205	0xbd828a70	-0.06374061
206	0x3d9dd3bc	0.07706401
207	0xbc7f89c1	-0.015596808
208	0xbd84c792	-0.064833775
209	0x3c383bae	0.0112446975
210	0x3d968b60	0.073508024
211	0xbd9cb181	-0.07651044
212	0x3df65f77	0.12029927
213	0x3dc1b85c	0.09458992
214	0x3db5723d	0.0885968
215	0x3d23dabe	0.04000353
216	0xbe2e0443	-0.16993813
217	0x3dcb0b38	0.09914249
218	0xbd3600d8	-0.0444344
219	0xbb1904d6	-0.002334883
220	0x3d5f53ee	0.0545234
221	0x3d95c8d7	0.07313698
222	0xbd9fdd40	-0.07805872
223	0xbe2d0e9a	-0.16900101
224	0xbdb99892	-0.090623036
225	0xbda17dd2	-0.078853264
226	0xbe225784	-0.15853697
227	0xbc791c4a	-0.015204499
228	0xbdeea8b6	-0.11653273
229	0xbcc9c678	-0.02463077
230	0xbcc1063c	-0.023562543
231	0xbd9658b2	-0.07341136
232	0xbcffd8b7	-0.031231267
233	0xbdd9554a	-0.10611971
234	0xbb7acf36	-0.003827048
235	0xbd26b148	-0.040696412
236	0xbc70b5da	-0.014691794
237	0x3cb11b31	0.021619411
238	0xbca84893	-0.020542419
239	0x3b3c9415	0.0028774787
240	0x3cdd1aa7	0.026990248
241	0x3d68cd72	0.056836553
242	0xbd2ce877	-0.042213883
243	0x3c9a287a	0.018818129
244	0x3d89f0c9	0.06735379
245	0x3d21167e	0.03932809
246	0xbbe785a3	-0.0070654913
247	0xbd1f3f24	-0.038878575
248	0xbd84dbaf	-0.06487214
249	0xbcff1884	-0.03113962
250	0x3cfe44ec	0.031038724
251	0xbca6125d	-0.020272428
252	0x3bd39ec8	0.006458137
253	0x3d9e4945	0.07728819
254	0x3c804a4b	0.015660426
255	0xbd495811	-0.049156252

enc_conv3.bias f4 [32]
0	0x3ccdae71	0.025107594
1	0x3d967435	0.073463835
2	0x3e1e288b	0.15445153
3	0x3cef47e5	0.029209087
4	0x3e3662cd	0.17811127
5	0x3cbd91d2	0.023140822
6	0xbc1d8005	-0.009613042
7	0x3dc3d47a	0.09562011
8	0x3e90c125	0.28272358
9	0x3e18269c	0.14858478
10	0x3e643cf0	0.22288871
11	0x3e91af7c	0.28454196
12	0x3d9b4926	0.07582311
13	0xbd0fc4e9	-0.035099898
14	0x3d9490ca	0.07254179
15	0x3c30f968	0.010801651
16	0x3e88f1da	0.26747018
17	0xbcf7cfa1	-0.030250372
18	0x3d8da7a7	0.06916743
19	0x3e11e1cb	0.1424629
20	0x3e38e793	0.18057089
21	0xbe013072	-0.12616137
22	0x3e194b2f	0.14970087
23	0x3e08bd17	0.13353382
24	0x3d630dc9	0.05543307
25	0xbc1dbd41	-0.009627641
26	0x3db3f0e6	0.08786182
27	0x3d787df7	0.060667004
28	0xbdec7a1b	-0.11546727
29	0x3df43aac	0.11925253
30	0x3d7ae581	0.06125403
31	0xbd2b7457	-0.041858997

dec_conv2a.weight f4 [64, 64, 3, 3]
0	0xba9f031c	-0.0012131664
1	0x3d4300f8	0.047608346
2	0x3c832a74	0.016011454
3	0xbc6cf513	-0.014462727
4	0xbbc48fcf	-0.0059985886
5	0xbc26a0d1	-0.010170178
6	0x3d43bf9e	0.047790162
7	0xba9c6832	-0.0011932908
8	0xba38c8fe	-0.0007048993
9	0xbd40561c	-0.04695712
10	0xbcbb7a5f	-0.0228855
11	0x3d62aca5	0.055340428
12	0xbdd660c2	-0.10467674
13	0xbd94aa55	-0.07259051
14	0xba3749dd	-0.00069919025
15	0xba61a122	-0.00086070795
16	0x3dc11615	0.0942804
17	0x3c90bb1b	0.017667344
18	0x3dc34cd4	0.09536138
19	0x3d1ff2a4	0.03904976
20	0x3c833628	0.016017035
21	0x3c809f21	0.015700879
22	0xbd17c35b	-0.03705154
23	0x3c59d4aa	0.013295332
24	0x3b49c85f	0.0030789596
25	0x3d032d24	0.03202547
26	0x3dabaa5f	0.08382105
27	0x3ccce6c2	0.025012378
28	0xbc0804e1	-0.0083019445
29	0x3d32bced	0.043637205
30	0xbd5b5b9b	-0.05355416
31	0xbe0058e3	-0.12533908
32	0x3dab69da	0.08369799
33	0x3d7ab690	0.06120926
34	0xbcee0493	-0.029054916
35	0x3b86f80f	0.0041189264
36	0x3c569022	0.013095887
37	0x3d85dbb5	0.065360464
38	0x3d70d6fd	0.05879878
39	0xbd2c7ce3	-0.04211129
40	0x3c9666af	0.01835951
41	0xbd9b182f	-0.07572972
42	0xbcf4da9a	-0.029889394
43	0xbcbce2bc	-0.023057334
44	0xbcae88e3	-0.021305507
45	0xbd80c58b	-0.06287678
46	0xbd84cc5c	-0.06484291
47	0x3a6bfa68	0.0009001852
48	0xbd38b1ca	-0.045091428
49	0xbd4480e6	-0.04797449
50	0xbccf9180	-0.025337934
51	0x3c194fb3	0.009357381
52	0xbdc8e59f	-0.09809422
53	0xbd9453c7	-0.07242542
54	0x3d33559c	0.043782815
55	0x3cae8f0b	0.021308443
56	0x3d471855	0.04860719
57	0xbb5bcfc6	-0.003354059
58	0x3d70c620	0.058782697
59	0x3df47cad	0.119378425
60	0xbcf216cf	-0.029551892
61	0x3e169d90	0.14708543
62	0x3d19241b	0.03738795
63	0x3d20f010	0.03929144
64	0x3c5da2cd	0.013527584
65	0x3d619765	0.05507602
66	0x3b83059e	0.0039984724
67	0xbd8de618	-0.069286525
68	0x3c2cfbf5	0.010558118
69	0x3daf5e8f	0.085629575
70	0x3d7b6890	0.061379015
71	0x3cd87c01	0.026426317
72	0xbac1392c	-0.001474177
73	0x3d210f01	0.03932095
74	0x3d8b6ffc	0.06808469
75	0x3d484064	0.048889533
76	0x3bd86b5d	0.0066045956
77	0xbd9b847f	-0.07593631
78	0xbb83b16e	-0.004018954
79	0x3da210e5	0.079133786
80	0xbb6d95f6	-0.0036252714
81	0x3ca12476	0.019670706
82	0x3d7def00	0.061995506
83	0x3d10e3f8	0.035373658
84	0x3ce91516	0.028452437
85	0x3d68195f	0.05666482
86	0x38d2ddbe	0.00010054883
87	0x3ccb5dfa	0.024825085
88	0x3d23b7e5	0.039970297
89	0x3d31804f	0.043335255
90	0x3daefd9e	0.085444674
91	0x3c832bfc	0.016012184
92	0x3d1bcc69	0.038036738
93	0x3c16f75b	0.009214248
94	0xbd62753c	-0.055287585
95	0x3ca4c1ed	0.020112002
96	0x3d5f21e8	0.054475695
97	0x3cff5160	0.031166732
98	0x3c924b30	0.017858118
99	0x3d89edda	0.0673482
100	0x3ccc80cf	0.024963764
101	0x3d59f35a	0.053210594
102	0x3dd1bb9a	0.1024086
103	0xbcbb2c87	-0.02284838
104	0xbd37921c	-0.044817075
105	0xbd4c04e4	-0.04980935
106	0x3b04d6c9	0.0020269623
107	0x3b31176b	0.0027022015
108	0xbcced542	-0.025248174
109	0xbd314fa8	-0.043288857
110	0xbc8c502f	-0.017128078
111	0xbaef734d	-0.0018268615
112	0xbd0197a4	-0.031638756
113	0xbd12a080	-0.035797596
114	0xbbf278f0	-0.007399671
115	0x3d71561c	0.05892001
116	0xbcb16583	-0.02165485
117	0x3d36d76d	0.04463904
118	0xbd04b12c	-0.032395527
119	0x3d2b184b	0.041771214
120	0x3e18184d	0.1485302
121	0x3d056af0	0.032572687
122	0x3d8edd90	0.069758534
123	0xbc0d9270	-0.00864087
124	0x3b1998e4	0.0023437077
125	0x3e2148ae	0.15750381
126	0xbd3c2949	-0.04593781
127	0x3d406b0c	0.046977088
128	0x3c2fcbd3	0.010729748
129	0xbc056a1a	-0.008142972
130	0x3d8d7b04	0.06908229
131	0xbc3aa144	-0.011390988
132	0xbbd5a721	-0.0065201675
133	0xbc157b0e	-0.009123577
134	0xbc9190f7	-0.01776932
135	0xbd785944	-0.060632005
136	0xbdbe208f	-0.09283554
137	0x3d662b1d	0.05619346
138	0xbe1279a9	-0.14304222
139	0xbda81630	-0.08207357
140	0xbc12553d	-0.008931455
141	0x3da0da65	0.078541555
142	0x3e0c458e	0.13698408
143	0x3c552066	0.013008213
144	0x3d4e38ab	0.05034701
145	0x3cebe09d	0.028793627
146	0x3db87b4b	0.09007891
147	0x3d5f145e	0.054462783
148	0xbd22af33	-0.039717864
149	0x3d92a12a	0.07159646
150	0x3db61b78	0.08891958
151	0xbcb173ae	-0.021661606
152	0x3d783684	0.060598865
153	0xbca3c172	-0.019989703
154	0xbd96cc9b	-0.07363244
155	0xbbcbbda8	-0.006217677
156	0x3dce4082	0.10070898
157	0xbce1c5de	-0.02756017
158	0x3b0cbb89	0.0021474084
159	0x3bdfc951	0.0068294187
160	0xbcd31be0	-0.025770128
161	0xbd85d3bd	-0.065345265
162	0xbc22f930	-0.009947106
163	0xbcefe3e7	-0.029283477
164	0xbbcb024c	-0.006195342
165	0xbc4a1681	-0.012334467
166	0xbd09afbb	-0.033614855
167	0xbc1ddd46	-0.009635275
168	0x3c0cd089	0.0085946405
169	0x3ca873f0	0.020563096
170	0xbac7f100	-0.0015254319
171	0x3bf348c8	0.0074244477
172	0xbdeeb059	-0.116547294
173	0xbe152689	-0.14565481
174	0x3d331a83	0.043726455
175	0xbca0ee1c	-0.01964479
176	0x3cee3949	0.02908005
177	0x3d3de8e5	0.046364684
178	0xbe71a02a	-0.23596254
179	0x3d3af007	0.045639064
180	0xbc5ad5e6	-0.013356661
181	0xbdb5bc07	-0.08873754
182	0x3d88d148	0.06680542
183	0x3c737134	0.014858533
184	0xbd3de243	-0.046358358
185	0xbd859d12	-0.065240994
186	0xbd8139ca	-0.063098505
187	0xbc02f5fe	-0.007993219
188	0x3cb38805	0.021915445
189	0xbd04c1f0	-0.032411516
190	0x3d5194dd	0.051167358
191	0x3c90dc6d	0.017683232
192	0xbc23ca63	-0.009996983
193	0x3d1d084f	0.038338
194	0x3a13b01b	0.0005633847
195	0x3cce6a61	0.02519721
196	0xbc79b044	-0.015239779
197	0xba59623d	-0.0008292532
198	0xbc3c68a9	-0.011499562
199	0xbb9878e3	-0.0046530827
200	0xbc83d627	-0.016093327
201	0xbd8057b9	-0.06266732
202	0x3d75bdec	0.059995577
203	0x3c991f92	0.018691812
204	0xbc6c4440	-0.014420569
205	0x3c1dbc90	0.009627476
206	0xbc050316	-0.0081184115
207	0xbc81b744	-0.015834458
208	0x3d1f3a4d	0.03887396
209	0xbc217791	-0.009855167
210	0x3dbea0a2	0.09307982
211	0xbc0fd8c3	-0.008779707
212	0x3d270cbe	0.040783636
213	0x3db50beb	0.08840164
214	0x3db48828	0.08815032
215	0xbcabcec8	-0.020972624
216	0x3d3cdf19	0.0461112
217	0xbd327d52	-0.043576546
218	0x3c4178b7	0.011808566
219	0xbc589335	-0.013218691
220	0xbd8cf1ca	-0.06882055
221	0x3be0d4e2	0.006861315
222	0x3b890a66	0.004182148
223	0xbc9500f9	-0.01818894
224	0x3d35dc91	0.0443998
225	0xbd0da7c0	-0.034583807
226	0xbd49a16c	-0.04922621
227	0x3cbbdfa0	0.022933781
228	0x3e03faf6	0.12888703
229	0x3d24a8bd	0.040199984
230	0x3caa7bc0	0.020810962
231	0xbd1dbe59	-0.038511608
232	0xbd574ba1	-0.05256236
233	0xbdb05b31	-0.086111434
234	0x3d134b69	0.03596059
235	0x3aeba10d	0.0017977074
236	0xbcd12ed8	-0.025535032
237	0xbdbfb612	-0.09360899
238	0xbcabad38	-0.02095662
239	0xbd10b419	-0.035328005
240	0x3d6fdd63	0.05856074
241	0x3dbeb6ef	0.093122356
242	0x3d199588	0.03749612
243	0x3e074ccb	0.13212888
244	0xbcb04fd5	-0.021522442
245	0xbdd14d08	-0.10219771
246	0xbd242246	-0.04007175
247	0x3d9b0772	0.075697795
248	0x3c2c32df	0.0105101755
249	0xbc1aeba7	-0.009455598
250	0x3d4f5e38	0.050626963
251	0x3b1df181	0.0024100246
252	0x3d5ba04d	0.05361967
253	0x3d47c2bd	0.0487697
254	0x3c08e74c	0.008355927
255	0x3c54a6aa	0.012979189

dec_conv2a.bias f4 [64]
0	0xbb5309bf	-0.0032201854
1	0x3d80d01c	0.06289694
2	0xbd44f572	-0.048085637
3	0x3d6fa6cc	0.05850868
4	0x3d2484a4	0.04016556
5	0x3db64443	0.08899739
6	0x3d90a8b8	0.070634305
7	0x3ddf18b1	0.108933814
8	0xbdace0d4	-0.0844132
9	0x3df94c8f	0.121728055
10	0x3d5299cd	0.051416207
11	0xbce6de2d	-0.028182114
12	0xbddd36ea	-0.1080149
13	0xbdf51575	-0.11966983
14	0x3d8bc57a	0.06824775
15	0x3da01fda	0.07818575
16	0xbdea45cb	-0.11439093
17	0x3e01ea68	0.12687075
18	0xbcb39a49	-0.021924155
19	0xbdd06763	-0.101759695
20	0x3c9171e6	0.017754506
21	0x3d638d87	0.055554893
22	0x3db57a3f	0.08861207
23	0xbc97f030	-0.018547148
24	0xbd01c4c6	-0.0316818
25	0x3cc2e97f	0.02379298
26	0x3cee72e2	0.029107515
27	0x3dd3a62a	0.10334428
28	0x3e0a7cfd	0.13524242
29	0xbd17cc23	-0.037059914
30	0x3d6129ba	0.054971434
31	0x3da3632a	0.079778984
32	0x3d162913	0.036660265
33	0xbba8da7f	-0.005153
34	0x3c48637a	0.012230748
35	0xbdeadfeb	-0.1146849
36	0x3d897614	0.06711975
37	0xbd165a8a	-0.03670744
38	0x3d07fad8	0.033198208
39	0x3df44dd8	0.1192891
40	0x3d949c2e	0.072563514
41	0x3d3e6249	0.04648045
42	0x3d92127c	0.07132432
43	0x3d1fab6a	0.038981833
44	0x3e0078ab	0.12546031
45	0xbc98ecd6	-0.01866762
46	0x3d09f072	0.033676572
47	0xbd262d1c	-0.040570363
48	0x3e028897	0.12747417
49	0x3ce81846	0.028331887
50	0x3da09d7f	0.0784254
51	0xbc9bf469	-0.019037442
52	0x3cdc5cb5	0.026899675
53	0x3e76b115	0.24090989
54	0x3c852025	0.01625068
55	0x3bf57a72	0.0074914033
56	0xbdfefc59	-0.12450475
57	0x3d2e52b8	0.042559355
58	0x3da557a1	0.080733545
59	0xbe0d7f57	-0.13818108
60	0x3cc6ca3b	0.024266353
61	0xbc4cdb1e	-0.0125034135
62	0xbd363750	-0.044486344
63	0x3bd0723b	0.0063612736

dec_conv2b.weight f4 [64, 64, 3, 3]
0	0xbc94b503	-0.01815272
1	0x3c0cf17b	0.008602495
2	0x3d2795fb	0.040914517
3	0xbcac454b	-0.021029135
4	0xbc6d7c76	-0.014495006
5	0x3c08015b	0.008301104
6	0xbcb50840	-0.02209866
7	0x3c994a83	0.018712288
8	0x3af05dab	0.0018338462
9	0x3d1ca44b	0.03824262
10	0x3c95a186	0.018265497
11	0x3ccb12c0	0.024789214
12	0xbc57f23b	-0.013180311
13	0xbd0ae28e	-0.033907466
14	0x3b6d1296	0.0036174408
15	0x3986cf56	0.0002571295
16	0xbd10e3f0	-0.03537363
17	0x3c43b536	0.0119450595
18	0x3d0e4fde	0.034744136
19	0xbd151e3a	-0.03640578
20	0x3cd83bf0	0.026395768
21	0x3c989ede	0.018630441
22	0x3babe5eb	0.005245914
23	0xbc226f16	-0.00991418
24	0xbd03b4ba	-0.032154776
25	0xbcca1d0e	-0.024672057
26	0x3c4b236b	0.012398581
27	0xbd01b214	-0.03166397
28	0x3d063b9a	0.032771684
29	0xbb4c1240	-0.0031138808
30	0x3c699dd6	0.014258822
31	0xbcd11038	-0.025520429
32	0x3ca7f5ee	0.02050301
33	0xbc53d940	-0.012930214
34	0xbd1bab44	-0.03800513
35	0x3c3048f0	0.010759577
36	0x3d15efd4	0.03660567
37	0x3c0935ab	0.008374612
38	0xbcdf9fa0	-0.027297795
39	0x3bdc55e0	0.0067241043
40	0xbc87a5c3	-0.016558534
41	0x3bcaaef6	0.0061854078
42	0xbca564be	-0.02018964
43	0x3d10cbb6	0.035350524
44	0xbd02d5a0	-0.03194201
45	0xbcaad89e	-0.020855244
46	0xbd164fdc	-0.036697254
47	0x3c6eb796	0.0145701375
48	0x3c142346	0.009041613
49	0x3d20157a	0.03908298
50	0xbc523af0	-0.012831435
51	0xbbc1478b	-0.005898421
52	0xbcc93b53	-0.02456442
53	0xbcce5d13	-0.025190866
54	0x3d165a06	0.036706947
55	0xbd16199b	-0.036645513
56	0xbbdbb260	-0.0067046136
57	0xbc5a33b0	-0.013317987
58	0xbce8b64b	-0.028407237
59	0x3d1d9fa8	0.03848234
60	0x3cc4f838	0.024044141
61	0x3cbe3a4b	0.023221156
62	0xbcfe2c9b	-0.031027129
63	0x3c9dff58	0.019286796
64	0x3c8f975e	0.017528232
65	0x3d1c31ac	0.03813331
66	0xbca6d42e	-0.020364847
67	0x3cdfc280	0.027314425
68	0x3ccab273	0.024743294
69	0xbc24a6c6	-0.0100495275
70	0x3c7a4076	0.015274158
71	0x3ce3c556	0.027804058
72	0xbc1e57e6	-0.009664511
73	0x3d0144b4	0.03155966
74	0x3c836a96	0.016042035
75	0xbcf1f4c6	-0.029535662
76	0xbc6855c6	-0.014180606
77	0xbd064860	-0.032783866
78	0x3c065f4b	0.008201431
79	0xbcbf7926	-0.023373198
80	0x3cef0770	0.029178351
81	0xbc801dd3	-0.015639221
82	0xbd0cbf43	-0.03436209
83	0xbceb1760	-0.02869767
84	0xbc9a5368	-0.0188386
85	0x3c414e30	0.0117984265
86	0x3d119f57	0.03555235
87	0xbba139eb	-0.0049202344
88	0xbcb5cc6b	-0.0221922
89	0x3d096cf7	0.033551183
90	0x3c737040	0.014858305
91	0xbd26eb3b	-0.040751677
92	0xbd0f8994	-0.035043314
93	0x3d017d07	0.031613376
94	0x3cc0cd1b	0.023535302
95	0x3d0d2d0c	0.03446679
96	0xbd11ba40	-0.035578012
97	0xbd1f6237	-0.038912024
98	0x3c871c10	0.016492873
99	0xbca4aff8	-0.02010344
100	0x3ceba453	0.02876488
101	0xbca76283	-0.020432716
102	0xbbb8f036	-0.0056438698
103	0xbcd16fa8	-0.025565937
104	0xbcdc82de	-0.026917871
105	0x3d249890	0.040184557
106	0x3c73ad56	0.0148728695
107	0xbd0a505b	-0.03376804
108	0x3c12b00b	0.008953105
109	0x3d16abb0	0.036784828
110	0xbcf9bbe6	-0.030485105
111	0xbc3a4d10	-0.011370912
112	0x3c9afbd6	0.018918913
113	0x3d28af57	0.041182842
114	0xbc889ed0	-0.01667729
115	0xbc372b66	-0.011179781
116	0xbcbcae8e	-0.023032453
117	0xbc497eb0	-0.012298271
118	0xbc9a3da6	-0.018828224
119	0xbc470c86	-0.012148982
120	0x3d1a353b	0.03764842
121	0x3a892900	0.001046449
122	0x3c0c8cb0	0.008578464
123	0x3ca1559e	0.019694146
124	0xbc9e6d16	-0.019339126
125	0x3cf92c66	0.030416679
126	0x3beda636	0.00725248
127	0x3cd8d39e	0.026468094
128	0xbca95ede	-0.020675119
129	0xbc353930	-0.011060998
130	0x3b906f60	0.004407808
131	0xbc1c1b9b	-0.009528066
132	0xbd218263	-0.039430987
133	0x3d29b5c3	0.041433107
134	0xbd193f4e	-0.037413888
135	0x3c89ffb3	0.01684556
136	0xba1dd8ab	-0.0006021361
137	0x3a8c8e80	0.0010723621
138	0x3c2b37a0	0.010450274
139	0xbcf6920b	-0.030098936
140	0xbcfdf053	-0.030998385
141	0x3c1750cb	0.009235571
142	0xba5755ab	-0.00082143646
143	0x3c4ef596	0.012631794
144	0xbb1c216b	-0.002382363
145	0x3ca0114e	0.019539502
146	0x3c855a8b	0.016278526
147	0x3ca13088	0.019676462
148	0x3cb0e8e3	0.021595424
149	0xb99504ab	-0.00028422973
150	0x3d0de576	0.03464266
151	0xbc641c00	-0.013922691
152	0x3c8595ab	0.016306719
153	0xbd23fc67	-0.04003563
154	0xbc201306	-0.009770161
155	0x3c7bad36	0.015361121
156	0x3bb961f6	0.00565743
157	0xbc612566	-0.013741827
158	0x3cdef430	0.027216047
159	0x3d225b8a	0.03963808
160	0x3cbaf1cb	0.022820374
161	0xbcdd8350	-0.027040154
162	0x3cdb4500	0.0267663
163	0x3c5ffefb	0.013671632
164	0xb9793aab	-0.00023768346
165	0xbcc122c8	-0.023576155
166	0x3ba89316	0.005144487
167	0x3d0270f3	0.031845998
168	0x3c53a90b	0.012918721
169	0xbbd2d06b	-0.0064335368
170	0xbccbba96	-0.024869245
171	0x3c247040	0.010036528
172	0x3d0a1823	0.033714425
173	0x3be69af6	0.0070375158
174	0xba8dce56	-0.0010818939
175	0xbcb547d3	-0.022128975
176	0xbb36d580	-0.0027898252
177	0x39bde400	0.00036218762
178	0xbc2ed40b	-0.010670672
179	0xbc92d76b	-0.017924985
180	0x3d0b2730	0.03397292
181	0xbc6c1f20	-0.014411718
182	0x3c85f6c3	0.016353017
183	0xbc03f1db	-0.008053268
184	0x3aa32ed6	0.0012449871
185	0x3d0fecce	0.035137944
186	0x3c836783	0.01604057
187	0xbc1709fb	-0.009218688
188	0xbd1410d7	-0.036148872
189	0x3ca2ad16	0.019857924
190	0xbc16ac26	-0.009196317
191	0xbc9de873	-0.01927588
192	0x3baf7f2b	0.005355736
193	0xbbf1440b	-0.0073628477
194	0xbc20f3bb	-0.009823735
195	0xbc9d4bf8	-0.019201264
196	0x3c83b708	0.016078487
197	0x3b6b85c0	0.0035937876
198	0xbcf80c48	-0.030279294
199	0xbc8e0e83	-0.017340904
200	0xbcc99863	-0.024608796
201	0x3c4c98b6	0.012487581
202	0x3b8fa40b	0.004383569
203	0x3bbb6460	0.0057187527
204	0x3cd20318	0.02563624
205	0xbb9cfe96	-0.004791091
206	0x3d01f366	0.031726263
207	0x3d118ac8	0.035532743
208	0xbd1da0aa	-0.0384833
209	0x3d24648c	0.04013495
210	0x3cc27073	0.02373526
211	0xbbfbe496	-0.0076871617
212	0xbd10b754	-0.035331085
213	0xbc7bd536	-0.015370658
214	0x3ca513eb	0.0201511
215	0x3a3d7600	0.0007227361
216	0x3cedcd16	0.029028457
217	0xbc6bb9a0	-0.014387518
218	0xba030956	-0.00049986446
219	0xbc4dfe46	-0.012572831
220	0x3bc46220	0.0059931427
221	0x3c023230	0.007946536
222	0x3ce26e73	0.027640557
223	0x3c70150b	0.014653455
224	0x3a9de2d6	0.0012045752
225	0x3d2249d6	0.039621197
226	0x3d0fbed4	0.035094097
227	0x3c7530d6	0.014965257
228	0x3c6396db	0.013890947
229	0xb9087aab	-0.00013015668
230	0xbc3fc690	-0.011705056
231	0x3bb4198b	0.005496209
232	0xbc9382e3	-0.018006748
233	0x3b26fb80	0.0025479496
234	0x3c908f43	0.017646438
235	0xba048d56	-0.0005056461
236	0x3c61c03b	0.0137787415
237	0x3c835e1b	0.016036084
238	0x3cec986e	0.028881278
239	0x3bbd99cb	0.005786156
240	0xbcb1607e	-0.021652456
241	0x3cd3fbbb	0.02587687
242	0x3b946676	0.004528816
243	0xbce20306	-0.027589332
244	0x3cc724ee	0.024309602
245	0xbcfd8ece	-0.030951884
246	0xbc115fd0	-0.008872941
247	0x3d09ec37	0.033672538
248	0xba82ddab	-0.0009984275
249	0x3d0bc050	0.03411895
250	0x3d2700b8	0.04077217
251	0x3c5bf0d0	0.013424113
252	0xbd27c128	-0.040955693
253	0x3c8092de	0.015695032
254	0x3cfdc528	0.0309778
255	0x3c8798d0	0.016552359

dec_conv2b.bias f4 [64]
0	0x3d0a3c24	0.03374876
1	0xbcf37b98	-0.02972202
2	0x3d11b70c	0.035574958
3	0xba8e19d6	-0.001084144
4	0xbcd160f3	-0.025558924
5	0xbd144d2b	-0.036206406
6	0xbd09d060	-0.033645988
7	0x3d2477a0	0.040153146
8	0xbc98bb06	-0.018643867
9	0x3cd901fe	0.026490208
10	0xbd17f648	-0.037100106
11	0xbbabdb36	-0.005244638
12	0x3d0ad12b	0.033890884
13	0xbac79e80	-0.0015229732
14	0xba568e00	-0.0008184612
15	0xbcd7318b	-0.026268741
16	0xbbd77536	-0.006575252
17	0x3c1bfba0	0.009520441
18	0x3ca80050	0.020507962
19	0x3d03c677	0.032171693
20	0x3c8c58c3	0.017132169
21	0xbd134e50	-0.035963356
22	0xbc093d70	-0.008376464
23	0x3cc580a0	0.024109185
24	0xbc509d8b	-0.012732874
25	0x3cb39508	0.02192165
26	0x3921d400	0.00015433133
27	0xbce8f7c8	-0.028438464
28	0xbce4932e	-0.027902212
29	0xbc72250b	-0.01477934
30	0xbb3de7eb	-0.0028977345
31	0xbd23a26f	-0.03994983
32	0x3b8450a0	0.0040379316
33	0xbd21f184	-0.039536968
34	0xbd13416b	-0.03595106
35	0xbc78e406	-0.015191084
36	0x3b12e6eb	0.002241547
37	0xba29b756	-0.00064741576
38	0xbcf99490	-0.030466348
39	0xbce181fe	-0.027527805
40	0x3d1c1feb	0.038116377
41	0x3cca3d0e	0.024687316
42	0xbca6a1bb	-0.020340791
43	0x3d19ab2c	0.037516758
44	0x3d0bf8de	0.034172885
45	0x3cb008cb	0.021488568
46	0xbc069d4b	-0.0082162125
47	0x3bd9fe40	0.0066526234
48	0x3ba7f700	0.0051258802
49	0x3cd90383	0.026490932
50	0xbbb0848b	-0.005386894
51	0x3cee8a1e	0.029118594
52	0xbb8a878b	-0.0042275838
53	0xbab9fbab	-0.0014189383
54	0xbcefe503	-0.029284006
55	0xbcb94fb3	-0.022621011
56	0x3c56d336	0.01311188
57	0xbcba8346	-0.022767674
58	0xbcdedfcb	-0.027206322
59	0xba051bab	-0.000507767
60	0xbd1d9f5a	-0.038482048
61	0xbccafece	-0.024779703
62	0x3d0c3e93	0.034239363
63	0xbd011a20	-0.031519055

dec_conv1a.weight f4 [32, 67, 3, 3]
0	0x3ceb6428	0.028734282
1	0x3da33a7f	0.079701416
2	0xbb287172	-0.0025702384
3	0x3cbb1bbc	0.022840373
4	0x3d2e350f	0.04253107
5	0x3cfb9bfe	0.030714031
6	0x38dc315d	0.00010499612
7	0xbc1017bd	-0.008794722
8	0x3cfcb3b2	0.030847404
9	0x3d1e13d7	0.03859314
10	0x3c12045b	0.008912171
11	0xbcc113dd	-0.023569042
12	0xbb90cc90	-0.004418917
13	0x3cfc7e51	0.030821951
14	0x3be4a8db	0.006978137
15	0x3d1cecf8	0.03831193
16	0x3d7ac96a	0.06122724
17	0x3c49815e	0.01229891
18	0xbdc70aeb	-0.09718879
19	0xbd963b15	-0.07335488
20	0xbd90c42b	-0.07068666
21	0xbb4706d8	-0.003036907
22	0x3dcc353a	0.0997109
23	0x3d689b54	0.056788757
24	0x3d383585	0.044972915
25	0x3dc12eb7	0.09432738
26	0x3cf97162	0.030449573
27	0x3cc56c9a	0.024099637
28	0x3dd02713	0.10163703
29	0x3d3a17a0	0.045432687
30	0xbccdb823	-0.025112217
31	0xbcbdca11	-0.023167642
32	0x3c80f1da	0.015740324
33	0x3d1535d0	0.036428273
34	0xbcfa3162	-0.030541126
35	0xbbae2ed3	-0.0053156405
36	0x3d41a702	0.04727841
37	0xbc9983f2	-0.018739674
38	0x3d7060c1	0.05868602
39	0xbcb17ee8	-0.021666959
40	0x3d061b2e	0.032740764
41	0xbb023079	-0.0019865318
42	0x3d7df6b3	0.06200285
43	0x3d233337	0.039843764
44	0x3cdfdfda	0.02732842
45	0xbd438c12	-0.047741003
46	0xbaa14f85	-0.0012307024
47	0x3c927254	0.017876782
48	0xbd1b42df	-0.03790557
49	0xbcd60297	-0.026124282
50	0x3d124474	0.035709813
51	0x3ca88ef7	0.020575983
52	0x3d891508	0.066934645
53	0x3d76c11f	0.06024277
54	0x3d188986	0.037240528
55	0xbd496154	-0.049165085
56	0xbcd85471	-0.026407452
57	0x3d4dbc87	0.05022862
58	0x3c6da267	0.014504052
59	0xbc2b3a5c	-0.010450926
60	0x3de113fd	0.109901406
61	0x3ccbb76c	0.024867736
62	0x3bd046c6	0.006356093
63	0xbd983126	-0.07431249
64	0xbd0f6bba	-0.035014845
65	0x3d62c85e	0.055366866
66	0xbc42d1a7	-0.011890805
67	0xbd32d7e3	-0.043662917
68	0x3d1848b2	0.037178703
69	0x3cc9ab43	0.024617797
70	0xbc077f85	-0.008270149
71	0x3d21ff9f	0.03955042
72	0xbc9689c2	-0.018376235
73	0xbdade023	-0.08490016
74	0xbca1886e	-0.019718375
75	0x3c6e9602	0.014562132
76	0x3c872bd1	0.016500385
77	0xbd761f25	-0.060088295
78	0x3d44410f	0.047913607
79	0x3dc881a6	0.097903535
80	0xbc08030d	-0.008301509
81	0x3d12f2a7	0.035875943
82	0xbba78bb8	-0.0051130913
83	0xbc0a8bd3	-0.008456188
84	0xbd20d8a4	-0.039269105
85	0xbd71cf91	-0.05903584
86	0xbd87b2b3	-0.06625881
87	0x3db6fb29	0.08934624
88	0xbcd97f5d	-0.02654999
89	0xbd457059	-0.048202846
90	0xbda1130c	-0.07864961
91	0xbd29dc85	-0.04147007
92	0xbbec7cbd	-0.0072170184
93	0xbd9d5635	-0.07682458
94	0xbd9733b8	-0.073829114
95	0xbd1bd8f3	-0.038048696
96	0x3c3143a7	0.010819352
97	0xbc4b67ec	-0.012414914
98	0x3c141f1d	0.009040621
99	0x3ba25564	0.004954027
100	0x3d0a22b2	0.033724494
101	0xbc059b33	-0.008154678
102	0x3c933c36	0.017973047
103	0x3cd7226b	0.026261529
104	0x3d2df67b	0.04247139
105	0xbcd0f795	-0.025508681
106	0x3d18eada	0.037333347
107	0x3d36faf6	0.04467293
108	0x3d798431	0.060917083
109	0x3c04d10c	0.008106481
110	0xbb62f6de	-0.0034632008
111	0x3d5011c4	0.050798193
112	0xb8ada802	-8.280577e-05
113	0xbc715d22	-0.014731677
114	0x3d259ee9	0.04043475
115	0xb9f33966	-0.00046391337
116	0xbd430dff	-0.04762077
117	0xbcc77a19	-0.024350213
118	0x3cbb3ad4	0.0228552
119	0x3c95118c	0.018196844
120	0xbc565cae	-0.01308362
121	0x3cc40d6e	0.023932185
122	0x3d7a73f5	0.06114574
123	0x3c3d4894	0.0115529485
124	0xb532786e	-6.6485416e-07
125	0x3d9504aa	0.0727628
126	0x3d710ab5	0.0588481
127	0x3d94384c	0.072373
128	0xbc124329	-0.008927145
129	0x3d02e423	0.03195585
130	0x3d8d9b68	0.06914407
131	0x3d201391	0.03908116
132	0x3c5599a2	0.013037117
133	0x3db1505a	0.08657904
134	0x3d5736e2	0.052542575
135	0x3cce1c7b	0.025160065
136	0x3cfb7ba0	0.030698597
137	0x3c3700ba	0.011169607
138	0x3d244e1c	0.040113553
139	0x3d72cb17	0.059275713
140	0x3cce78b4	0.02520404
141	0x3d11962c	0.035543606
142	0x3cb6397d	0.02224421
143	0x3d40da27	0.047083046
144	0xbcd00757	-0.025394125
145	0x3cafb3b9	0.021448003
146	0xbc284f6d	-0.010272843
147	0xbb8c78c5	-0.004286858
148	0x3d2b7564	0.04186
149	0x3d0495a3	0.032369267
150	0xbb0a2fa2	-0.002108552
151	0xbc94810f	-0.018127946
152	0xbc35fd13	-0.011107701
153	0x3dab387c	0.08360383
154	0x3d871f16	0.06597726
155	0x3d494dd5	0.049146492
156	0x3d916f30	0.071012855
157	0x3d4f3cf4	0.05059524
158	0x3d85d5f1	0.06534947
159	0x3d41a012	0.047271796
160	0x3cc2f4e9	0.023798423
161	0x3bd941d3	0.0066301613
162	0x3d144869	0.03620187
163	0x3d2a7100	0.04161167
164	0x3d38a417	0.045078363
165	0x3b7a9572	0.003823605
166	0x3cb4b0a4	0.022056885
167	0xbc43bf2e	-0.011947436
168	0x3d2a6b0d	0.041605998
169	0x3d3a6aa3	0.045511853
170	0x3c4b4910	0.012407556
171	0xbd4f191d	-0.05056106
172	0xbc2efc39	-0.010680252
173	0xbcef7581	-0.029230835
174	0xbd3b92af	-0.045794185
175	0x3cd5fb92	0.026120935
176	0xbd1f32e9	-0.03886691
177	0x3b7efa21	0.0038906413
178	0xbd5ccbf4	-0.053905442
179	0xbc2878e4	-0.010282729
180	0xbbe19504	-0.006884219
181	0x3b45c026	0.0030174344
182	0x3d01b4e2	0.031666644
183	0x3c55cc7a	0.013049239
184	0xbd7c9643	-0.06166674
185	0xbcdc4bd3	-0.026891625
186	0x3dab783f	0.083725445
187	0x3c52d153	0.01286729
188	0x3bd62354	0.006534973
189	0xbd09a321	-0.033602837
190	0xbd8b2f8a	-0.06796177
191	0xbd26c50a	-0.040715255
192	0xbd105223	-0.03523458
193	0xbd81a1b3	-0.0632967
194	0xbd7e6522	-0.062108167
195	0x3c03a643	0.008035245
196	0xbd16faba	-0.036860205
197	0xbd8569da	-0.0651433
198	0xb9669099	-0.00021988376
199	0x3d66b796	0.056327425
200	0xbb927591	-0.0044695814
201	0x3db171a6	0.08664255
202	0x3dbc958b	0.092082106
203	0x3da8b1bb	0.082370244
204	0x3d8963e0	0.06708503
205	0x3d5f442b	0.05450837
206	0x3d1694d3	0.036763024
207	0x3cda9448	0.026682034
208	0x3d8545ab	0.06507429
209	0x3d0e3d02	0.03472615
210	0x3d829bf0	0.06377399
211	0x3c42ae24	0.011882339
212	0x3c4ae42e	0.012383504
213	0x3d47ef2c	0.048812076
214	0x3d1da002	0.038482673
215	0xbbf36e9a	-0.007428956
216	0x3d624840	0.055244684
217	0xbb4b0616	-0.003097897
218	0x3b75df39	0.0037517084
219	0x3d5194e1	0.051167373
220	0x3d1e2110	0.03860575
221	0x3d59b1f7	0.053148236
222	0x3cd7657a	0.026293505
223	0x3bd8c6e1	0.006615505
224	0x3d6e9086	0.058243297
225	0xbcf472ab	-0.029839834
226	0x3b5f7ba4	0.0034100795
227	0x3ca57cd0	0.020201117
228	0xbd20b585	-0.03923561
229	0xbd121fc7	-0.035674836
230	0x3d26d9da	0.040735103
231	0x3d2876f7	0.04112908
232	0xbcd33a1f	-0.02578455
233	0x3ce9b282	0.028527502
234	0xbc1eed34	-0.009700108
235	0xbb0f1235	-0.002183092
236	0x3c5b39e3	0.0133805005
237	0x3be372b7	0.0069411653
238	0xbc1c616d	-0.0095447125
239	0x3c92ea7f	0.017934082
240	0x3c8dc279	0.017304646
241	0xbc584eae	-0.013202352
242	0x3d3f21fb	0.046663266
243	0xbc1c5ac5	-0.0095431255
244	0xbc6b6673	-0.0143676875
245	0x3d8d5f34	0.06902924
246	0xbd29d292	-0.04146058
247	0xbe0e6508	-0.13905728
248	0x3d8ba0c7	0.06817775
249	0x3b45fcdd	0.0030210533
250	0xbd68b4f7	-0.056813207
251	0xbd7adc3e	-0.061245196
252	0x3d0bfe52	0.034178086
253	0x3d93c657	0.07215565
254	0x3d6d164d	0.057882596
255	0x3cfb135d	0.030648882

dec_conv1a.bias f4 [32]
0	0x3d1bd649	0.038046155
1	0x3e2a9089	0.16656698
2	0xbe105733	-0.14095764
3	0x3d8b237b	0.06793877
4	0xbd70e9c5	-0.05881669
5	0xbc167a0e	-0.009184374
6	0x3e889d8d	0.26682702
7	0x3c2b9f22	0.010474952
8	0x3e23c827	0.15994321
9	0xbcfdde0c	-0.03098967
10	0xbdce9fde	-0.10089086
11	0x3cc52c74	0.024069048
12	0xbdd0c18c	-0.10193166
13	0x3d54b007	0.051925685
14	0x3d30c120	0.04315293
15	0x3c9ec45f	0.019380746
16	0x3d2e7ec5	0.042601366
17	0x3cbf4401	0.023347856
18	0x3d53f3a1	0.051746015
19	0x3d172bd3	0.03690703
20	0x3c2f4542	0.010697665
21	0x3dbfcd73	0.09365358
22	0x3d82cc66	0.06386642
23	0x3d4b60c8	0.049652845
24	0x3d842bb7	0.064536504
25	0x3cc51e47	0.024062289
26	0x3d7bffcf	0.061523255
27	0x3d8f2205	0.069889106
28	0x3d888d95	0.0666763
29	0x3d1d748f	0.038441237
30	0x3d546be7	0.051860716
31	0x3d6f459e	0.058416
