models/leaner_model1_2.pt (torch, 455029 bytes, 16 tensors)

enc_conv0.weight f4 [16, 3, 3, 3]
000000 92 dc 38 be f5 6b 28 3e 09 37 36 3e f2 6e 8a bd
       -0.18052891 0.16447432 0.17794432 -0.067594424
000010 18 ec e1 3d 87 99 f2 3d 87 0a a6 bd 3b 74 a5 bd
       0.110313594 0.11845689 -0.08107477 -0.0807881
000020 6f 7e 15 bd 93 42 0c be 97 4e 0a 3e 38 0c 41 bd
       -0.03649753 -0.13697271 0.13506542 -0.047130793
000030 71 44 29 be 07 b9 70 bb 11 39 bc bd 0a 07 13 3e
       -0.16530015 -0.0036731379 -0.09190572 0.14358154
000040 60 ec 0e 3e 0e 6d 39 be a6 09 0e be 4a 36 77 bd
       0.13957357 -0.18108007 -0.13870868 -0.06035451
000050 56 1e dc 3d fe 2e 14 3e aa 26 2f 3e 31 09 13 bc
       0.107479736 0.14471051 0.17104593 -0.008974359
000060 2f 3c 14 bd 6d a4 41 3d a3 67 30 bd 97 f8 78 bd
       -0.036190208 0.04727595 -0.043067586 -0.06078395
000070 30 05 ff 3d 27 db ba 3c 0a 4b 1b 3e 49 89 2e 3e
       0.12452161 0.022809578 0.15165344 0.17044558
000080 24 84 2c 3d 07 05 59 3d 76 90 2d 3e 33 e9 27 3c
       0.042118207 0.05298331 0.16949639 0.01024847
000090 87 a2 8a 3d 83 3d dc 3d 9f e0 d5 bd 16 d8 70 bd
       0.06769281 0.1075392 -0.10443234 -0.058799826
0000a0 94 f1 9c bc ff b8 3e be 26 bc f5 bc 0e 68 9d 3d
       -0.019158162 -0.18625258 -0.029996943 0.076858625
0000b0 fa ca b8 3b df 4c f7 3d 6a 97 a8 3d 94 c5 50 bc
       0.005639431 0.12075209 0.08232005 -0.012742419
0000c0 ab 90 b1 3d 0b 1b 31 3e cb 88 0c be 2e d6 26 3e
       0.08670171 0.17295472 -0.13724057 0.1629264
0000d0 1c 6e d1 3c bb 95 2c bd 8d 8c 6c bd 16 12 56 bb
       0.0255652 -0.04213498 -0.057751227 -0.0032664589
0000e0 8e 47 b1 3d 4d f3 0b be ba 51 c3 bd 26 af 85 bc
       0.08656226 -0.1366703 -0.095370725 -0.016318869
0000f0 f6 c9 b0 3d e5 4d 95 3b 22 c4 38 3e 95 77 1a 3e
       0.08632271 0.004556405 0.18043569 0.1508468
000100 78 0a 04 be dc d0 9c 3d 29 99 03 3e 31 54 0e be
       -0.12894619 0.07657024 0.12851395 -0.13899304
000110 60 65 0e 3e 74 f3 69 3a 50 1d 85 bb 5e 90 0e 3e
       0.13905859 0.0008924522 -0.004062332 0.13922259
000120 8a 55 94 3d 7b b5 06 3e 37 f1 be 3d eb 42 0d 3d
       0.07242878 0.13155167 0.09323352 0.034487646
000130 e0 1b 46 bd c6 91 0d bd c0 53 07 3e 17 ab 17 be
       -0.048366427 -0.03456285 0.13215542 -0.1481136
000140 a5 a5 84 bd 29 a9 17 be 48 b4 07 3e 01 af fb 3d
       -0.06476907 -0.14810623 0.13252366 0.12289239
000150 52 3a 21 be 6c 27 56 bc 02 c2 c8 bc d5 89 39 be
       -0.15744904 -0.013070922 -0.024506573 -0.18118985
000160 5f 18 1e be 66 ce 23 3e 33 31 40 3e 0b d7 19 3e
       -0.15438984 0.15996704 0.18768768 0.15023439
000170 95 bb 23 3e f4 ec dd bd 92 71 b5 bd 9d 40 54 bc
       0.15989526 -0.10836211 -0.088595524 -0.012954858
000180 e4 0e 07 3e 8a 52 3e be 16 10 53 3c 4b de 29 be
       0.13189274 -0.18586174 0.012882253 -0.16588704
000190 46 1c 1f 3d 8e 34 13 3e 61 cc 37 3c 81 2f a6 3d
       0.038845323 0.14375517 0.011218161 0.081145294
0001a0 eb 70 dc 3d ff b6 ab 3d f5 c6 f4 bd 09 e7 39 3e
       0.10763725 0.08384513 -0.119520105 0.18154539
0001b0 e5 bc 2d 3d 7b ca 1b be 6f fa 03 bd 6a ab 11 be
       0.042416472 -0.15213959 -0.032221254 -0.14225546
0001c0 2a a9 2a 3e cf c8 ef 3c 73 d3 1d bd 58 cf 81 bd
       0.16666093 0.029270558 -0.03853173 -0.06338376
0001d0 53 72 40 3c 80 ca 36 3d df b2 ad 3c c0 7d d7 3d
       0.011746007 0.044626713 0.021203456 0.10522032
0001e0 66 39 9f 3c 19 9a 14 3d e0 22 6f 3e f4 cc 20 be
       0.01943655 0.03627977 0.23353148 -0.15703183
0001f0 e9 34 43 3e b6 26 b8 bb 9d 94 eb bd fc 9c b3 3d
       0.19063152 -0.005619849 -0.11502955 0.08770177
000200 88 05 d9 bd 6f 31 cb bd 01 e3 10 3d f9 30 48 3e
       -0.10596758 -0.09921538 0.035372738 0.19549932
000210 7e 76 31 be d9 b6 1d 3e e6 89 f7 bd 0f 70 e3 3d
       -0.17330357 0.15401782 -0.12086849 0.11105358
000220 bf bd ef bd 2d d9 1a 3e 98 1a 24 be 93 ca 16 3d
       -0.11706113 0.15121908 -0.1602577 0.036814284
000230 15 25 3e be 6c 83 8d bd 5a 1d 18 3e c2 ed 40 3e
       -0.18568833 -0.06909832 0.14854947 0.18840697
000240 a6 5a 2a 3e 93 89 95 bd 94 0a 0a 3b 5c 1a 2b be
       0.16636142 -0.07301631 0.0021063434 -0.16709274
000250 5c 5c 15 be a9 2e f4 bd 2e 6d 3f 3d ff 1e 7b 3d
       -0.14586014 -0.11922962 0.04673498 0.061308857
000260 8d fa 36 3e 93 09 11 be 4e e1 f8 bd 9a 67 99 3c
       0.17869015 -0.14163809 -0.121523485 0.018726159
000270 f9 64 35 bd 72 8d 76 bd 8d be 77 3d 55 b0 e0 3d
       -0.04428575 -0.060193487 0.060484458 0.10971133
000280 2b 13 d1 3b 53 5c 3d 3e 35 63 0c bd 7b 3b bc b8
       0.006380459 0.1849225 -0.0342743 -8.975618e-05
000290 e2 59 96 3d 0a 75 28 3e f8 5f f1 bd 3a 8c 77 bd
       0.073413625 0.16450897 -0.11785883 -0.060436465
0002a0 5d 98 74 3d 14 3c a7 bd 65 a3 0c be 88 65 21 3e
       0.059715617 -0.08165756 -0.13734205 0.15761387
0002b0 a3 68 1d 3e 6b 6d e0 3d 70 d5 ba 3d 1c 67 7e 3d
       0.15371947 0.1095837 0.09122741 0.06211005
0002c0 a8 44 16 3d 79 fd 11 be f5 5c e9 bb 99 0f 05 be
       0.03668657 -0.14256848 -0.007121677 -0.12994231
0002d0 39 81 53 3e 64 7b 0b be 99 16 4a bd a6 8e 01 3e
       0.20654763 -0.13621289 -0.049337957 0.12652072
0002e0 52 12 c8 3d bb 0c ff bd 5f 62 0c bc ef 18 8d bc
       0.09769119 -0.124536 -0.008568375 -0.017223803
0002f0 f4 8a 5b bd 85 6b a6 3d d7 06 19 3d 59 13 16 3e
       -0.053599313 0.081259765 0.03736004 0.14655818
000300 58 8b e2 bc 27 13 ac 3b fe e8 37 be 73 1b ca bd
       -0.027654335 0.0052513066 -0.17959973 -0.09868517
000310 b9 67 d3 3d d2 20 f7 bc cb 53 99 3c 4a 07 e6 bd
       0.10322518 -0.030167017 0.018716713 -0.11231859
000320 33 4a f2 3d 4f 43 73 3d 32 01 19 be 9f 8e 4e be
       0.11830559 0.059390362 -0.14941862 -0.20171593
000330 1d 60 86 3d 39 c3 8e bd 6b 1c 04 3e 44 8f 5a bd
       0.06561301 -0.069708295 0.12901466 -0.053359285
000340 5f 23 9c bb 8d a4 81 3a db 2c a0 3c 91 61 c9 3d
       -0.0047649588 0.0009890959 0.019552639 0.098330624
000350 1e c0 7a be 68 2c 0b 3e 16 ce fd bc 1e ae 45 3e
       -0.2448735 0.13591158 -0.030982058 0.19304702
000360 a1 25 c8 3d b2 31 26 be 60 b7 1f 3e 8b 93 ea 3d
       0.09772802 -0.16229895 0.15597296 0.11453923
000370 15 68 47 3e 4f 3c cb 3d a5 30 61 bd 66 a2 2d 3e
       0.19473298 0.09923612 -0.05497803 0.16956481
000380 f8 2d 3d be 04 e5 21 3d 7a 04 a3 3c b2 01 43 3d
       -0.18474567 0.039525047 0.019899596 0.04760904
000390 0e a3 9c bd a0 9b 64 bd c5 26 28 be 0e 0e 13 3e
       -0.07648288 -0.055812478 -0.1642104 0.1436083
0003a0 40 ef 1b 3c 69 25 e6 bc 33 08 f7 bd ad 67 37 3e
       0.009517491 -0.02809401 -0.12062111 0.17910643
0003b0 2f e7 16 be 8d 07 4b be 5d 58 aa 3d 1d 8a 30 3e
       -0.14736627 -0.19827099 0.08317635 0.17240186
0003c0 7d 8f 19 be b6 83 0e be f4 3f d8 3d bc da 29 3e
       -0.14996143 -0.13917431 0.10559073 0.16587347
0003d0 b7 52 99 bd 27 cf c8 bd a4 e7 15 3d 2c 13 16 3d
       -0.0748648 -0.09805136 0.036597863 0.036639377
0003e0 0f a8 d8 3d 66 01 24 3e c0 14 33 be 86 75 97 3d
       0.1057893 0.16016158 -0.17488384 0.07395463
0003f0 88 84 03 3e 5a d9 fb bd f0 94 2f bc 78 cd d7 3d
       0.12843525 -0.12297316 -0.010716662 0.10537237

enc_conv0.bias f4 [16]
000000 2b 0d 81 bd 1d 08 ce bd 2a 92 1b be d3 f9 ac bd
       -0.0630134 -0.10060141 -0.15192476 -0.08446088
000010 53 8f 1d 3d 3e 89 b4 3d e5 8d 34 3e 74 b2 c3 bd
       0.038466763 0.08815239 0.17632253 -0.095555216
000020 4a 17 20 be 7c 92 d1 bd 50 6b 90 bd e6 0a d4 3e
       -0.15633884 -0.10233018 -0.07051718 0.41414565
000030 0c 9f 52 be 77 e9 d5 3d 6a ad 44 3e b4 dc 96 3e
       -0.20568484 0.104449205 0.19206777 0.29465258

enc_conv1.weight f4 [32, 16, 3, 3]
000000 c9 7f a0 bc 5e c9 52 3d b5 a0 73 3d 62 a7 8d bc
       -0.019592183 0.05146157 0.059479434 -0.017291728
000010 e9 22 cb 3a 5f fb 4e bd b9 f0 b8 bd db 7e 5b 3d
       0.0015498075 -0.050532695 -0.09030289 0.053587776
000020 f0 36 cb bd d4 08 9e bd 94 71 8c bd 68 d2 bf bd
       -0.09922588 -0.077165276 -0.06857601 -0.09366304
000030 55 dd 7e 3d 11 8a cb ba a6 68 3c bc 09 13 ad 3d
       0.062222797 -0.0015528818 -0.0114995595 0.08450896
000040 6f 61 98 bd 98 09 5c 3d ab b8 e9 bc 90 cc 9e 3c
       -0.07440459 0.053720087 -0.02853044 0.019384652
000050 f5 15 48 3d 9c 5e 0c bd a8 e1 a3 3d cf 9d 5b 3d
       0.048849065 -0.034269914 0.08002025 0.053617295
000060 9b 12 46 3d 81 ab 60 3d dd d1 1f 3d 4d 0a f0 bc
       0.048357587 0.05485106 0.0390185 -0.029301787
000070 b8 5e 66 3c e2 8e 81 3d 0e 92 88 bd c3 0e 98 bc
       0.014060669 0.06326081 -0.06668483 -0.018561726
000080 f2 06 5c 3d 02 72 a8 3c 1b c1 8f bb 24 13 8c 3d
       0.05371756 0.020562176 -0.0043870336 0.06839588
000090 30 5c 83 3c 5f cd 1e 3e d8 ba 3e bc 51 b9 c8 3d
       0.01603517 0.1550803 -0.011641227 0.09800971
0000a0 10 58 2e 3e 5a 54 cf 3c 17 0b 03 bc 4b f7 9a 3a
       0.1702578 0.025308777 -0.0079982495 0.0011822967
0000b0 c4 96 6c 3d fd 7a ff bc 73 33 c6 bd 27 9c 6c bd
       0.05776097 -0.031186575 -0.09677782 -0.057766106
0000c0 41 4a 5f bd 36 9d 3f bd a4 c0 01 bd 08 61 8c bc
       -0.054514173 -0.046780787 -0.031677857 -0.017136112
0000d0 f3 9f 33 3d 9c 05 bf bc 47 59 1b 3c 7a 5d 22 bc
       0.04385371 -0.023318104 0.009481735 -0.009909982
0000e0 e4 b9 40 3c d3 39 6c bd 5b b9 85 3d 30 71 d7 3d
       0.01176307 -0.057672333 0.065294944 0.10519636
0000f0 c7 72 9c bb 1a 1b 8d 3d 67 1a 15 3e 36 59 db bb
       -0.0047744247 0.06889935 0.14560853 -0.0066939844
000100 a7 db aa 3c 8b 63 37 3d ee f3 4a 3d 02 11 2a bd
       0.020856692 0.044772666 0.049549036 -0.041520126
000110 a0 7c 81 3d d4 a2 15 bd 08 00 b8 bb 45 2a c9 bd
       0.063225985 -0.036532238 -0.005615238 -0.098225154
000120 40 1d 34 bd ed d2 be b9 5c 83 26 bd 08 63 3d 3d
       -0.043973207 -0.00036396776 -0.040652618 0.04623702
000130 f3 d0 be bd fa 57 ce bd 98 88 6a bd e1 bd 98 bd
       -0.09317198 -0.10075374 -0.057259172 -0.074580915
000140 c0 a2 06 bd 6a 9a 35 3d 33 46 4a 3d 8e 13 71 bc
       -0.032870054 0.044336714 0.049383353 -0.014714135
000150 a6 bf 5c 3c 38 2e e9 bc 49 a8 61 3d e4 e5 c5 bb
       0.013473427 -0.028464422 0.05509213 -0.006039368
000160 07 89 c2 38 8d 48 87 bd 81 89 ac bd 0a 6f 13 3d
       9.276164e-05 -0.06605635 -0.08424664 0.035994567
000170 d6 71 5f bd d8 1b d3 bc 65 3b 28 bd 54 53 8d 3b
       -0.05455192 -0.025770113 -0.041072268 0.004312912
000180 d3 a6 1d bb 16 07 b7 3c ec 1e 53 bd b3 29 e1 3d
       -0.0024055734 0.022342246 -0.05154316 0.109942816
000190 09 81 d2 3d 94 23 ff 3d 3f e6 6e bd 06 83 26 bc
       0.10278518 0.12457958 -0.05832505 -0.010163074
0001a0 3f 44 25 bd bc 2f 94 bc 42 a7 80 bd 89 5e bc bc
       -0.040348288 -0.018089168 -0.06281902 -0.022994297
0001b0 4d 06 19 bb d7 a6 88 bd 15 5c 60 3c 58 39 5d bc
       -0.0023349703 -0.06672447 0.013693829 -0.013502441
0001c0 6b c1 74 bd 97 09 06 bd 59 b9 d8 bc 28 37 b8 bb
       -0.05975477 -0.03272399 -0.026455568 -0.0056218095
0001d0 d7 19 45 3d 11 d7 35 bc 9a cd 09 3c 36 6c 71 bd
       0.048120346 -0.011098639 0.008410836 -0.05894109
0001e0 28 dd e9 bc e7 cc 84 bd a5 e8 2f bd 0b e2 60 bd
       -0.028547838 -0.064843945 -0.042946476 -0.05490307
0001f0 fc 32 82 3c 78 a6 a7 bd 10 b6 e0 3d be 42 1f 3d
       0.015893452 -0.08186048 0.10972226 0.03888201
000200 f4 ac 27 bd b5 2e 79 3d 9d b4 c8 3d af e4 b6 3c
       -0.040936425 0.06083556 0.09800074 0.022325842
000210 bd cc 8b bc 71 d7 5c bc 44 4a a3 bc 4e 56 10 3b
       -0.0170654 -0.0134791 -0.019932874 0.0022024098
000220 18 40 f1 bc 46 91 82 bc 89 28 c9 bd 91 da 16 bd
       -0.029449508 -0.015938412 -0.098221846 -0.036829535
000230 2c 2c 6c bd e2 8a 87 3c 1f 63 06 bd 4d c7 f0 3c
       -0.057659313 0.016545717 -0.032809373 0.029391909
000240 19 2f 93 3d 1e 98 35 3d a6 99 34 3d 21 0e d0 bc
       0.071867175 0.044334523 0.044091843 -0.025397362
000250 19 70 51 3b 0b 3a 31 3d 1d d2 e5 bc 0b d1 84 bd
       0.0031957685 0.043268245 -0.028054291 -0.06485184
000260 3c 92 cd 3c bf 37 91 3d 81 dc 85 3d 50 55 93 bd
       0.025094144 0.07090711 0.065361984 -0.071940064
000270 e0 86 10 bb 27 24 03 3c 04 a9 4e 3c 63 61 89 3c
       -0.0022053048 0.008004225 0.012613539 0.01677007
000280 df 77 5e 3d e7 5b 38 3d 27 74 24 3d 18 da 66 3d
       0.054313537 0.04500952 0.040149834 0.056360334
000290 76 0f e8 bc 15 4b 34 3c a4 00 5d 3d 65 23 34 3d
       -0.028327685 0.011004229 0.05395569 0.043979067
0002a0 d0 c3 fc 3c 7b 91 87 3d af a2 89 3c 90 b5 6f 3d
       0.03085509 0.06619545 0.016801206 0.05852276
0002b0 d8 92 b2 3c 38 bc e7 bc 20 42 1c 3d 16 de 1b 3d
       0.021798536 -0.028287992 0.038149 0.038053595
0002c0 59 03 1e bd e7 dc 48 bd 56 8d 12 3c 6a 21 8f bd
       -0.03857741 -0.049038794 0.00894483 -0.06988795
0002d0 3e 6d be bc 49 4c bd 3c 58 9e a4 bc 63 3b c0 3b
       -0.02324545 0.023107665 -0.020095035 0.0058664544
0002e0 e6 97 d2 bc e8 88 18 bc 60 42 11 bd a8 65 00 3d
       -0.025707196 -0.009309985 -0.03546369 0.031346947
0002f0 38 c1 b9 3c bb d5 4b 3d 91 60 4f bd cf 05 17 bd
       0.022675142 0.049764376 -0.050629202 -0.036870774
000300 b5 3e 46 3d 50 80 94 bd 03 e7 db 3c 46 e7 fc bb
       0.048399646 -0.07251036 0.026843553 -0.0077179996
000310 bc 92 30 bc 97 f8 db 3b b8 ef 85 bd 63 85 06 bd
       -0.010777172 0.006712984 -0.06539863 -0.03284205
000320 87 25 d1 bd 34 5f 43 bd 59 ac a4 bc b1 af f4 3c
       -0.10212236 -0.047698215 -0.020101713 0.029868932
000330 6c 10 b9 bd b7 3d 9d bd a7 ba a3 3c d3 09 3a bd
       -0.09036335 -0.07677787 0.019986464 -0.045419525
000340 b1 1a 64 bc ae 30 c8 3c 66 eb 10 bc b2 96 a1 bc
       -0.013922379 0.024437275 -0.008845186 -0.019725177
000350 13 7e 76 bd 97 c2 33 3d db 34 bd bd 5f ef c8 bd
       -0.060178827 0.043886747 -0.09238597 -0.098112814
000360 91 ec 88 bd 9a 3f a6 bc 71 ce 19 bd f2 81 61 3d
       -0.066857465 -0.020294 -0.037550393 0.055055566
000370 75 08 83 bd 2e f7 60 bd 87 05 92 3c c7 f2 d4 3d
       -0.063980974 -0.05492323 0.017824901 0.103978686
000380 8c 3c a0 3d 03 69 60 3b 2a 63 71 bd 8e 65 d0 bc
       0.078240484 0.003424228 -0.05893246 -0.02543905
000390 c0 8c 04 bd 39 38 77 bc e1 6f 29 bc d7 b9 9d bd
       -0.032360792 -0.015089088 -0.010341615 -0.07701462
0003a0 d4 4f 05 3d 01 0b 25 3d 67 4b f9 3c d1 df 38 3d
       0.032546833 0.040293697 0.030431462 0.045135323
0003b0 6b ca 66 bd 02 9a 99 ba a2 1d 8b 3d ad ba ae bb
       -0.056345385 -0.0011718872 0.067927614 -0.005332312
0003c0 39 de 84 bd 6f 0a dd bc 6d 99 85 3d 89 d8 8e bd
       -0.06487698 -0.026982514 0.06523404 -0.069748946
0003d0 2b c6 9a bc b3 6e cb bc 67 0e 0f bd dd 7e 3d 3c
       -0.018893322 -0.024833059 -0.034925845 0.011565891
0003e0 9d 84 06 bd 8b a5 b6 bc 8b a4 0b bd 1e 07 8a bd
       -0.032841314 -0.022295734 -0.034092467 -0.06739639
0003f0 f0 b5 21 bd 59 8e 0e 3d d0 b8 80 b9 8e 62 ae bc
       -0.03948015 0.034803722 -0.00024551759 -0.021287229

enc_conv1.bias f4 [32]
000000 fd 23 a9 3b a2 15 bf bd d0 33 e3 3d af bb d7 3c
       0.005161761 -0.09330298 0.11093867 0.026334612
000010 19 09 50 3d a8 5a e4 bb 45 04 26 3c b6 e1 8b 3d
       0.050789926 -0.006968815 0.010132854 0.0683016
000020 01 76 58 3c 97 d8 16 be 88 f5 a6 3d 22 70 04 3d
       0.013211728 -0.1473106 0.081523 0.0323335
000030 22 b7 67 bc 3c ad 72 bd 91 be 4f 3d 79 28 59 bd
       -0.014142783 -0.05924724 0.050718848 -0.053017113
000040 f8 d9 90 3b 5c c3 a0 bd 7d 6d 8c 3c e6 88 00 bd
       0.004420515 -0.07849762 0.017142052 -0.031380557
000050 77 7d 9d bc c9 ff df 3d 4e 99 9c 3e 2e 91 46 3c
       -0.019224865 0.10937459 0.30585712 0.0121195745
000060 98 41 ce bd 11 3a ae 3d 40 53 54 bc ef a1 4e bd
       -0.10071105 0.08507169 -0.0129593015 -0.0504474
000070 31 1f 8e 3c e0 7a 4e bd f1 20 26 bd 88 2c 6d 3c
       0.017348858 -0.05041015 -0.04055876 0.014475949

enc_conv3.weight f4 [32, 32, 3, 3]
000000 db c7 d1 3d 76 3f 92 3d bf 2d 71 bd 75 5b c7 bc
       0.102431975 0.071410105 -0.058881517 -0.024335602
000010 06 29 8d 3c fe f5 07 3d 2b 04 fe bd b1 9f c0 3c
       0.017231476 0.03319358 -0.12403139 0.023513647
000020 d9 68 72 3b 3c f2 d6 3c f9 bc f4 3c 39 40 24 bc
       0.0036988764 0.026238553 0.029875265 -0.0100250775
000030 f8 bf 3e bc 20 3d 0b 3d 69 3b b8 3b d8 ac 1a bd
       -0.011642449 0.03399384 0.0056223166 -0.037762493
000040 32 38 04 3d 94 e3 de bc ed 21 22 bd c3 03 a8 3d
       0.032280155 -0.027208127 -0.039583135 0.082038425
000050 85 a8 c3 3d de 3c 1e 3d 14 2c f0 3c aa d9 71 bc
       0.09553627 0.038632266 0.029317893 -0.014761368
000060 60 71 83 bc 07 c0 57 3d e8 bc 4f bc 26 c3 ee 3d
       -0.016045272 0.052673366 -0.012679316 0.11658315
000070 8a 6b fb 3d bc 86 da 3c d8 c9 31 be 0e c6 f7 3c
       0.12276371 0.026675574 -0.17362154 0.030245807
000080 98 a0 80 3c 3f b8 c1 39 a4 e7 1f be 08 74 e7 bd
       0.015701577 0.00036949103 -0.15615708 -0.11301428
000090 98 69 eb bc be 3d 6c 3c 13 27 a4 3d c7 1d eb bc
       -0.028736874 0.014419017 0.08015265 -0.028700722
0000a0 cb b0 11 3d f2 d7 9c bc 70 e1 bb 3c 5c 0e 80 39
       0.035568994 -0.01914594 0.022934645 0.0002442476
0000b0 1d 4b 11 3d d2 dd 09 bd 9a 23 d5 3c 7f e1 50 bb
       0.035472024 -0.03365881 0.026017953 -0.0031872687
0000c0 22 ff 8c 3c b0 eb 40 bd 8c 6e 9d bc c5 77 46 3b
       0.0172115 -0.04709977 -0.019217752 0.003028379
0000d0 c0 2b 06 be 9b 82 b5 bd 42 04 9a 3d 0a 0f 53 bd
       -0.13102627 -0.08862802 0.07520343 -0.051528014
0000e0 11 59 dd bb bc 02 1b bb 40 f2 42 bd 8d 9f 5a 3d
       -0.0067550023 -0.0023652753 -0.04759431 0.053374816
0000f0 d1 59 6c bd a7 a5 a9 bc 7b 60 61 bd 17 07 f5 3d
       -0.057702843 -0.020708872 -0.05502365 0.11964243
000100 67 70 c6 3c 32 b2 bd 3d f2 05 77 ba ee 15 53 bd
       0.02422352 0.09262504 -0.0009423188 -0.051534586
000110 cc 24 4c 3c 6e c1 e0 3d 2b 8c 91 3c aa 33 a3 3d
       0.012459945 0.10974394 0.017767033 0.079688385
000120 e8 a7 0b 3d 5d 11 7b 3c 68 c1 be bc f2 ae 92 3c
       0.034095675 0.015323964 -0.023285583 0.017905686
000130 3e 00 63 bd 32 69 f4 bc f1 86 35 bd bc b5 ae 3b
       -0.055420153 -0.029835317 -0.044318143 0.005331723
000140 8b c5 57 3d c0 b0 31 bd c6 7a 10 be f5 f0 26 bd
       0.052678626 -0.043381453 -0.14109334 -0.04075714
000150 e7 59 cc bd c7 e9 d3 3b 60 83 d6 bc 6a 14 59 3d
       -0.09978085 0.0064670774 -0.026185691 0.052997984
000160 9f 18 7a bd 01 55 c0 bd d0 a3 a5 bc 58 ad ab 3c
       -0.061058637 -0.09391213 -0.020219713 0.02095668
000170 f4 f6 b2 3c c9 51 ca 3c 73 de 20 bd f5 61 f2 bc
       0.021846272 0.024697201 -0.039274644 -0.029587725
000180 fa 51 8f bc 43 c1 4c bd aa 10 b0 bb 53 25 a2 3c
       -0.017495144 -0.049988996 -0.0053730803 0.019793188
000190 0d 50 b3 3c 6d 91 0b bd 81 c7 7f 3d 5c de 65 bd
       0.021888757 -0.034074236 0.06244612 -0.05612026
0001a0 7c 5b 90 bc d1 8d 2f 3c 52 e2 3b bd 9b 62 d1 3c
       -0.017621748 0.010714964 -0.045870133 0.025559714
0001b0 0b fb 09 3d 0e 53 6a 3b a7 a1 a7 bc fb 17 bc bb
       0.03368668 0.003575507 -0.020462824 -0.0057401634
0001c0 69 54 e0 3b d4 5b 49 bd e8 70 16 bd 80 05 0f 3d
       0.006846 -0.04915984 -0.03672877 0.034917355
0001d0 51 24 38 bd d1 e5 7a bd f4 ec 7c bd 08 fb 7b bc
       -0.04495651 -0.061254326 -0.061749414 -0.015379675
0001e0 72 b6 2c 3d f7 cc da 3c 4f eb be 3c fe d1 11 bc
       0.04216618 0.026709063 0.023305563 -0.008900164
0001f0 31 eb 95 bb 11 49 a0 3c 37 f3 5b bd c3 52 54 bd
       -0.004575156 0.01956609 -0.053698745 -0.05183674
000200 ed 28 55 bd 47 c0 46 3d 44 2e 8d bd cd 01 1b bb
       -0.052040983 0.048523214 -0.0689359 -0.0023652196
000210 3f 1e 79 bd b1 02 e3 3b fe 5b 95 bd 04 4f c3 3b
       -0.06081986 0.006927811 -0.07292937 0.005960347
000220 91 6e 82 bc f2 52 df 3d 90 77 5b 3d 1b c0 04 3d
       -0.015921863 0.109044924 0.05358082 0.03240977
000230 98 cd 4d bb 29 7c cc bc 7c 41 54 bb 70 bb a6 bc
       -0.003140306 -0.024961548 -0.0032387665 -0.020353049
000240 a1 16 8b 3d 94 ed fc 3c e4 94 47 bc ae 34 5f bd
       0.067914255 0.030875005 -0.012181494 -0.0544936
000250 d9 18 b4 3c 93 bb d7 bc b6 a3 38 bc 4a 0d 4b bd
       0.021984505 -0.02633456 -0.0112695005 -0.04957322
000260 83 39 9f 3c 5f 0c 19 bd b0 49 45 3d 58 6d 69 bc
       0.019436603 -0.037365314 0.048165977 -0.014247261
000270 9c 90 71 bd e2 15 d6 bd ff 0d 39 bc 2b e6 97 bc
       -0.0589758 -0.104533926 -0.011294841 -0.01854237
000280 43 d0 a7 bc 26 89 9b bc c2 fe 49 3d 32 68 17 bd
       -0.02048505 -0.018986296 0.04931522 -0.036964603
000290 9c 8a cb bc 7b 28 26 3d 09 2c 3d 3d 4b 8f b1 bc
       -0.024846368 0.04056595 0.046184573 -0.021674773
0002a0 75 41 75 bb b5 f9 54 3d 01 84 24 3d 3d e7 32 3d
       -0.0037423049 0.05199595 0.04016495 0.043677557
0002b0 15 21 9d bc 80 5f 32 bd 9d b4 76 bd 8b b6 87 bd
       -0.019180814 -0.043548107 -0.06023084 -0.06626614
0002c0 2b 46 86 bd 63 67 81 3c 2c 5f a7 bd f5 32 d9 3c
       -0.06556352 0.015796369 -0.081724495 0.026513556
0002d0 3b 4d 1b 3b 0b ce 7e 3d cc a4 0f 3d 7e 8d 61 3d
       0.0023697156 0.062208217 0.035069272 0.055066578
0002e0 50 e9 c9 3a 92 d2 db bc 07 10 3d bc 0a 18 c8 3c
       0.0015404616 -0.026833806 -0.011539466 0.024425525
0002f0 73 0d 16 3d e3 78 13 bd cf 46 c6 bc 66 cd 75 bc
       0.03663392 -0.03600396 -0.024203686 -0.015002584
000300 93 43 e8 3b ba c6 c5 3c 74 e5 f5 bc 75 90 81 bd
       0.0070881336 0.024142612 -0.030016638 -0.06326381
000310 0d 63 e0 bc f3 79 dd bd d0 23 1f 3d ca aa a8 3d
       -0.027390981 -0.108142756 0.038852513 0.082357004
000320 b4 93 79 3d 6a 1e 4c bc 10 88 51 bc 87 0d fa bb
       0.060931876 -0.012458423 -0.0127887875 -0.007631007
000330 e8 9e 20 bc 84 68 c1 bd d8 f8 49 3d 74 51 4e 3d
       -0.009803511 -0.09443763 0.04930958 0.05037065
000340 55 00 2f 3d ac ed 39 bd ef 39 69 bc b0 52 90 3d
       0.042724926 -0.045392677 -0.014235004 0.070470214
000350 b5 c1 29 3c d2 e4 63 bc 7c 2b 59 bd 7f 8f 90 bd
       0.010361125 -0.0139095355 -0.053019986 -0.0705862
000360 d0 52 52 bd 04 2f 87 bd 09 14 98 bd cc 4b cd bd
       -0.051348507 -0.066007644 -0.074256964 -0.10024223
000370 63 0b a2 bd 42 1a 25 be 2f 18 89 bd b5 b3 0a bd
       -0.07912328 -0.16123298 -0.06694066 -0.03386279
000380 67 c0 60 bc 3c e1 63 3d 55 86 42 3d bf 67 65 3d
       -0.013717747 0.055634722 0.04749139 0.056007143
000390 2c 34 13 bd 3e dc 33 3d 9a c8 60 bd b9 2f c1 3c
       -0.035938427 0.04391121 -0.05487881 0.023582326
0003a0 d7 71 3e bd 0f 36 d9 bc 2c 8c 11 3d 15 6e bb 3c
       -0.046495285 -0.026515035 0.03553407 0.02287964
0003b0 30 de 69 3d c7 85 6c 3d 39 27 de bc d2 88 c2 bc
       0.05709666 0.057744768 -0.027118312 -0.023746882
0003c0 e6 e6 24 3d 18 e7 37 3d 54 69 88 3d 7a 62 0c 3d
       0.040259264 0.044898123 0.06660715 0.034273602
0003d0 6b ac d9 3d c2 73 a2 3c 35 59 5a bc 34 bc 1c bd
       0.10628589 0.019830588 -0.013326933 -0.038265422
0003e0 44 ef ff 3b 0e c3 6e 3d c9 40 0c 3d 42 ed 26 bc
       0.007810505 0.058291487 0.03424147 -0.010188403
0003f0 01 10 ac 3c a6 a7 bb 3d 4d 07 51 3c f2 d9 10 3c
       0.021003725 0.09162836 0.012758088 0.008841025

enc_conv3.bias f4 [32]
000000 69 ee 31 bb c9 6c 45 3c ee b5 52 3d 93 2f 9b 3d
       -0.002715016 0.012049862 0.051443033 0.075774334
000010 58 8b 4c 3d 27 3d 30 bd f1 48 fe bc a3 ee 2d 3d
       0.049937576 -0.04302707 -0.03104064 0.04246391
000020 1a 36 94 3c 89 72 cf bb 7f 62 a7 3c 8c 7f ea 3d
       0.018092204 -0.0063307923 0.020432709 0.11450109
000030 93 b7 b5 3d 03 74 af 3d c0 41 cc 3c 43 d5 bd 3d
       0.08872905 0.08567049 0.024933696 0.09269192
000040 0b ab 33 3d 02 64 be bc 78 38 1a 3d 22 fc 3c bc
       0.04386429 -0.023241047 0.03765151 -0.0115347225
000050 3f e7 f2 bb a1 5c 02 3d 2d 23 cb 3d eb db ac bd
       -0.0074128206 0.03182662 0.099188186 -0.084403835
000060 ef 12 95 3b 5e 66 8a ba 20 4a aa 3d 56 3f 93 3d
       0.004549376 -0.0010559072 0.083149195 0.07189815
000070 9b 8e 0b bd f8 54 24 bd bf 37 17 3d 4e 31 b0 bc
       -0.034071546 -0.040120095 0.036918398 -0.021507885

dec_conv2a.weight f4 [64, 64, 3, 3]
000000 05 85 ce bc ce a3 8d 3d 14 20 2c 3c 5b 2a 45 3d
       -0.025209913 0.06916009 0.010505695 0.048136096
000010 39 09 a3 3d 3a fb 1d 3d 14 6c c7 bb 6d 57 28 b8
       0.079607435 0.038569666 -0.006085882 -4.0135743e-05
000020 e7 46 17 bc 92 ab 71 bc e7 22 14 bd 48 3b e1 3c
       -0.009233213 -0.014750378 -0.036166098 0.027494088
000030 a1 48 4c bd 4d 42 5d bd f5 7c b2 bc 0a 71 30 bd
       -0.04987395 -0.054018307 -0.0217881 -0.043076552
000040 05 74 31 bd ae a2 33 bc 99 f1 1a 3c 1a 83 89 3c
       -0.043323535 -0.010964079 0.009457015 0.016786147
000050 b8 9f 0e bc 56 17 0e 3d fd 06 28 3d ba 1e f7 3c
       -0.008705072 0.034690224 0.04102229 0.030166019
000060 8c 1e 78 3c a2 5a 1f bc 50 a9 0d bd 03 45 06 bc
       0.015144002 -0.009726198 -0.034585297 -0.008195165
000070 e8 35 8a bc 49 74 06 bb ca 5b c0 3b 82 3d 42 3d
       -0.016871408 -0.0020516089 0.005870317 0.04742194
000080 37 ce 7b bc bb cd 0a 3b 8f 81 2b bd c8 08 a3 3c
       -0.01536899 0.0021179754 -0.041871604 0.019901648
000090 b8 6e 3e 3c df d3 16 bd 02 11 e7 bd 0f 50 d9 3c
       0.011623077 -0.03682315 -0.11282541 0.026527433
0000a0 b9 1e c6 bd a5 08 b1 bd 15 26 b5 bc 20 15 3d 3b
       -0.09673829 -0.08644227 -0.022112885 0.0028851703
0000b0 ff 2c db 3c 4d 08 09 bc d5 7a 1b 3c eb 48 8c 3c
       0.026754854 -0.0083637955 0.009489735 0.017124614
0000c0 ea ef d2 3c b3 3f 09 bd 6d 42 fa 3a 89 c1 6f 3c
       0.025749166 -0.033508014 0.0019093283 0.014633545
0000d0 f5 19 cf bc cd a2 25 3b f9 41 07 bd 66 ad 24 3d
       -0.025280932 0.0025274039 -0.0330219 0.040204428
0000e0 40 94 2d bd 5f 31 69 3a 46 35 80 3c 35 94 4b 3c
       -0.04237771 0.00088956015 0.015650403 0.012425472
0000f0 62 8c 33 bc 41 ad 37 3c cf b8 2e bc ce e1 c1 bc
       -0.010958763 0.011210741 -0.010664179 -0.023667242
000100 92 45 ea bc 1b fd 69 bb b5 31 68 bb 4b 83 01 bc
       -0.028597627 -0.003570384 -0.0035430018 -0.007904838
000110 45 5b 18 bc b9 34 a2 bc cf 2d 01 3d 15 92 1d 3d
       -0.009299104 -0.01980053 0.031537827 0.038469393
000120 a0 b3 0b 3d d5 60 14 bc 7c 7a 0f 3c a2 50 2a bd
       0.03410685 -0.00905629 0.00875723 -0.041580804
000130 d3 b4 08 3d 6a 45 a0 3c 9f e4 34 bb a9 3e f4 bc
       0.033375572 0.01956435 -0.002760209 -0.029815035
000140 ed 3d 15 bd c0 5f 96 3c be e4 0e bc 99 d7 e5 3c
       -0.03643601 0.018356204 -0.008721529 0.028056907
000150 24 ae aa 3b 9b 43 eb 3c 69 3b 1b bd f7 ec 23 3d
       0.0052087475 0.02871876 -0.037898455 0.04002091
000160 da cc 35 bd 1e 04 08 bd ff 32 f2 bb 8d 0b 86 bc
       -0.044384815 -0.03320705 -0.007391333 -0.01636293
000170 14 0c 70 3c 86 18 20 3d 05 22 a7 3c a6 44 15 3c
       0.014651317 0.039085887 0.020401964 0.009110605
000180 3b 82 a6 bc 2b 84 7c 3c 29 a4 07 3c 96 f4 e0 ba
       -0.02032577 0.015412371 0.008278885 -0.0017162736
000190 b6 1e ad 3c 62 1c 6d bc 19 7d 8f 3b 76 fb 3b 3c
       0.021132808 -0.014472099 0.0043789265 0.011473527
0001a0 9d f3 a1 bc 05 be 1a bc 0d ec b2 3b 86 b0 50 bd
       -0.019769484 -0.009444718 0.0054602684 -0.050949596
0001b0 7c 6e 05 3d f3 75 46 39 7a 94 77 bd 82 bb 28 3d
       0.03257607 0.00018926691 -0.060444333 0.041194446
0001c0 38 06 66 3d 74 23 d3 bb c9 12 92 3b de 43 19 3c
       0.056158274 -0.0064434353 0.004457806 0.00935456
0001d0 61 c5 02 bd 4c 60 89 3b b9 7a 55 3d 3a 41 de 3c
       -0.031926516 0.0041923877 0.05211899 0.027130712
0001e0 0d c6 ad 3c 0b 77 19 bc 33 cf 65 bd 64 b4 d3 bb
       0.021212602 -0.009366761 -0.056105804 -0.006460713
0001f0 4e fa c1 3c ff 52 89 bd 7a 15 22 3a ca 5e a4 3c
       0.023678925 -0.067052834 0.000618301 0.02006473
000200 ab cc 6a 3c 5e d4 ad 3b 5b 99 70 3b 0b 33 97 3b
       0.014331023 0.005304857 0.00367125 0.004614239
000210 9b a6 2c 3c 2f 7d 82 3c a6 59 37 bd 2a 49 38 bd
       0.010537769 0.015928833 -0.04476323 -0.04499165
000220 5f ac e8 bc 53 88 36 bc 84 f5 d7 bc 16 6a 34 bd
       -0.028402505 -0.011140901 -0.026362188 -0.044046484
000230 17 88 94 bc 62 30 cd bc 09 76 a9 3a b8 05 18 3d
       -0.018131299 -0.025047485 0.0012928854 0.03711483
000240 d6 20 86 bc fa 11 01 bd 50 cd 07 bd d7 52 d1 bc
       -0.01637308 -0.031511284 -0.033154786 -0.025552196
000250 5d 67 84 3d a3 b4 15 bd db 69 bc ba e7 64 f5 bc
       0.064650275 -0.03654922 -0.0014374809 -0.02995534
000260 68 4a 04 bd a0 22 af 3c 83 af 99 ba 8e bb ae ba
       -0.03229752 0.021378815 -0.001172528 -0.0013331042
000270 5a ef 0c 3d 8a 5f a0 3c 44 e7 8a bd df 15 86 bb
       0.03440795 0.019576807 -0.06782392 -0.0040919627
000280 ba 6b 13 bd b2 3d 9a bc 68 99 da 3c c9 77 76 3d
       -0.035991408 -0.018828247 0.026684478 0.06017283
000290 7f 7c dc bc 00 36 23 bd 21 1f 45 3d 3f 5b ca bc
       -0.026914833 -0.03984642 0.04812539 -0.024701713
0002a0 44 e6 ac 3a a9 d9 6a 3d 39 88 5f bc 87 87 01 bd
       0.0013191183 0.057336483 -0.013643318 -0.03162339
0002b0 ee 09 62 bc db 9d ed bc 5a 72 3a bd 93 b9 c6 bc
       -0.013796313 -0.029005935 -0.04551921 -0.02425841
0002c0 c4 b5 d0 3b 07 b3 46 bd ea 90 8d bc ab a2 99 bb
       0.0063693244 -0.048510578 -0.017281014 -0.004688581
0002d0 a4 f4 7e 3d 66 08 25 3d 5e e7 68 3c 75 bb e0 3a
       0.062245026 0.040291212 0.0142153185 0.001714571
0002e0 61 1c 30 bc 3b 4c 95 3c db 65 92 3c ef f0 45 3c
       -0.010748954 0.018224826 0.017870834 0.012081369
0002f0 6e 5d 98 bb e5 3c 22 3d 89 79 91 3c 9a 4b b3 bb
       -0.0046498096 0.039608855 0.017758148 -0.005471659
000300 b1 e6 3b bc 59 e4 5f 3c a7 b3 25 3d 80 79 f3 bc
       -0.011468575 0.013665282 0.040454533 -0.029721022
000310 be f3 30 3d 09 ce c3 3c 22 4a 83 bb c2 39 45 3b
       0.0432012 0.023901956 -0.00400664 0.003009424
000320 7c de 9d bb 69 4c 37 bc ac 64 8d bc 5c a9 df bc
       -0.004817782 -0.011187651 -0.017259918 -0.027302437
000330 51 05 14 bc e9 9c 4c bd e0 70 64 3c 1e 23 92 3c
       -0.009034471 -0.04995433 0.013942927 0.01783901
000340 65 e1 7e 3b a1 ab 8c 3c 7d a0 5c 3d bf 16 f2 3c
       0.003889167 0.017171683 0.05386399 0.029551862
000350 fe 0a f1 3c 48 4d 2e 3d 77 ec 19 3c b1 ae 46 bc
       0.029424187 0.04255417 0.0093947565 -0.012126611
000360 29 46 dd bc 2e 9e bc 3c bd 17 c3 bc 1b b3 d5 3d
       -0.027010994 0.023024645 -0.02381503 0.10434552
000370 ab 01 72 3d d2 48 9b bb ac 74 7f 3d 28 9d 3a 3d
       0.059083622 -0.0047389055 0.062367126 0.045560032
000380 6a b6 40 3c 2a df 88 3c cf 94 1d bd 89 b9 0f 3d
       0.011762241 0.016707975 -0.038471993 0.03508905
000390 2f ad 8e 3a d4 fa ce bb a3 4a 28 3b f9 f0 2a 3c
       0.0010885353 -0.006316522 0.0025679253 0.010433429
0003a0 ea 35 26 bd f1 8d d2 bb 17 16 9d 3c c8 d5 25 3d
       -0.04057876 -0.006425612 0.019175572 0.04048708
0003b0 fc 70 a3 bc 44 d7 e8 3b a4 95 af bb 1f e0 b8 bc
       -0.019951336 0.00710574 -0.0053584147 -0.022567807
0003c0 0a cf 1d 3d b5 ac 6d 3b d4 d4 0b bd d6 d4 ab 3c
       0.038527526 0.0036266271 -0.034138516 0.020975512
0003d0 21 dc 90 3c 25 e7 29 bc 92 b2 92 bc 45 e3 4a bc
       0.01768309 -0.010370051 -0.017907415 -0.012383287
0003e0 de 42 7f 3c 91 76 91 bc 33 77 1c bc 61 1f 76 b9
       0.015579907 -0.017756732 -0.009549904 -0.00023472078
0003f0 26 c0 e8 3c b7 3a 19 3c 9a 83 38 3c e0 ed 22 3c
       0.028411936 0.009352378 0.011261845 0.009944409

dec_conv2a.bias f4 [64]
000000 61 8c 99 3c b0 21 75 3d 0b 25 33 3d 26 fe 47 3d
       0.018743696 0.05984658 0.0437365 0.04882636
000010 91 9d 71 3d b9 f5 84 3c ff 51 dc bc f8 8e c7 3c
       0.058988158 0.016230451 -0.026894568 0.024360165
000020 b9 53 a4 3d 6d 64 0f ba f3 2d 1a bc a7 72 fe 3c
       0.08023781 -0.00054699817 -0.009410369 0.03106053
000030 1f 37 bd 3d e6 42 2e 3d 3c 62 25 3d 77 73 a0 3b
       0.09239029 0.042544268 0.040376887 0.004896577
000040 39 42 a0 bc fe 5c 1e 3d 20 97 7b 3d 2b f0 e6 bc
       -0.019562827 0.038662903 0.06142342 -0.028190693
000050 60 f4 28 3d 40 e8 b2 3c 3a 38 5d 3d ec 76 a9 bc
       0.04124868 0.021839261 0.0540087 -0.02068659
000060 23 68 0e 3d c0 1e 85 3d ea 0d 42 3d 57 03 ac ba
       0.03476728 0.06500006 0.04737655 -0.0013123554
000070 4f 14 3f 3b f8 21 8b 3c f2 63 88 3d 7b 2e 54 3d
       0.0029156392 0.016983971 0.06659688 0.05180214
000080 27 b3 3a bb 80 ca 89 3d 80 7b ee 3c e3 ae 8b 3b
       -0.002848813 0.06728077 0.029111624 0.0042627915
000090 c5 21 2f bc e9 d5 98 3c 28 49 8d 3c d7 4e ac 3d
       -0.010689204 0.018656688 0.017246798 0.08413475
0000a0 c5 04 91 3d b8 e1 48 3d 4c 23 4f bc 3f 1a 05 bd
       0.07080988 0.049043387 -0.012642693 -0.032495733
0000b0 a1 2d 12 bd d1 5a 48 3d e0 6a 0f 3d df 82 dc bb
       -0.035688046 0.048914734 0.035014033 -0.0067294682
0000c0 1d a5 b1 3c cb 35 20 3d 89 e3 1c bd 25 31 96 3b
       0.021685177 0.0391138 -0.038302932 0.004583495
0000d0 83 be 85 bd c9 99 2e 3d ea d1 b8 bd 55 cc b8 3d
       -0.06530478 0.04262713 -0.09024413 0.09023348
0000e0 87 e2 61 3d 16 33 17 3d 39 5b 0c 3c 85 65 aa 3d
       0.055147674 0.036913954 0.008566671 0.083201446
0000f0 69 fd 22 3d 98 ea 95 3c 6c 98 03 3d 02 20 fe ba
       0.039792452 0.01830034 0.032127783 -0.0019388201

dec_conv2b.weight f4 [64, 64, 3, 3]
000000 20 07 a0 3c a0 07 7c bc 38 46 a0 3b 76 e4 cb 3c
       0.019534647 -0.015382677 0.004891183 0.024889212
000010 82 e4 b6 3c 80 e1 1c 3b 8c 64 69 bc c5 ac 28 3d
       0.022325758 0.002393812 -0.014245164 0.04118039
000020 5c ed 4e bc 40 61 4b bb 30 02 29 bd 24 e9 53 3c
       -0.012629833 -0.0031033307 -0.04126185 0.012934003
000030 10 8c 9e bc ac 0b 16 bc 80 57 3a 3b 6e 97 da bc
       -0.019353896 -0.009158056 0.0028433502 -0.026683535
000040 96 50 b9 bc 7a dd a1 3c c0 a0 33 3c 5b 61 81 bc
       -0.022621434 0.019758929 0.010963619 -0.015793493
000050 d9 09 0e 3d b0 20 3b 3b 70 0d 30 bb 62 75 d6 3c
       0.03467736 0.0028553419 -0.0026863478 0.02617902
000060 1d 18 23 3d c0 d9 56 3b 4c 3e 16 bc 58 3d a3 bc
       0.039817918 0.0032783598 -0.009170126 -0.019926712
000070 cd 5f 29 3d a0 fe b8 3b a0 b8 7d bc d6 46 f9 bc
       0.04135113 0.005645588 -0.015485913 -0.030429285
000080 4b a0 e7 bc c8 d5 dd 3b 60 b0 7b bc 4d 67 02 3d
       -0.028274676 0.0067698695 -0.015361875 0.031836797
000090 7b 4e 23 3d 00 ab 1e ba d7 80 14 bd 03 13 01 3d
       0.039869767 -0.00060527027 -0.036255684 0.03151227
0000a0 da db 93 3c 16 a0 27 bd 08 91 08 bd 46 02 91 3c
       0.01804917 -0.040924154 -0.033341438 0.01770128
0000b0 fc a8 79 bc ec 1b 22 3c f2 b4 c6 3c a3 31 d4 bc
       -0.015238043 0.009894352 0.024256203 -0.025902575
0000c0 44 57 41 3c e1 10 29 3d 7b 50 14 3d 66 ad a6 3c
       0.011800591 0.041275863 0.036209565 0.020346355
0000d0 f0 d7 58 3c 49 ee 19 3d 16 3a 75 bc 2c 98 07 3c
       0.013235077 0.037580762 -0.014967462 0.008276027
0000e0 32 a7 05 bd b3 fe 86 bc 00 23 39 bc 86 75 c8 bc
       -0.032630153 -0.016478872 -0.011299849 -0.024470102
0000f0 00 05 75 3b 78 57 8f 3b f5 74 07 3d 3a 7a f3 3c
       0.0037387013 0.0043744408 0.033070523 0.029721368
000100 b2 66 d8 3c 0c 7a 37 3c d8 69 82 3c 58 64 8c 3c
       0.026416156 0.011198532 0.01591961 0.017137691
000110 a0 ba e4 bc a0 b2 f9 3a 9e f4 f2 bc 34 50 02 bd
       -0.027921021 0.0019050427 -0.029657658 -0.03181477
000120 7a 1b e1 3c 5b e1 f9 bc ea da a6 3c 77 55 03 bd
       0.027478922 -0.030502966 0.020368058 -0.032063928
000130 e0 a2 af bb 35 de 29 3d 4c a3 56 3c 00 11 a4 3c
       -0.0053599924 0.04147168 0.013100456 0.020027637
000140 c0 9c 0c bb f3 a6 95 bc 8a 11 0d bd 20 ae 56 bc
       -0.0021455735 -0.018268084 -0.034440555 -0.013103038
000150 52 f4 ef 3c b4 2f 01 bc 73 4f 1f bd be fc af bc
       0.029291306 -0.0078849085 -0.038894128 -0.021482822
000160 f0 2e 74 bc ee d6 8e bc 27 79 26 bd 32 33 23 bd
       -0.014903769 -0.01743647 -0.040642884 -0.039843746
000170 9e ed 1f bd c6 f7 e8 bc 96 34 96 bc 1c 72 28 bc
       -0.03904497 -0.02843846 -0.018335622 -0.010281112
000180 d8 15 94 3b e0 bc 92 3c 40 10 19 3a c0 6d 97 bb
       0.0045192055 0.017912328 0.0005838908 -0.0046212375
000190 61 03 23 3d cc 00 18 3c 08 d6 c9 bc 78 d6 de bb
       0.039798144 0.009277534 -0.02463819 -0.006800469
0001a0 d1 70 1b 3d 12 93 0e bd f0 05 a4 bc 46 9c b3 bc
       0.037949387 -0.034808226 -0.020022362 -0.021925103
0001b0 18 1b b2 bb 4a 48 cc 3c 34 c0 1b 3c 88 8a d2 bc
       -0.0054353587 0.024936814 0.009506274 -0.025700822
0001c0 90 bc 25 bb ce 7d 96 bc 66 8f fe bc f5 99 27 3d
       -0.0025289394 -0.018370535 -0.031074237 0.04091831
0001d0 9c 19 1e 3c e0 30 bf 3b 78 95 a1 3b 84 3b 49 3c
       0.00964966 0.005834684 0.004931148 0.012282256
0001e0 08 25 b3 bb 6a 99 bd 3c c2 ba fa 3c 00 76 fd 38
       -0.005467061 0.023144443 0.030606631 0.00012085959
0001f0 7c 16 15 bd a8 d6 98 3c 3b 4c b0 bc f6 af d4 bc
       -0.036398396 0.018657044 -0.021520725 -0.025962811
000200 30 11 17 bc 10 75 83 3c 94 b9 63 3c 36 79 25 bd
       -0.009220406 0.01604703 0.013899226 -0.0403988
000210 26 0a 41 bc 59 2e 21 3d a8 c4 86 3b 94 fb 56 3c
       -0.011782205 0.03935084 0.0041127987 0.013121504
000220 a8 27 9f bb 53 d4 b4 bc a0 ca a4 ba 98 5c aa bc
       -0.0048570223 -0.0220739 -0.0012572594 -0.020796105
000230 06 36 27 bd 13 65 ef bc d0 b6 1e 3b 3b 9c fa bc
       -0.040823005 -0.029223 0.0024217851 -0.030592075
000240 f0 c9 57 3c 22 4d ad 3c ba 31 c0 3c be 84 90 3c
       0.013170704 0.021154944 0.023461211 0.017641421
000250 da eb d0 3c 78 d3 17 bd e0 f5 2e 3c 7b 27 1e 3d
       0.025503088 -0.037066907 0.010678738 0.03861187
000260 98 7a 0d bd c0 0f 52 3a 2e de ab bc 62 71 20 bd
       -0.034540743 0.0008013211 -0.020979967 -0.03917063
000270 82 39 cb 3c 8a a3 86 3c 4c d0 0a bd 8e ca 82 bc
       0.024807695 0.016435403 -0.033890054 -0.015965726
000280 36 52 a8 3c e2 ba dc 3c 80 e7 3a bb 7b 6a 0c bd
       0.020547014 0.026944581 -0.0028519332 -0.034281235
000290 e1 db 0a 3d b0 21 32 bc 18 39 97 3b ce 88 d6 bc
       0.0339011 -0.01087229 0.0046149604 -0.02618828
0002a0 f2 23 b4 3c e0 05 4b 3c 68 48 b7 3b 38 e8 b8 bb
       0.021989796 0.012391537 0.0055933483 -0.005642917
0002b0 18 63 9e bc 68 4a e4 3b d6 58 81 bc 7c 3a 36 3c
       -0.019334361 0.0069668777 -0.01578943 0.011122342
0002c0 50 1f 2f 3b 6d 3f 21 3d d6 45 e1 3c 83 1e 28 bd
       0.0026721545 0.03936713 0.02749912 -0.041044723
0002d0 7f 45 17 3d d0 28 58 3b d2 a2 86 3c e0 c5 e3 3b
       0.03693151 0.003298331 0.01643506 0.006951079
0002e0 6a 72 99 3c 26 89 9b 3c 20 dc 26 bc 00 90 1b ba
       0.018731315 0.018986296 -0.010184318 -0.00059342384
0002f0 ec 53 28 bd 5f 37 14 3d 9c f6 03 3c c0 80 25 ba
       -0.04109566 0.03618562 0.008054402 -0.0006313436
000300 98 7b 8b 3b f5 29 27 3d 20 a7 b7 bb 00 e3 e7 3a
       0.004256677 0.040811498 -0.0056046396 0.0017691553
000310 ae cf b4 3c df 6d 04 bd 2c 18 3b bc dd 86 19 3d
       0.022071686 -0.032331344 -0.011419337 0.03748213
000320 b2 65 e2 3c 5b 10 a5 bc bd fb 05 3d 64 20 2c 3c
       0.027636383 -0.0201494 0.03271078 0.010505769
000330 df 15 25 3d 50 6d 0d 3b 8c 13 25 bd e8 4d d8 bc
       0.04030406 0.0021580048 -0.040301844 -0.026404336
000340 86 45 04 bd c8 a9 b2 3b 58 f9 96 bb 20 f6 d7 ba
       -0.032292865 0.0054523684 -0.004607361 -0.0016476549
000350 62 c3 e9 3c 93 56 d2 bc d3 27 29 bd a4 fd 5a 3c
       0.028535549 -0.025676047 -0.041297745 0.013366137
000360 a4 37 11 bc 33 ac 21 3d 71 23 28 3d a5 98 1b 3d
       -0.008863363 0.039470863 0.041049425 0.03798737
000370 af 6e 28 3d 00 fa a7 bc 30 62 2b 3c e0 13 af bb
       0.04112118 -0.020504951 0.010460421 -0.0053429455
000380 4f 52 29 bd 0a 41 25 bd d6 7a b1 bc 4f e5 13 bd
       -0.04133826 -0.04034523 -0.021665018 -0.036107358
000390 f6 09 00 bd 8a 32 fe 3c 28 a5 97 3b 50 5a 7a bc
       -0.0312595 0.031029958 0.0046278425 -0.015280321
0003a0 85 24 24 3d 87 51 10 3d 7b 52 84 bc fe b1 de bc
       0.04007389 0.035234 -0.016152611 -0.027184483
0003b0 63 c6 01 3d d6 89 4a bc 96 95 90 3c c9 dd 1f 3d
       0.031683337 -0.012361964 0.017649453 0.03902987
0003c0 de f8 02 bd f6 f3 89 3c cd f2 13 3d 03 9e 97 bc
       -0.03197562 0.016839962 0.036120225 -0.018507963
0003d0 47 ef 02 bd 7a 69 bb 3c 80 d4 96 3c db 1a 26 3d
       -0.031966474 0.022877444 0.018411875 0.040552955
0003e0 5b 6f ff bc 68 f3 87 bc 23 a1 16 bd 50 c7 5c 3c
       -0.031181028 -0.016595557 -0.036774766 0.013475254
0003f0 73 e5 8a bc 00 fe 6d 3b a0 9c d8 ba e2 be f5 3c
       -0.016955113 0.0036314726 -0.001652617 0.029998247

dec_conv2b.bias f4 [64]
000000 9a c6 25 bd df 4b 0e bd 1c ed 13 bc eb 6d e2 bc
       -0.040472604 -0.034740325 -0.009028699 -0.027640304
000010 c0 ed 1e bc 06 08 7d bc 4d 1b 17 3d 40 28 00 bd
       -0.009700239 -0.0154438075 0.03689127 -0.031288385
000020 3c bc 1c 3c f3 60 23 bd 60 58 c1 bb 12 4b 80 3c
       0.009566363 -0.03988738 -0.0059004277 0.015660796
000030 c0 f6 23 ba c8 0a c0 bb 7e ee 1d bd d6 54 6b bc
       -0.0006254725 -0.00586066 -0.038557522 -0.014363488
000040 50 e8 97 bc 86 83 97 3c 8a e8 f1 3c ee f6 8e bc
       -0.018543392 0.018495332 0.029529829 -0.01745173
000050 e0 49 0a bc dc 8c 22 bc b8 29 b2 3b b3 2e d6 bc
       -0.008440465 -0.009921279 0.005437102 -0.026145315
000060 88 a5 07 bd 3c eb 0e 3c 78 08 92 3c 58 71 96 3c
       -0.033116847 0.008723076 0.017826304 0.018364593
000070 26 dd c7 bc f6 98 26 bd 30 03 28 3c 4e cf e6 3c
       -0.024397444 -0.04067322 0.010254666 0.028175022
000080 d6 7e 46 bc b8 7a a1 3b 0d 47 25 3d a0 0d 05 3c
       -0.012115201 0.0049279593 0.040350962 0.008120924
000090 50 b8 02 bd 88 30 19 bd aa 41 d0 3c 8a e6 e2 3c
       -0.031914055 -0.0373998 0.025421936 0.02769782
0000a0 c0 b1 ad 3b 9b 00 0a bd 4c a0 11 3c b2 e8 e8 3c
       0.0053007305 -0.033691984 0.008888315 0.02843127
0000b0 10 fa 3c bb 32 83 b2 3c 20 65 ea 3a 32 72 a4 3c
       -0.0028835572 0.021791074 0.0017882921 0.020073984
0000c0 2c ab 0f bd 13 86 e1 bc 20 ea e0 3b 06 df 8c bc
       -0.03507535 -0.027529752 0.0068638474 -0.01719619
0000d0 6b 6e 81 bc 10 d0 19 3c da b2 15 bd 6c 51 0b bc
       -0.015799722 0.009387985 -0.03654752 -0.008503299
0000e0 5b ad e7 bc 20 ec df bc c0 89 ce bc 9a 1b fc 3c
       -0.028280905 -0.027334273 -0.025212169 0.03077488
0000f0 9a 49 1c bd 95 8f 09 3d 46 cc 98 3c 40 5c 44 3c
       -0.03815613 0.033584196 0.018652093 0.011984885

dec_conv1a.weight f4 [32, 67, 3, 3]
000000 54 1a 17 bd 87 b2 10 bd 56 03 06 3c 19 c5 60 3c
       -0.036890343 -0.035326507 0.008179506 0.013718867
000010 3c 95 48 3d e6 52 71 3d c8 f4 e0 3a 4a 5f ce 3b
       0.048970446 0.05891695 0.0017162794 0.0062979804
000020 7f ff fe 3c 85 05 0c bb 70 f8 d4 3b f6 c9 67 bc
       0.03112769 -0.0021365595 0.0064993426 -0.014147272
000030 0a c9 77 bd 9d 94 2a bd 83 4e 42 bd 64 7a 6b bc
       -0.06049446 -0.041645635 -0.047438156 -0.014372442
000040 d3 af 9e 3b 80 02 e2 3b 1d 95 39 3d b2 c6 1e bd
       0.004842737 0.0068972707 0.04530822 -0.03876371
000050 cd 87 b1 3c e9 89 41 3d d6 d1 61 bd b9 03 a1 bc
       0.0216712 0.047250662 -0.055131756 -0.019655095
000060 3c 8f a0 3d 5f 8a dc bc ba 77 2b 3d 71 d1 cd 3c
       0.0783982 -0.02692145 0.041862227 0.025124284
000070 1e fe 1e 3c 95 a4 86 3b 48 fe e7 3c 54 92 ab 3d
       0.009704141 0.004108975 0.028319493 0.08377519
000080 99 8e 8b 3c 31 fc a3 3c 1a b8 e9 3d 2f 91 25 3c
       0.01703577 0.020017715 0.11412068 0.010105415
000090 2c 87 8a 3c e0 0e a8 bc bb 80 90 bc f0 e7 b5 3c
       0.016910158 -0.020514905 -0.017639508 0.022205323
0000a0 62 0d 80 3d 23 ee c2 bc 53 41 1b bd ad c9 fc 3c
       0.062525526 -0.023795193 -0.037904095 0.030857885
0000b0 d0 b8 e1 bc 5a 5f 12 3d 57 58 96 bc ac b7 cc 3b
       -0.027553946 0.035735466 -0.01835267 0.0062474813
0000c0 4c 4f 24 3d 47 23 2e bc 09 92 4b b9 02 2f 6a b9
       0.040114686 -0.010628528 -0.00019413991 -0.00022333491
0000d0 d7 3b f8 3c 81 5f 52 3c 28 fb ab bc ed 61 86 bd
       0.030301971 0.012840153 -0.020993784 -0.065616466
0000e0 33 99 25 bc aa 15 fe bb 8d 95 23 3c 76 47 a8 3b
       -0.010107326 -0.0077540474 0.009984386 0.005135472
0000f0 a6 b5 9f bd fd 3c ed 3b e8 e6 be bb d8 56 c2 3c
       -0.077983186 0.0072399364 -0.005825866 0.023723051
000100 6c fa 2a 3d f2 3c db 3c 32 09 ca 3b 2f df 9a 3b
       0.041742727 0.02676246 0.006165647 0.0047263126
000110 98 28 ef bc 35 30 b8 bb 83 98 3b 3c 5e 0d e0 3c
       -0.029194161 -0.005620981 0.011449936 0.027350124
000120 87 12 b6 3b 42 4a b9 bb fd 70 95 3c 97 10 99 3c
       0.005556408 -0.005654604 0.018242354 0.018684668
000130 75 5b 64 3c ad c7 12 3d 72 98 13 3d b7 17 dd bc
       0.013937821 0.035834957 0.036034055 -0.026988847
000140 af e8 38 3d 65 95 39 ba 65 18 cb 3c a7 cc 89 bb
       0.04514378 -0.00070794515 0.024791906 -0.0042053047
000150 d6 fe 73 bb a0 24 04 3c c7 25 34 bd ab 2f 79 3c
       -0.0037230751 0.008065373 -0.04398134 0.015209119
000160 66 41 c2 3c b3 f8 2c 3d 6f 03 e2 bc 9f 42 46 3d
       0.023712825 0.042229366 -0.027589528 0.04840338
000170 0e b3 e4 bc 4d db 79 bc e7 2a 10 3c 8a 4b 3a 3d
       -0.027917411 -0.015250039 0.008799291 0.045482196
000180 65 9a 52 bc 79 44 82 3c 9e 8f a3 3b 18 62 bc bd
       -0.012854193 0.015901791 0.0049914857 -0.091983974
000190 eb 8f b5 3d da 3d 16 be ad 06 1a be 15 d5 2d bd
       0.08865341 -0.14672032 -0.15041609 -0.04243954
0001a0 ec 57 16 be a1 50 d5 bd a7 4e 3b 3c 05 16 fd 3c
       -0.14681977 -0.10415769 0.011432326 0.030894289
0001b0 ed 20 07 bd 9f 2f b8 bd 7a 93 b0 bd de b0 3f bc
       -0.032990385 -0.08993458 -0.08621879 -0.011699883
0001c0 f1 a3 2b bd 30 ae c2 bc 95 5f 1e be 8a 69 87 bd
       -0.041904394 -0.0237647 -0.15466149 -0.06611927
0001d0 e6 0a 88 bd 8a 16 47 bc b7 0d a9 bc 52 55 8e 3c
       -0.06642704 -0.01215137 -0.020636423 0.017374668
0001e0 06 05 1c bb e2 29 8b 3c ef c6 47 bd 4d 01 0d 3d
       -0.0023806705 0.016987745 -0.048773702 0.03442507
0001f0 f5 a2 5c 3d c8 e6 98 bc 4d ab 06 bd e3 f2 fe bc
       0.053866345 -0.018664733 -0.03287821 -0.031121677
000200 64 c0 1b bd 10 d2 35 bd 95 4e b2 3b df 3e 31 bd
       -0.038025275 -0.044389784 0.0054414966 -0.04327285
000210 b7 0f 42 3c 40 e4 c0 bc 0f 36 fe bc 47 8f 35 3d
       0.011844567 -0.023546338 -0.031031637 0.044326093
000220 51 1c 7c 3d 35 10 04 bd f4 eb 45 3d 72 2d 49 3d
       0.061550442 -0.03224202 0.048320726 0.049115606
000230 ce 00 fe 3d 8e 01 8d 3d a3 98 47 3d 87 57 6c bc
       0.12402497 0.06885062 0.04872955 -0.014425165
000240 81 61 54 3d 03 95 64 3b 3a fc 26 3c ed 4a 8d 3d
       0.0518508 0.0034878857 0.010191971 0.068990566
000250 1e cd 59 3d a6 7b ec 3b a8 f7 2c 3d 93 36 0e 3d
       0.05317413 0.0072168885 0.04222837 0.034720015
000260 88 fc 11 3d cf 7a 78 ba 58 6e 3c bd 22 95 68 3c
       0.035641223 -0.0009478749 -0.04600367 0.014195712
000270 8f 86 c7 3d 31 ee ab bb d0 1b 69 3d 29 76 ad bc
       0.09742462 -0.0052469005 0.05691129 -0.021174507
000280 71 2e f4 bc 68 06 7d bc 02 78 3a bb 1e 9c 0a bc
       -0.029807301 -0.015443422 -0.0028452878 -0.008460073
000290 d9 fd ed bc 08 cc b5 bc ad e1 dc 3b c3 d2 fd bc
       -0.029051708 -0.022192016 0.00674077 -0.030984288
0002a0 86 20 4a 3b 47 92 88 bd 25 98 a1 bb 87 1a f0 3b
       0.003084214 -0.06668525 -0.004931467 0.007327381
0002b0 4d f4 d9 3c cb 8d 9a 3c 5f 62 54 bc 4e c4 12 3d
       0.02660575 0.01886644 -0.012962907 0.035831742
0002c0 31 a3 3d 3d ca b0 87 bc cb 6a ad 3c ee 3b 56 3c
       0.04629821 -0.016563792 0.021169087 0.013075812
0002d0 4c fc 87 3d a1 48 69 3d 7b 81 75 3d 39 12 53 3d
       0.06639919 0.05695403 0.059937935 0.05153105
0002e0 e3 eb 13 3d 38 b4 6c 3c 4e 1c a5 3c 24 49 00 3d
       0.03611363 0.014447264 0.020155098 0.031319752
0002f0 ba 8a 0a 3a 83 7b 19 bd 19 4f de 3a 32 ed 8b 3c
       0.0005284954 -0.037471306 0.0016960829 0.017080877
000300 3f 38 99 bd 04 9d d9 bc 8d 02 56 bc 78 4b 03 bc
       -0.07481431 -0.026564129 -0.013062132 -0.008013599
000310 50 29 fd ba 42 c7 2d bc e0 dc 8c bc 2c 04 a3 bc
       -0.001931468 -0.010606589 -0.017195165 -0.01989945
000320 19 cf 9a 3c 0e f2 84 bd 57 74 df bc c9 c9 d3 3c
       0.01889758 -0.06491481 -0.027277155 0.025853055
000330 d3 80 81 bc 0b 76 26 bd 32 e2 b3 3b 3c 78 36 3d
       -0.015808498 -0.04063992 0.005489611 0.04454826
000340 f5 e1 e8 bc 70 a1 6e bd 41 57 d7 bd d2 7c 4f 3c
       -0.028428057 -0.058259428 -0.10514689 0.012664037
000350 7a 4b c3 bc 11 c8 35 be b3 f2 1f bc 83 35 9f bc
       -0.023839701 -0.177521 -0.009762454 -0.019434696
000360 3f a2 6a bd bb 6d ad bc 4b c1 64 3b db 3f 06 bd
       -0.057283636 -0.021170488 0.003490525 -0.03277574
000370 75 0c 23 bd b5 df 3b bc 4c ab 42 bd 4b 38 9d bb
       -0.0398068 -0.01146691 -0.047526643 -0.0047979704
000380 81 b3 19 3d 8d ea a4 3c 73 ac f2 bc 75 2c dd bd
       0.037524704 0.020131374 -0.029623246 -0.10799495
000390 14 ed fd bb b1 1a 69 bd 35 d9 34 bd 6d a1 4d bd
       -0.007749209 -0.05691022 -0.044152457 -0.050202776
0003a0 93 35 88 bb 7f b2 cd ba 74 8a 60 bc 92 d8 92 3c
       -0.004156777 -0.0015693455 -0.013704885 0.017925534
0003b0 1b 10 f5 3c a4 79 1d 3d 5e c7 90 3c 98 18 9c bc
       0.029914906 0.038446084 0.01767319 -0.019054696
0003c0 46 ec ce 3b 45 46 36 bd 73 43 92 bd 79 b4 d3 3b
       0.006314787 -0.044500608 -0.07141771 0.006460723
0003d0 85 b3 44 3d 89 91 31 bc 14 1c 3b 3d 5d 51 1e bc
       0.048022766 -0.010837921 0.045681074 -0.009662953
0003e0 01 54 94 3b 62 87 a8 bb dc b8 82 3b c3 27 52 3d
       0.0045266156 -0.005143092 0.003989322 0.05130745
0003f0 7a 5a 29 bd f7 0e 00 3d 8a ad a4 bc fd 90 e2 bc
       -0.04134605 0.03126427 -0.020102281 -0.027657026

dec_conv1a.bias f4 [32]
000000 3a c7 66 bc db 05 48 3c 56 45 fd 3c cd 52 15 3d
       -0.014085585 0.012208427 0.030916851 0.036455918
000010 aa 5e cc 3c f7 cd 19 3c 24 a9 1e 3c 22 ef bd 3c
       0.024947483 0.009387485 0.009683881 0.023185316
000020 f6 c1 20 3d c0 b9 8e 3c c8 df b1 bc b1 9b 1b 3d
       0.039247476 0.017422557 -0.021713153 0.037990276
000030 af e9 5f bd 8d b6 3b 3c 92 5b 2c bd 17 30 44 3d
       -0.054666217 0.011457098 -0.042079516 0.047897425
000040 9a c3 73 3d 38 6b b1 3c 55 aa 55 bd 7d 25 14 bd
       0.059512712 0.021657571 -0.052164394 -0.036168564
000050 bf ea 88 bc 37 9b 93 bd cd 4a 3f bd f2 96 c8 3c
       -0.016713498 -0.07207339 -0.046702195 0.024486039
000060 59 f7 39 3c 05 50 4c bc 7d ef 8e 3c a3 b3 92 bd
       0.011350476 -0.01247025 0.017448181 -0.07163169
000070 98 ee 8f 3d 71 da 8f 3b 1b 1a 00 3d 50 be c6 bb
       0.0702793 0.004390054 0.031274896 -0.0060651675
