models/leaner_model1_4.pt (torch, 455029 bytes, 16 tensors)

enc_conv0.weight f4 [16, 3, 3, 3]
0	0xbb49bc9f	-0.0030782593
1	0x3e04f5fd	0.12984462
2	0xbd890362	-0.06690098
3	0xbab40997	-0.0013735768
4	0x3bd14fa2	0.006387667
5	0xbd662965	-0.05619182
6	0x3b214f76	0.0024614013
7	0x3df9f956	0.1220576
8	0xbd9b087d	-0.075699784
9	0xbd4acd5e	-0.04951226
10	0xbd94bd7f	-0.07262706
11	0x3bcacbc2	0.0061888406
12	0xbd7b4d61	-0.06135309
13	0x3d771194	0.0603195
14	0xbe658ec7	-0.22417746
15	0x3c5512ef	0.013005002
16	0xbd02eb7f	-0.031962868
17	0xbd322214	-0.04348953
18	0xbb2aa469	-0.0026037937
19	0x3dd50783	0.10401823
20	0x3d0852cb	0.033282083
21	0x3ddfba99	0.109242626
22	0x3db277ed	0.0871428
23	0x3c770939	0.015077882
24	0xbd313a42	-0.04326845
25	0xbd8e08ce	-0.06935273
26	0xbc146cc4	-0.009059135
27	0x3d940189	0.07226855
28	0x3de035f2	0.10947789
29	0x3e17d001	0.14825441
30	0xbe66e8b1	-0.22549702
31	0xbd5ddc36	-0.054165088
32	0x3d84f49c	0.06491968
33	0x3d495496	0.049152933
34	0xbe368b77	-0.17826639
35	0xbcfecff3	-0.031105017
36	0xbd1897ad	-0.037254024
37	0xbb1684d5	-0.0022967358
38	0xbd18a7b5	-0.037269313
39	0x3d78e22f	0.06076258
40	0xbdf02063	-0.11724927
41	0x3c225f10	0.00991036
42	0x3e07a725	0.13247354
43	0x3d4111ff	0.047136303
44	0xbd944eb3	-0.07241573
45	0xbc297127	-0.010341919
46	0xbd91d2d6	-0.07120292
47	0xbddb2e0c	-0.10702142
48	0x3e00cbbf	0.12577723
49	0xbd5a0bc3	-0.053233873
50	0xbd8464ac	-0.06464514
51	0x3d9c3925	0.07628087
52	0x3d7c78e5	0.06163873
53	0x3da7c598	0.08191985
54	0xbcc5eaf3	-0.024159884
55	0x3bba37c1	0.005682916
56	0xbbb72501	-0.005589128
57	0x3e198ffb	0.1499633
58	0x3c8b0e5a	0.016974617
59	0x3cc5053b	0.024050346
60	0xbd56b3f0	-0.052417696
61	0xbde74131	-0.11291731
62	0x3cc6fba2	0.02428991
63	0x3cb1864e	0.021670487
64	0x3d304195	0.043031294
65	0xbdaf3da4	-0.08556679
66	0x3e5157ad	0.20443602
67	0xbe646cd8	-0.22307146
68	0xbd863b0b	-0.0655423
69	0x3caa70c2	0.02080572
70	0x3de79f2b	0.11309656
71	0x3bedc587	0.007256213
72	0xbc35c417	-0.011094115
73	0xbc5d9a28	-0.013525523
74	0x3d898ef0	0.06716716
75	0x3def3984	0.11680892
76	0xbe287960	-0.16452551
77	0xbd872e6d	-0.06600652
78	0x3e144c03	0.14482121
79	0xbd0a4f37	-0.03376695
80	0xbd808b1b	-0.06276532
81	0x3c3bddfc	0.011466499
82	0xbc355427	-0.011067427
83	0xbbc32c30	-0.0059561953
84	0xbbd6b903	-0.006552817
85	0xbe1dfbf0	-0.15428138
86	0xbc288597	-0.010285757
87	0xbb421025	-0.0029611674
88	0x3de02712	0.10944952
89	0xbd42a597	-0.0475212
90	0x3db9138e	0.09036933
91	0x3c1cd004	0.009571079
92	0x3d7410e8	0.059586436
93	0xbdff30b5	-0.12460462
94	0xbdbfc25f	-0.09363245
95	0x3ddf3aa7	0.10899859
96	0xbe2a63eb	-0.16639678
97	0xbe1a31c2	-0.15058044
98	0x3d4cda6a	0.050012983
99	0xbd9c5706	-0.07633786
100	0x3dde3ca3	0.10851409
101	0xbe38662a	-0.18007722
102	0x3bff7199	0.0077955243
103	0x3e2cdd08	0.16881192
104	0xbe06de63	-0.13170771
105	0x3e0742fe	0.13209149
106	0x3e4d98cb	0.20077817
107	0x3c659c67	0.01401434
108	0xbd251cf8	-0.04031083
109	0x3daa2e10	0.08309567
110	0x3d882eb6	0.066495344
111	0xbe23879a	-0.15969697
112	0x3d09a962	0.0336088
113	0x3d9d85e5	0.07691554
114	0xbd073892	-0.033012934
115	0xbdebe802	-0.11518861
116	0x3d28a077	0.041168656
117	0xbcc077d0	-0.023494631
118	0xbe0c6b64	-0.13712841
119	0xbbbd34ad	-0.0057741017
120	0xbd70fc69	-0.058834467
121	0x3d0f0783	0.034919273
122	0xbc29614d	-0.01033814
123	0x3e3b9c98	0.18321455
124	0xbe209098	-0.15680158
125	0xbdc545c6	-0.09632449
126	0xbd972052	-0.073792115
127	0x3e02e1d0	0.12781453
128	0x3b30b931	0.0026965851
129	0x3c9dbd40	0.01925528
130	0x3e17f70d	0.14840336
131	0xbe054b3d	-0.13016982
132	0xbda90885	-0.08253578
133	0xbdc1fa33	-0.0947155
134	0x3e09187f	0.13388251
135	0xbd93dfb1	-0.072204
136	0xbd0ea876	-0.034828626
137	0x3d1e5a08	0.03866008
138	0xbdb3e2bd	-0.08783481
139	0xbd9479b4	-0.072497755
140	0x3ab77468	0.0013996484
141	0x3db63c8c	0.08898267
142	0xbd28e0e2	-0.04123009
143	0xbd6530b1	-0.05595464
144	0xbcebdc6f	-0.028791634
145	0xbd1e7267	-0.03868332
146	0xbd68251e	-0.056676023
147	0xbdfb2e09	-0.1226464
148	0xbd6b6b16	-0.057475172
149	0x3e51f07e	0.20501897
150	0x3de43bef	0.11144244
151	0x3d8983e3	0.067146085
152	0x3dcc477e	0.099745736
153	0x3df487fa	0.11939998
154	0x3b77547d	0.0037739568
155	0xbd88633b	-0.06659552
156	0xbdf9e69e	-0.1220219
157	0x3dd56750	0.10420096
158	0xbd001296	-0.031267725
159	0xbd57d3be	-0.052692167
160	0xbdb0a6ed	-0.086255886
161	0x3b2e5f82	0.002660722
162	0x3dbe41ed	0.09289918
163	0x3ddd0f60	0.10793948
164	0x3d79d0a7	0.060990002
165	0xbd6ee015	-0.05831917
166	0xbd5cac8c	-0.05387549
167	0x3da3b3be	0.079932675
168	0xbd3bbc70	-0.045834005
169	0xbd87928f	-0.06619751
170	0xbda7dd43	-0.08196499
171	0xbe017c55	-0.12645085
172	0x3d1e378c	0.038627192
173	0x3d807f95	0.06274334
174	0xbde987ac	-0.114028305
175	0xbddd935a	-0.10819121
176	0x3da8a294	0.08234134
177	0x3d2cbb4b	0.042170804
178	0x3d887b30	0.06664121
179	0x3d3948ba	0.045235373
180	0xbca8363b	-0.020533672
181	0x3d8bc75d	0.06825135
182	0x3d87de24	0.06634167
183	0xbd8cd34c	-0.06876239
184	0xbe4f7198	-0.20258176
185	0x3dcc8f40	0.0998826
186	0x3c419690	0.011815682
187	0x3bf29de7	0.0074040773
188	0x3d06d527	0.03291812
189	0xbd314f28	-0.04328838
190	0xbdc29ef6	-0.09502976
191	0xbd8a8f08	-0.06765562
192	0x3e077b0f	0.13230537
193	0x3e361d36	0.1778458
194	0xbe824c9b	-0.2544907
195	0xbdf1d007	-0.11807256
196	0x3e473045	0.19452007
197	0x3d8f95da	0.07011004
198	0xbc95dbb0	-0.018293232
199	0x3e375bff	0.17906187
200	0xbdd28dbb	-0.10280939
201	0x3d072544	0.032994524
202	0xbe2e5e68	-0.170282
203	0x3da8c459	0.08240575
204	0x3dc33c40	0.09532976
205	0xbdca3299	-0.09872932
206	0xbd6814a0	-0.056660295
207	0x3db6a5c7	0.08918338
208	0xbe25400d	-0.16137715
209	0x3e21341b	0.15742533
210	0xbdc3db9d	-0.09563372
211	0xbbedad81	-0.0072533493
212	0x3e32c904	0.17459494
213	0xbce6bafd	-0.028165335
214	0xbe010501	-0.12599565
215	0xbcdf164f	-0.027232317
216	0xbe67213a	-0.22571269
217	0xbe104370	-0.14088225
218	0x3e0acb2e	0.1355407
219	0x3c60026a	0.013672451
220	0xbe2adc7a	-0.16685668
221	0x3e0ea7b9	0.13931169
222	0xbd80982a	-0.06279023
223	0x3db451b1	0.08804644
224	0x3e4816e9	0.1953999
225	0x3e13479d	0.14382787
226	0x3de6f25c	0.11276695
227	0xbd8e68eb	-0.06953605
228	0xbdcef1f4	-0.10104743
229	0xbd911db1	-0.07085741
230	0x3b27ce89	0.0025605282
231	0x3db92819	0.09040851
232	0xbd9cdd9e	-0.076594576
233	0xbd056272	-0.032564588
234	0x3e19c536	0.15016636
235	0x3d69742f	0.056995567
236	0xbd3fbfa7	-0.046813633
237	0x3dc74869	0.09730608
238	0x3e06113f	0.13092516
239	0xbe0c1960	-0.13681555
240	0xbc708af4	-0.0146815665
241	0x3c8af8a0	0.016964257
242	0xbe54d96e	-0.20786068
243	0x3c300f12	0.010745781
244	0x3d89d528	0.067301095
245	0xba2bb3e8	-0.00065499404
246	0x3d9c38b7	0.07628005
247	0xbd84ef2e	-0.064909324
248	0xbe20fd59	-0.15721644
249	0xbc9f230f	-0.019425897
250	0xbe446d30	-0.19182277
251	0x3bd0ef3f	0.0063761766
252	0x3b90e097	0.0044213044
253	0xbc16c921	-0.009203226
254	0x3d95c251	0.073124535
255	0x3d783dea	0.06060592

enc_conv0.bias f4 [16]
0	0x3e498bf6	0.19682297
1	0xbea6f9e0	-0.32612514
2	0x3f02d761	0.5110989
3	0xbba9217f	-0.0051614637
4	0x3e205896	0.15658793
5	0xbe7a917b	-0.24469559
6	0x3edb7b00	0.4286728
7	0xbcea42d6	-0.028596323
8	0x3c14681e	0.009058027
9	0x3e1665d9	0.1468729
10	0x3e5e6628	0.21718657
11	0xbe88d0dc	-0.26721847
12	0x3f281b69	0.65666825
13	0x3e89c665	0.26909176
14	0x3d9d7d80	0.07689953
15	0x3dc982c1	0.098393925

enc_conv1.weight f4 [32, 16, 3, 3]
0	0xbd2c882b	-0.042122047
1	0x3e034bf2	0.1282194
2	0x3bd48e7a	0.006486711
3	0xbe458e11	-0.19292475
4	0x3dbd7f10	0.09252751
5	0x3e25c64b	0.16188924
6	0xbce6895a	-0.028141666
7	0xbd8d8b0a	-0.06911285
8	0xbc9ce7d1	-0.019153507
9	0xbd2706f8	-0.04077813
10	0xbbd2c133	-0.0064317225
11	0x3cdbdfc5	0.0268401
12	0xbdf8bd9e	-0.121455416
13	0xbe2b6c5a	-0.16740552
14	0xbd925db9	-0.071467824
15	0x3d12aa81	0.035807136
16	0xbbaf7130	-0.005354069
17	0xbe15d4c7	-0.1463195
18	0xbd85c18f	-0.06531059
19	0x3dba1a2d	0.09087024
20	0x3e12b128	0.14325392
21	0xbdb1ab0e	-0.08675204
22	0xbd07159b	-0.03297959
23	0xbe28bf4e	-0.16479227
24	0xbd22cef8	-0.039748162
25	0xbdfdfa0b	-0.124012075
26	0xbe0366c1	-0.12832166
27	0x3d910785	0.07081512
28	0x3dcd9033	0.100372694
29	0xbe0e0fca	-0.1387321
30	0x3d105ac3	0.035242807
31	0x3db27c90	0.08715165
32	0x3c87c321	0.016572537
33	0xbe44f0ba	-0.19232455
34	0xbe0874e9	-0.13325848
35	0xbdd62996	-0.10457151
36	0x3db2e4e4	0.08735064
37	0xbe0d290b	-0.13785188
38	0xbe208344	-0.15675074
39	0xbcd2fdd0	-0.025755793
40	0xbd906f01	-0.07052422
41	0xbe36a06a	-0.1783463
42	0xbd539f4b	-0.051665585
43	0xbda4ca43	-0.08046391
44	0xbd8f3267	-0.06992035
45	0xbc02a6fa	-0.007974381
46	0xbd8186a1	-0.063245066
47	0x3d9b80a2	0.07592894
48	0xbe23da1b	-0.1600117
49	0xbe0e9c9a	-0.13926926
50	0x3d85facb	0.065419756
51	0xbdbd5f82	-0.09246732
52	0xbe3b75c9	-0.1830665
53	0xbd8c6f69	-0.06857187
54	0xbb620334	-0.0034486772
55	0xbeb358d5	-0.3502871
56	0xbe8edbb9	-0.2790201
57	0xbccdbdd8	-0.025114939
58	0xbe1f8372	-0.15577486
59	0xbeeb35fc	-0.45939624
60	0x3cf8fedd	0.030394966
61	0x3d33a111	0.043854777
62	0x3dccc651	0.09998763
63	0xbae1b9c4	-0.00172215
64	0x3e233f43	0.15942101
65	0x3d153023	0.03642286
66	0xbdbf076f	-0.0932759
67	0x3d6eb5a2	0.058278687
68	0x3dcae0a1	0.09906126
69	0xbe12fb2e	-0.1435363
70	0xbde1cd24	-0.110254556
71	0x3d997a60	0.07494044
72	0x3cb2c694	0.021823205
73	0xbc6c803c	-0.01443487
74	0x3cda4512	0.026644263
75	0x3c0cb4de	0.008588044
76	0xbe2f1e48	-0.17101395
77	0xbd7edb7f	-0.062221047
78	0xbd5c8080	-0.053833485
79	0x3d9b7f11	0.07592595
80	0x3d920120	0.07129121
81	0x3bbad6c4	0.0057018716
82	0x3df3db54	0.11907068
83	0xbc965a84	-0.018353708
84	0xbe350ddb	-0.17681067
85	0xbdf09c40	-0.11748552
86	0xbd4cea24	-0.05002798
87	0x3d1f45e8	0.038885027
88	0xbe69b37e	-0.22822377
89	0xbcc4e077	-0.024032814
90	0xbc57ea32	-0.013178395
91	0xbe3fa2a7	-0.1871439
92	0xbeb1bffc	-0.34716785
93	0xbcb9ad62	-0.022665683
94	0x3dffaffb	0.124847375
95	0x3d0f9842	0.035057314
96	0x3cea297f	0.02858424
97	0xbcb78cb3	-0.022405958
98	0x3c3fc670	0.011705026
99	0x3d19fe9e	0.037596337
100	0x3d20a593	0.039220404
101	0xbe05e5d1	-0.13075949
102	0x3c3b570a	0.011434326
103	0xbd4ad0ca	-0.049515523
104	0xbe8c51a4	-0.27406037
105	0xbceab986	-0.028652918
106	0xbd74e2c7	-0.059786584
107	0xbd811587	-0.06302934
108	0xbd557953	-0.052117657
109	0x3c53748f	0.012906208
110	0xbe868749	-0.2627509
111	0xbb011d51	-0.0019701312
112	0xbccf1b3c	-0.025281541
113	0xbd8616ac	-0.06547293
114	0x3cab4f8d	0.020911956
115	0x3cd30632	0.02575979
116	0xbd156184	-0.03646995
117	0xbb01b305	-0.0019790542
118	0x3db4f3b5	0.08835546
119	0xbd58b2a5	-0.052904744
120	0x3d3c7b9b	0.046016317
121	0xbb7918a0	-0.0038009062
122	0xba659651	-0.00087580556
123	0xbe34f6ae	-0.17672226
124	0xbe57cf07	-0.21075068
125	0x3c8fa521	0.017534794
126	0xbd156ac0	-0.036478758
127	0x3ded7606	0.11594777
128	0xbd4582cf	-0.048220452
129	0xbe036d63	-0.12834696
130	0xbd403a83	-0.0469308
131	0xbc26839e	-0.010163216
132	0xbd68e831	-0.05686206
133	0xbcb72900	-0.022358418
134	0xbdaf47d1	-0.0855862
135	0x3dac11b3	0.08401813
136	0xbd235ee5	-0.03988542
137	0xbd950dc3	-0.072780155
138	0xbd8795ec	-0.06620392
139	0x3c56e536	0.013116172
140	0x3d5175b7	0.051137652
141	0xbdb65524	-0.08902958
142	0xb9fb03a9	-0.00047877178
143	0x3d2ac390	0.04169041
144	0xbc90991a	-0.01765113
145	0x3d21c8c5	0.03949811
146	0xbdbd9fae	-0.09258972
147	0xbca73901	-0.020412924
148	0xbd91bed3	-0.07116475
149	0x3d6043c9	0.054752145
150	0x3dbadae3	0.091237806
151	0x3cef8ba7	0.029241396
152	0x3d91e23f	0.07123231
153	0x3de4f0b7	0.11178725
154	0xbc59ee36	-0.013301423
155	0xbb979a5d	-0.004626556
156	0xbcbde8a4	-0.02318222
157	0xbdb2035f	-0.08692049
158	0x3976818a	0.00023508645
159	0xbd180909	-0.03711799
160	0x3c83b985	0.016079674
161	0x3d9141e9	0.070926495
162	0x3c08f49c	0.008359101
163	0x3d87de7a	0.06634231
164	0x3d9a9123	0.07547214
165	0xbd1430f2	-0.03617949
166	0xbd143159	-0.036179874
167	0x3e07eb1e	0.13273284
168	0x3bf717db	0.0075406856
169	0x3d3a39e5	0.04546537
170	0xbd741d66	-0.05959835
171	0xbcec5372	-0.028848384
172	0xbd78ab2a	-0.06071011
173	0xbd72f704	-0.059317604
174	0x3cb442cd	0.02200451
175	0x3d081c84	0.03323032
176	0x3e2fc4e4	0.17164952
177	0x3c4c1e5b	0.012458409
178	0x3abe2ce4	0.0014509228
179	0x3d9eb205	0.07748798
180	0xbd946846	-0.07246451
181	0xbde5896b	-0.11207851
182	0xbd60b3b3	-0.054858875
183	0x3e217660	0.15767813
184	0x3d54a8f4	0.05191894
185	0xbe1baebb	-0.15203373
186	0xbd3e93e0	-0.046527743
187	0xbc9f6217	-0.019455953
188	0x3da9ca0c	0.082904905
189	0xbdeff199	-0.11716003
190	0xbd7dc9cf	-0.061960038
191	0x3d86f5c5	0.065898456
192	0xbe69e824	-0.22842461
193	0xbe21dab1	-0.1580608
194	0x3bd341de	0.006447061
195	0x3ca4de78	0.020125613
196	0xbc96226e	-0.018326964
197	0x3cce3fcb	0.025176903
198	0xbd15fd58	-0.03661856
199	0xbc201e37	-0.009772829
200	0xbd12f48f	-0.03587776
201	0xbd90f5f0	-0.07078159
202	0xbe2260df	-0.15857266
203	0xbcd6e46a	-0.026231963
204	0xbd2c8271	-0.042116586
205	0xbd106648	-0.035253793
206	0xbd56cf03	-0.052443516
207	0x3d4db9ff	0.050226208
208	0x3d4b2656	0.049597107
209	0xbd5854af	-0.052815136
210	0x3d5e9fc7	0.054351594
211	0x3df2a573	0.11847963
212	0x3e162af6	0.14664826
213	0xbd06e742	-0.03293539
214	0x3d064999	0.032785032
215	0x3c11ca6c	0.008898359
216	0xbd022882	-0.031776913
217	0xbc9b80d2	-0.018982325
218	0x3c3c22a3	0.011482867
219	0x3ab6ade2	0.0013937319
220	0xbd3b7253	-0.045763325
221	0xbc806790	-0.015674382
222	0x3c16c376	0.009201875
223	0x3d401aa5	0.04690041
224	0xbe1d3954	-0.153539
225	0x3cb30fab	0.021858057
226	0xbdab3ac0	-0.08360815
227	0xbd067712	-0.032828398
228	0xbdb9543e	-0.09049271
229	0xbd7ba02a	-0.06143204
230	0x3d647e3d	0.055784453
231	0x3bae3e54	0.0053174887
232	0x3c0f451a	0.008744502
233	0x3cc2e435	0.023790458
234	0x3dc7a8c8	0.09748989
235	0xbc279015	-0.010227223
236	0xbdedf340	-0.11618662
237	0x3e077535	0.13228305
238	0x3cf7dffd	0.030258173
239	0xbe500116	-0.20312914
240	0xbd1b0e06	-0.03785517
241	0xbd46b1dc	-0.048509464
242	0xbcae1e51	-0.02125469
243	0x3c0af9ff	0.008482455
244	0xbaa787a9	-0.0012781519
245	0x3c04b8f0	0.008100733
246	0xbba90d76	-0.0051590754
247	0xbdaa8f35	-0.08328096
248	0xba58b53b	-0.00082667515
249	0xbc994e85	-0.018714199
250	0x3b568567	0.0032733323
251	0xbcbbef2e	-0.022941198
252	0xbbdad47d	-0.0066781626
253	0x3dd40326	0.10352163
254	0xbcff0820	-0.031131804
255	0x3d06eaae	0.03293865

enc_conv1.bias f4 [32]
0	0x3e837643	0.25676164
1	0xbd30faaa	-0.043207802
2	0x3e945530	0.28971243
3	0x3f086e3d	0.5329321
4	0x3d19ec33	0.037578773
5	0xbe30570d	-0.17220707
6	0xbb1952b4	-0.0023395242
7	0x3bf7db10	0.007563956
8	0xbe268fc3	-0.16265778
9	0x3ca25d0a	0.019819755
10	0x3e8765f0	0.2644496
11	0xbe1051ce	-0.14093706
12	0xbe304f1d	-0.1721768
13	0xbc4f27c9	-0.012643763
14	0x3f0ded00	0.5543976
15	0x3e7fd851	0.24984862
16	0xbda20c8c	-0.079125494
17	0xbe2af762	-0.16695932
18	0x3e2ea042	0.17053321
19	0x3dfb68a2	0.122758165
20	0x3dadf7c7	0.084945254
21	0xbcf0e830	-0.02940759
22	0x3e4977d2	0.19674614
23	0xbe3160a7	-0.17322026
24	0x3d5b141c	0.053485975
25	0xbd5b9f24	-0.053618565
26	0x3e5b8a8a	0.21439567
27	0xbdc02d5f	-0.09383654
28	0x3b424ce9	0.0029647893
29	0x3ee00431	0.43753198
30	0xbe4f7ebd	-0.2026319
31	0x3e9ad6f5	0.30242124

enc_conv3.weight f4 [32, 32, 3, 3]
0	0xbd8eca5e	-0.06972192
1	0x3c789f14	0.015174646
2	0x3d6372c9	0.05552939
3	0xbdc53f0b	-0.09631165
4	0x3e05fa67	0.13083802
5	0xbe0c80f8	-0.13721073
6	0xbdf6fda4	-0.12060097
7	0xbe3474d7	-0.17622696
8	0xbe083ef3	-0.13305263
9	0xbcb59588	-0.022166029
10	0xbbbde632	-0.0057952637
11	0x3d726499	0.05917797
12	0xbbeee69f	-0.007290676
13	0xbae60623	-0.0017549436
14	0x3c6e5605	0.014546876
15	0x3da1802e	0.078857765
16	0xbd4cb5d6	-0.0499781
17	0x3d4aa351	0.049472157
18	0x3d6b9be4	0.057521716
19	0xbd15a3ed	-0.036533285
20	0xba29803b	-0.0006465946
21	0x3be6d439	0.007044342
22	0xbe3edc9d	-0.18638845
23	0xbdaa97be	-0.08329724
24	0x3cfae446	0.030626427
25	0xbccee1dc	-0.025254183
26	0xbc8c1124	-0.017098017
27	0x3c206478	0.009789579
28	0xbcdeea06	-0.0272112
29	0xbdc91174	-0.09817782
30	0x3e30905a	0.17242566
31	0x3d11bd97	0.035581198
32	0x3d11be5e	0.03558194
33	0x3e3ec448	0.18629563
34	0x3b1a1b21	0.0023514705
35	0x3e38cf69	0.1804787
36	0x3d030adc	0.03199278
37	0x3d4c5302	0.04988385
38	0x3d11cde7	0.035596754
39	0x3bd0ddca	0.0063740956
40	0xbe2f89b9	-0.17142381
41	0xbe7b3c57	-0.24534737
42	0xbdbd7106	-0.09250073
43	0x3d3b1a9d	0.045679677
44	0xbdd1429f	-0.10217785
45	0x3e2bd8d7	0.16781937
46	0xbdc9e86c	-0.09858784
47	0x3bd98a40	0.006638795
48	0x3d4f438f	0.05060154
49	0xbb1cdd27	-0.0023935528
50	0xbcd4c99b	-0.02597504
51	0xbc6d8967	-0.014498091
52	0xbd19e072	-0.037567563
53	0x3bc46d8d	0.005994505
54	0x3cea5d86	0.028609049
55	0x3da68820	0.081314325
56	0x3870c86f	5.7407127e-05
57	0x3b2b7713	0.0026163503
58	0x3df5f009	0.12008674
59	0xbd4697c3	-0.048484575
60	0xbcc9ddf3	-0.024641966
61	0x3b2043dd	0.0024454512
62	0xbdaeddb4	-0.0853838
63	0x3c9641c1	0.0183419
64	0x3d808766	0.06275825
65	0x3d832197	0.06402891
66	0x3d39c7c9	0.045356546
67	0x3ce382f8	0.027772412
68	0x3d54ec0f	0.051982936
69	0x3da4e010	0.08050549
70	0xbd0e6668	-0.03476563
71	0x3c156491	0.009118215
72	0xbd27a4e2	-0.04092873
73	0x3bbdbb92	0.0057901824
74	0x3cd18ef1	0.025580855
75	0xbbde360a	-0.0067813443
76	0xbd1c294d	-0.038125325
77	0xbae97bcc	-0.0017813384
78	0xbd83d1cf	-0.06436502
79	0xbd9f2505	-0.07770733
80	0xbdedde7a	-0.116147
81	0xbcd87704	-0.026423939
82	0xbd42a223	-0.047517907
83	0xbe83e0c7	-0.2575743
84	0xbdcd11a6	-0.10013132
85	0x3cb65b14	0.022260226
86	0x3d457799	0.04820976
87	0x3cb632e5	0.022241065
88	0xbd7a321c	-0.061082944
89	0xbd8abc20	-0.06774163
90	0x3da37183	0.07980635
91	0xbd17054c	-0.036870286
92	0x3e062934	0.13101655
93	0x3e289c57	0.16465889
94	0xbcd21705	-0.025645742
95	0xbbd25b70	-0.0064195916
96	0x3ce5af8c	0.028037809
97	0x3ddb1f8e	0.10699378
98	0x3d053905	0.03252508
99	0x3c8a6cf0	0.016897649
100	0x3def6278	0.11688703
101	0x3dcb107d	0.09915254
102	0x3d20ee73	0.039289903
103	0x3c43fc7f	0.011962055
104	0x3db1bc0d	0.08678446
105	0x3dc84ba2	0.09780051
106	0x3df25b4f	0.11833822
107	0x3e12c33d	0.1433229
108	0xbd30257b	-0.043004494
109	0x3d84db6b	0.06487163
110	0xba6e1d0e	-0.0009083309
111	0xbb38d3b2	-0.0028202352
112	0xbcd43a49	-0.025906699
113	0x3dacb043	0.08432057
114	0x3d65e731	0.056128684
115	0x3bbc628e	0.0057490533
116	0x3dea1d43	0.114313625
117	0x3cedeee7	0.029044582
118	0x3e512d24	0.20427376
119	0xbd868536	-0.06568377
120	0x3ce52bc4	0.02797497
121	0x3dea6ef6	0.11446945
122	0xbbe05dea	-0.006847133
123	0x3e028204	0.1274491
124	0xbe0389b0	-0.12845492
125	0x3d45c2dd	0.04828154
126	0xbc03d72b	-0.0080469055
127	0x3e12914d	0.1431324
128	0x3d0e6dc0	0.034772635
129	0x3d7531c4	0.059861913
130	0x3d4f10c2	0.05055309
131	0xbd474556	-0.04865011
132	0x3d366a98	0.04453525
133	0xbd1798a4	-0.037010804
134	0xbd359273	-0.044329118
135	0xbd2eaac8	-0.04264334
136	0xbd944aae	-0.072408065
137	0xbd8f65c1	-0.0700183
138	0xbc7a08c0	-0.015260875
139	0xbd842ba9	-0.0645364
140	0x3d7e5a4e	0.06209784
141	0xbd76c651	-0.060247723
142	0xbe1d33c2	-0.15351775
143	0x3c3e87f6	0.011629095
144	0x3b2e4c89	0.0026595911
145	0xbd358908	-0.044320136
146	0x3c960d9a	0.018317033
147	0x3cf886c8	0.030337706
148	0x3ceec0c6	0.029144656
149	0xbb991461	-0.004671619
150	0x3dc59222	0.09647013
151	0x3daf9db3	0.085750006
152	0xbc79ef6a	-0.015254835
153	0x3d9544ac	0.07288489
154	0x3d90106d	0.07034383
155	0x3d25abc4	0.04044701
156	0x3dc2ea63	0.09517362
157	0x3cd39b04	0.025830753
158	0x3d12db2e	0.035853557
159	0x3ddc1177	0.10745519
160	0xbd316151	-0.0433057
161	0x3e24bac9	0.16086878
162	0x3d0e30b3	0.034714412
163	0xbd4c4d56	-0.04987844
164	0xbe522c89	-0.20524801
165	0xbde3e869	-0.11128313
166	0xbdb708af	-0.08937203
167	0xbd991a48	-0.07475716
168	0xbddd6d76	-0.10811894
169	0xbe41042f	-0.18849252
170	0xbe03ca33	-0.12870102
171	0xbdab919e	-0.08377384
172	0xbe1c38ea	-0.15256086
173	0x3d6e20fb	0.05813692
174	0x3c962ede	0.018332895
175	0x3d664861	0.05622137
176	0xbb4f97ac	-0.0031676097
177	0xbdd63db6	-0.10460989
178	0xbcbf7c07	-0.02337457
179	0x3e2378c1	0.15964033
180	0xbbf1a39d	-0.0073742406
181	0xbd4500eb	-0.04809658
182	0xbe034f6d	-0.12823267
183	0xbcbed8c5	-0.023296723
184	0x3ce5c3da	0.02804749
185	0x3c02cdd4	0.007983644
186	0xbdb173db	-0.08664676
187	0xbe299410	-0.16560388
188	0xbdf42e2c	-0.11922869
189	0xbd2742c1	-0.040835146
190	0x3dd97a45	0.10619024
191	0xbe0560dc	-0.1302523
192	0x3da72dcd	0.08163033
193	0xbd01448d	-0.031559516
194	0xbdd878a6	-0.10569887
195	0xbdd20265	-0.10254363
196	0xbd44abc8	-0.048015386
197	0xbdaad235	-0.08340875
198	0xbd3b2f61	-0.04569948
199	0x3d48017d	0.048829544
200	0x3d4e478c	0.0503612
201	0x3d0bf068	0.034164816
202	0xbc23fb89	-0.010008701
203	0xbd34a522	-0.044102795
204	0xbe011a14	-0.12607604
205	0xbd532ca7	-0.051556256
206	0xbe442fc1	-0.19158842
207	0x3dd2aee7	0.10287266
208	0x3db0e8bc	0.086381406
209	0x3cc92d41	0.024557712
210	0xbccdc102	-0.025116447
211	0xbc215f61	-0.0098494
212	0x3d47fbc6	0.048824094
213	0x3cad723b	0.021172633
214	0x3d231908	0.039818794
215	0x3c83f540	0.016108155
216	0xbd6ffc92	-0.05859048
217	0x3c46f7c1	0.01214403
218	0x3db0d018	0.08633441
219	0x3e23688b	0.15957849
220	0x3d2cd446	0.042194627
221	0xbcbc08c0	-0.022953391
222	0x3da7a10e	0.081850156
223	0x3d5f165e	0.05446469
224	0x3dc60fa0	0.09670949
225	0x3dcb72a4	0.09933975
226	0x3c0cb975	0.008589138
227	0x3dafb976	0.08580296
228	0x3cf48666	0.029849242
229	0xbc6ba284	-0.014382008
230	0x3cdc1059	0.026863264
231	0x3d2cf2b3	0.042223644
232	0xbbc62447	-0.006046805
233	0x3e268389	0.16261114
234	0xbd76bbe3	-0.060237776
235	0xbd91fac8	-0.07127911
236	0xbe477f9e	-0.19482276
237	0xbe83da62	-0.2575255
238	0xbec07855	-0.37591806
239	0xbeecf73c	-0.46282375
240	0xbe82914b	-0.25501475
241	0xbeac0269	-0.3359559
242	0xbec932aa	-0.39296466
243	0xbc822762	-0.01588792
244	0x3dde9379	0.10867972
245	0xbdc6bd19	-0.09704036
246	0xbccfcb2e	-0.025365438
247	0xbd40f1e3	-0.04710568
248	0xbe16a7a7	-0.14712392
249	0xbd8dd1e8	-0.06924802
250	0x3d267499	0.04063854
251	0xbd6c3f58	-0.057677597
252	0xbe0b1c38	-0.13584983
253	0x3c6247ab	0.013811032
254	0xbe2dddc6	-0.16979131
255	0xbdcede46	-0.10100989

enc_conv3.bias f4 [32]
0	0x3e70fa73	0.23533039
1	0x3e19f15d	0.15033479
2	0x3e92293a	0.28547078
3	0x3e90482c	0.28180063
4	0x3ef02127	0.46900293
5	0x3e80e1cf	0.25172278
6	0xbe08e19d	-0.13367315
7	0x3e7888fa	0.24271002
8	0x3d0d89a4	0.034555092
9	0x3e30f62a	0.17281404
10	0x3e4dea9b	0.20109026
11	0x3db1c4d8	0.08680123
12	0xbdfe68da	-0.124223426
13	0x3e68c91b	0.22732966
14	0x3eb20f4c	0.34777296
15	0xbe3a4e98	-0.18194044
16	0x3c8b0556	0.016970318
17	0x3e8029bc	0.2503184
18	0xbe98bc8e	-0.29831356
19	0x3de72e04	0.11288074
20	0xbc4028d1	-0.011728481
21	0xbe3d16d8	-0.18465745
22	0xbdca6227	-0.09882002
23	0xbd072579	-0.03299472
24	0xbde005d6	-0.10938613
25	0x3e7fb894	0.24972755
26	0x3e051ed2	0.13000038
27	0x3e69a3f8	0.22816455
28	0x3d0ae55c	0.03391014
29	0x3e06e0a9	0.13171639
30	0x3e97caf6	0.29647034
31	0xbebacb68	-0.36483312

dec_conv2a.weight f4 [64, 64, 3, 3]
0	0xbdd8c744	-0.10584882
1	0xbba03aaf	-0.004889808
2	0xbda2d196	-0.079501316
3	0x3e06e19f	0.13172005
4	0x3d818538	0.063242376
5	0xbd091f44	-0.033477083
6	0xbd5038b6	-0.050835334
7	0xbe827584	-0.25480282
8	0x3c8e8cf4	0.017401196
9	0xbe358fd9	-0.17730655
10	0x39e67d04	0.00043962162
11	0xbdabd431	-0.08390082
12	0xbe8094c6	-0.25113505
13	0x3ddee031	0.10882605
14	0x3cd6f3dd	0.02623933
15	0x3c174ae9	0.009234169
16	0x3caf4ae4	0.021398015
17	0x3d6ef1d1	0.058336083
18	0x3e7d6860	0.24746847
19	0xbcfa0c62	-0.030523483
20	0xbd8a396b	-0.06749233
21	0x3dd9ce66	0.106350705
22	0xbea1fe57	-0.31639358
23	0x3daf48e2	0.08558823
24	0xbe1293ed	-0.14314242
25	0x3c1aa6b5	0.00943916
26	0x3e3164d8	0.17323625
27	0xbe52f935	-0.20602877
28	0xbd052a26	-0.0325109
29	0x3a9ac8b7	0.0011809085
30	0x3cc49344	0.023996003
31	0x3da333b8	0.07968849
32	0x3db4f628	0.08836013
33	0x3c80cfff	0.01572418
34	0x3d1ba7b4	0.03800173
35	0x3d477dbd	0.048703898
36	0xbe5e8caf	-0.21733354
37	0xbe63a57c	-0.22231096
38	0x3cd6f6b6	0.026240688
39	0x3e2007a1	0.1562791
40	0xbe71bd50	-0.23607373
41	0xbd1b2d29	-0.037884865
42	0x3e137634	0.1440056
43	0xbe8ec5dd	-0.27885333
44	0x3d80222f	0.0625652
45	0x3dabed6b	0.08394893
46	0xbddd72d4	-0.10812917
47	0x3dc23ce9	0.09484274
48	0x3d7b7ac9	0.061396394
49	0x3d011773	0.031516504
50	0xbdc81901	-0.09770394
51	0xbe53db5f	-0.20689152
52	0xbd658662	-0.05603636
53	0x3d6a9cae	0.057278328
54	0x3d892357	0.06696194
55	0xbce6a4b7	-0.028154714
56	0x3d67e1f9	0.05661199
57	0x3e3b2360	0.18275213
58	0x3cbf5149	0.02335419
59	0x3da0011f	0.07812714
60	0x3d954f54	0.07290521
61	0x3e35b1be	0.17743585
62	0xbb0e8824	-0.0021748627
63	0x3c952b3b	0.01820909
64	0x3bdbfe29	0.006713648
65	0xbd176d22	-0.03696931
66	0xbcee520e	-0.029091861
67	0x3b88c7fc	0.0041742306
68	0xbad833e8	-0.0016494961
69	0x3b484cbf	0.0030563322
70	0xbe272500	-0.16322708
71	0x3cfd084d	0.030887747
72	0x3de4394d	0.11143742
73	0xbe47e813	-0.19522123
74	0xbdd170aa	-0.10226567
75	0x3d8a7051	0.06759704
76	0xbd7dcb70	-0.06196159
77	0xbe4c83f1	-0.19972207
78	0x3dd1327f	0.102147095
79	0xbd607e4f	-0.054807957
80	0x3cbfe624	0.02342517
81	0xbe35193f	-0.17685412
82	0x3da1ca58	0.07899922
83	0xb9e646c6	-0.0004392175
84	0x3d628a28	0.055307537
85	0xbdc972b8	-0.09836334
86	0xbe1b5d15	-0.15172227
87	0x3db72356	0.08942287
88	0xbd9196a4	-0.071088105
89	0xbcb7a9c1	-0.022419812
90	0xbd74dcc2	-0.059780844
91	0xbdc46c88	-0.09591013
92	0xbd78b9ca	-0.060724057
93	0xbe033418	-0.12812841
94	0xbb3c23ed	-0.0028707937
95	0xbd71fdee	-0.059080057
96	0x3da07107	0.07834058
97	0xbd8a1b59	-0.067434974
98	0xbd130d31	-0.035901252
99	0x3e34d98f	0.17661117
100	0x3caf2021	0.021377625
101	0xbb6722c6	-0.003526853
102	0x3d4370b0	0.04771489
103	0xbdc21021	-0.094757326
104	0x3d850261	0.06494594
105	0x3d0e50a7	0.034744885
106	0xbe7e8ff1	-0.24859597
107	0xba746b91	-0.000932389
108	0x3d99966d	0.074993946
109	0x3de07b55	0.10961024
110	0xbbed1733	-0.0072354316
111	0xbe6bd918	-0.23032033
112	0xbdc78be8	-0.09743482
113	0xbd9bcd54	-0.076075226
114	0x3d811fe5	0.063049115
115	0x3d36f252	0.04466469
116	0xbc57fc36	-0.01318269
117	0xbbcf1183	-0.006319226
118	0xbcb8076b	-0.022464475
119	0xbd29b494	-0.04143198
120	0xbd844e95	-0.06460301
121	0x3d754e94	0.05988939
122	0x3bc9b6f4	0.006155843
123	0x3c9a59c4	0.018841632
124	0xbd3b586f	-0.045738634
125	0x3c7f2446	0.015572613
126	0x3d84f255	0.06491534
127	0xbd9d410a	-0.07678421
128	0xbdedcf76	-0.11611836
129	0x3dda2b8d	0.10652838
130	0x3cd802fa	0.026368607
131	0xbe5f35c0	-0.21797848
132	0xbce89453	-0.028391039
133	0x3d039628	0.032125622
134	0xbe0062f3	-0.12537746
135	0xbd82fa62	-0.06395413
136	0xbbe8e801	-0.007107735
137	0x3d9aa3f3	0.07550802
138	0xbea49f73	-0.321529
139	0x3d42a2bb	0.047518473
140	0xbe160dec	-0.14653748
141	0x3d23abf2	0.0399589
142	0x3d07c1a4	0.033143654
143	0xbe24521b	-0.16046946
144	0xbdc029e7	-0.09382992
145	0xbd28fa20	-0.041254163
146	0x3de11fef	0.10992419
147	0xbd15f712	-0.036612578
148	0xbd96042b	-0.07325014
149	0x3e12b956	0.14328513
150	0xbda6d4e3	-0.08146074
151	0xbe49b76e	-0.19698879
152	0x3c5fe330	0.013665006
153	0x3c228b3f	0.009920894
154	0xbda0269d	-0.07819865
155	0x3d7682c9	0.06018332
156	0x3e584273	0.21119098
157	0xb9c57009	-0.0003765824
158	0xbd42e696	-0.047583185
159	0xbd2826ab	-0.0410525
160	0xbd69cf9a	-0.05708275
161	0x3d82c49f	0.06385159
162	0x3e679151	0.22614028
163	0xbd54d999	-0.05196533
164	0x3cecdfd6	0.028915327
165	0x3dd8ad01	0.10579873
166	0x3cc7e2b0	0.024400085
167	0xbd7f1c46	-0.062282823
168	0x3e7294a9	0.23689522
169	0x3d0f4f01	0.034987453
170	0x3d1f976c	0.038962767
171	0x3d3636fe	0.04448604
172	0xbc824df8	-0.015906319
173	0xbdd7b816	-0.105331585
174	0xbd004689	-0.031317268
175	0xbe5d498b	-0.21610086
176	0x3d5d5183	0.054032814
177	0x3a106239	0.00055078004
178	0x3db2ad42	0.087244526
179	0x3c68f8f1	0.0142195085
180	0x3dd42cd4	0.10360113
181	0xbd4a63f8	-0.049411744
182	0x3d03baca	0.032160558
183	0xbdf0d6ea	-0.117597416
184	0x3e07cfb8	0.13262832
185	0xbe1ee044	-0.15515238
186	0x3d721e0f	0.059110697
187	0xb971cd97	-0.00023060139
188	0xbdc10054	-0.09423891
189	0x3d3c5f33	0.045989227
190	0x3db1d133	0.0868248
191	0xbdc70902	-0.09718515
192	0x3b3ea29d	0.0029088624
193	0x3dd3a9aa	0.10335095
194	0x3d1f9879	0.03896377
195	0xbe33c318	-0.17554891
196	0x3d46ac7c	0.048504338
197	0x3dd7f83e	0.10545395
198	0xbd446e39	-0.04795668
199	0x3d8c6d11	0.0685674
200	0xbda9b294	-0.08286014
201	0x3c9e5900	0.019329548
202	0xbd963115	-0.073335804
203	0xbd93cec9	-0.072171755
204	0x3e22dfd3	0.15905695
205	0xbd1587ad	-0.036506344
206	0x3dd4f0d8	0.103975
207	0x3dd1d66b	0.10245975
208	0x3c5c40b2	0.013443159
209	0xbd99f25c	-0.075169295
210	0x3c239fcb	0.009986828
211	0xbc4a9b9c	-0.012366202
212	0xbd11d218	-0.03560075
213	0xbcb1398d	-0.021633888
214	0xbd129530	-0.035786808
215	0x3d058b49	0.032603536
216	0xbd9cb06e	-0.07650839
217	0xbc3c5b93	-0.011496442
218	0x3d876982	0.06611921
219	0xbbce1e9a	-0.006290269
220	0xbda79a96	-0.08183782
221	0x3dc122a9	0.09430439
222	0xbd87dd61	-0.066340216
223	0xbe48c1d0	-0.19605184
224	0xbdecdf2f	-0.115660064
225	0xbd56865f	-0.05237424
226	0xbd90cd13	-0.07070365
227	0x3d823600	0.06357956
228	0xbe92766f	-0.28605983
229	0xbd3d6759	-0.046241138
230	0x3e2d9c64	0.1695419
231	0xbe7b2fd2	-0.24529961
232	0xbd1b518c	-0.037919566
233	0xbccdfa29	-0.0251437
234	0xbcf97537	-0.0304514
235	0x3dadad69	0.08480341
236	0xbd843165	-0.06454734
237	0x3d50ae75	0.050947625
238	0xbe82ac8f	-0.25522277
239	0xbd58b7fe	-0.052909844
240	0x3d8af61d	0.06785224
241	0x3b6597c9	0.0035033098
242	0xbc9f5c55	-0.019453207
243	0x3af00978	0.0018313369
244	0x3c12dbd5	0.008963545
245	0xbe011d1a	-0.12608758
246	0x3d24364f	0.040090855
247	0xbe38a65d	-0.18032213
248	0x3d25bc5f	0.040462848
249	0x3d8cdeea	0.06878455
250	0x3cc2049e	0.023683842
251	0x3cf9ad88	0.030478254
252	0x3c30f5b4	0.010800768
253	0x3d8f9ff8	0.070129335
254	0xbcb4bac8	-0.02206172
255	0x3df9e837	0.122024946

dec_conv2a.bias f4 [64]
0	0x3cad117d	0.021126503
1	0xbdbe0a08	-0.09279257
2	0x3e2e1d36	0.1700333
3	0xbdd921bf	-0.1060214
4	0x3e315320	0.17316866
5	0xbe1f4a9d	-0.15555806
6	0x3dd16e69	0.10226137
7	0x3e8b1bb7	0.27169582
8	0x3e629e6a	0.22130743
9	0x3e013df1	0.12621285
10	0x3d5c1aeb	0.05373661
11	0xbd82cb43	-0.06386425
12	0x3e0f99f2	0.14023569
13	0x3d896000	0.06707764
14	0xbe9402e0	-0.28908443
15	0x3d7fe1fe	0.062471382
16	0x3ccce2de	0.025010522
17	0xbe6d271e	-0.23159453
18	0x3e241c1f	0.16026352
19	0xbda0a6ff	-0.07844352
20	0xbd00ab71	-0.0314135
21	0x3daaea82	0.0834551
22	0xbe0badee	-0.13640568
23	0xbd985014	-0.07437149
24	0xbde62697	-0.11237829
25	0xbea640c9	-0.32471302
26	0x3cb79c33	0.022413349
27	0xbe337e97	-0.17528759
28	0xbde6f8e9	-0.112779446
29	0x3ca0969a	0.019603062
30	0x3e77dad8	0.24204576
31	0xbdd29b2b	-0.10283502
32	0x3c2cd488	0.010548718
33	0xbdd41983	-0.103564285
34	0xbe02b1e8	-0.12763178
35	0xbc4419e9	-0.011969068
36	0xbdbd3170	-0.09237945
37	0x3d74e454	0.059788063
38	0x3d9dbbba	0.077018216
39	0x3e302dfc	0.17205042
40	0x3d118b0d	0.035533
41	0x3dc2505d	0.09487984
42	0xbe92f95a	-0.28705865
43	0x3d5700fb	0.05249117
44	0x3ca7849e	0.020448979
45	0xbec1ac45	-0.37826744
46	0x3dca412a	0.0987571
47	0xbe30c416	-0.17262301
48	0x3dc2d93c	0.095140904
49	0x3e44b03a	0.1920785
50	0xbe6554a4	-0.22395569
51	0xbe25f2fb	-0.16205971
52	0x3e5e2a3a	0.21695796
53	0xbe19c279	-0.15015592
54	0xbe397d11	-0.18114115
55	0xbd5aca54	-0.05341561
56	0x3e80c6d7	0.25151703
57	0x3e7ccc50	0.24687314
58	0xbd8fdae8	-0.07024175
59	0x3ddaefd0	0.10690272
60	0xbe3f00fa	-0.18652716
61	0x3dfc9d6c	0.12334713
62	0xbd196798	-0.03745231
63	0xbc904c92	-0.017614637

dec_conv2b.weight f4 [64, 64, 3, 3]
0	0x3d07d6f6	0.033163987
1	0xbc02229b	-0.007942821
2	0x3cb12abe	0.021626826
3	0x3c610906	0.0137350615
4	0xbb4c0040	-0.0031128079
5	0xbbee7376	-0.0072769476
6	0xbc278cdb	-0.010226454
7	0x3c315c2b	0.010825197
8	0xbcca95b6	-0.02472959
9	0xbb517140	-0.0031958371
10	0xbd0c21d4	-0.03421195
11	0xbc9c37a0	-0.019069493
12	0xbd0ff22c	-0.035143062
13	0xbc4daa2b	-0.012552778
14	0xbcc574a0	-0.024103463
15	0x3cbe8bfb	0.023260107
16	0xbd08ca37	-0.033395972
17	0xbc97a04b	-0.01850905
18	0x3baa992b	0.0052062473
19	0xbb63f396	-0.003478264
20	0x3d245683	0.040121567
21	0x3c0abf76	0.008468499
22	0x3cb9a976	0.022663813
23	0x3cb59403	0.022165304
24	0x3ccbc7a3	0.024875468
25	0x3be7fa00	0.007079363
26	0x3c2ce1a6	0.010551846
27	0xbcf465cb	-0.029833695
28	0xbc92a060	-0.017898738
29	0x3c97cf56	0.018531483
30	0xbba9c5ab	-0.0051810346
31	0xbd1899b8	-0.037255973
32	0x3c18fa7b	0.009337063
33	0x3c57513b	0.013141925
34	0x3c801fb3	0.015640115
35	0x3b1aa9ab	0.0023599665
36	0x3d215bfa	0.039394356
37	0x3cc71dd6	0.02430622
38	0x3c838d58	0.016058609
39	0xbd2995c6	-0.0414026
40	0x3cca0c5b	0.024664095
41	0x3c7e7346	0.015530413
42	0xbd03144f	-0.03200179
43	0xbc778b10	-0.015108839
44	0xbd1d6463	-0.038425814
45	0xb8192556	-3.6512814e-05
46	0x3d179b2a	0.03701321
47	0x3bf3dc40	0.0074420273
48	0xbcd7df7e	-0.026351687
49	0xbc5e401b	-0.013565089
50	0xbc0e6b96	-0.008692643
51	0x3d1ee0eb	0.038788717
52	0xbc97f8d8	-0.018551275
53	0xbc2931c0	-0.010326803
54	0x3d1286d7	0.035773125
55	0xbbbdd30b	-0.0057929805
56	0x3d1b4404	0.03790666
57	0x3d1592cb	0.036516946
58	0xbcd6bc93	-0.026212966
59	0xbc93ecd3	-0.018057263
60	0xbc123306	-0.008923298
61	0xbcaec23e	-0.021332856
62	0x3cd7864e	0.026309159
63	0x3d0bbf8b	0.034118216
64	0x3ca304ae	0.019899692
65	0xbcdb8766	-0.026797961
66	0xbbca82d6	-0.0061801476
67	0x3d1376a8	0.03600183
68	0xbc2afb60	-0.010435909
69	0xbd047ef6	-0.032347642
70	0xbc9aa998	-0.018879697
71	0x3c4b93bb	0.012425358
72	0xbc9e78d3	-0.019344723
73	0xbc158ad0	-0.009127334
74	0x3c7074fb	0.014676328
75	0x3b18ceeb	0.0023316692
76	0x3d11a5c0	0.035558462
77	0xbb51b896	-0.003200089
78	0x3c8213de	0.015878614
79	0xbc923de8	-0.017851785
80	0x3d0f00d7	0.03491291
81	0x3ccbdba6	0.02488501
82	0xbd07f0fa	-0.033188798
83	0x3d061b0f	0.03274065
84	0xbceefcf8	-0.02917336
85	0x3b9d0900	0.0047923326
86	0xbce87806	-0.028377544
87	0x3c8558d0	0.0162777
88	0xbcaf35db	-0.021387985
89	0xbd268b30	-0.040660083
90	0x3d083ffc	0.033264145
91	0xbc0d4636	-0.008622697
92	0xbcd60bfb	-0.02612876
93	0xbb772a80	-0.003771454
94	0xbcff59a0	-0.031170666
95	0x3cb47228	0.02202709
96	0x3b52096b	0.003204907
97	0x3d236a73	0.03989644
98	0x3cbdf3fb	0.023187628
99	0xbd0b3dfe	-0.033994667
100	0x3d05af3a	0.032637812
101	0xbbbc06e0	-0.0057381243
102	0xbb8a6936	-0.004223968
103	0x3bc03ef6	0.0058668805
104	0x3cc7edbe	0.024405356
105	0xbc1b4cab	-0.009478728
106	0x3d039eec	0.03213398
107	0x3caf6cfe	0.021414276
108	0x3caac8e8	0.020847753
109	0x3c9853ae	0.01859459
110	0xbc96f788	-0.018428579
111	0xbcc144ce	-0.023592379
112	0x3cedb608	0.029017463
113	0xbc9cc6ce	-0.019137766
114	0xbcfd1d1b	-0.030897668
115	0xbbc5a9cb	-0.006032204
116	0xbc8faf83	-0.017539745
117	0x3cb941e0	0.02261442
118	0xbbad8e36	-0.005296494
119	0x3ad5192b	0.0016258111
120	0xbceaae98	-0.028647706
121	0x3c6f2070	0.014595136
122	0x3cfd07d6	0.030887526
123	0xbc75f300	-0.015011549
124	0x3bebd06b	0.007196476
125	0x3b928940	0.004471928
126	0x3c195096	0.009357592
127	0x3c2de4a6	0.010613596
128	0xbc5767f0	-0.013147339
129	0xbc37068b	-0.011170994
130	0x3ce745db	0.028231552
131	0x3ba9bd00	0.0051800013
132	0xbc573770	-0.013135776
133	0xbc8147a8	-0.015781239
134	0xbcc7ed26	-0.024405073
135	0xbcbaabae	-0.022786941
136	0xbcf3cadb	-0.029759815
137	0x3d26f023	0.040756356
138	0xbc9cbe53	-0.019133722
139	0xbcdd6e78	-0.027030215
140	0x3ba6d9f6	0.005091901
141	0xbc654d66	-0.013995504
142	0xbc811f03	-0.015761858
143	0xbd0f5bcf	-0.034999665
144	0x3cd50723	0.02600438
145	0x3cb60c70	0.022222728
146	0x3bdfa800	0.006825447
147	0xbce31260	-0.027718723
148	0xbc36ea4b	-0.011164258
149	0xbcaa8418	-0.02081494
150	0x3c8e8e80	0.017401934
151	0x3ceaa270	0.02864191
152	0xbcc6ed38	-0.024283037
153	0xbbc0e7cb	-0.005887007
154	0xbd244870	-0.040108144
155	0xbd1bfa02	-0.038080223
156	0x3c88c8a3	0.016697234
157	0xbd17763c	-0.03697799
158	0xbc2cd63b	-0.010549123
159	0x3cddd058	0.027076885
160	0xbcd00683	-0.02539373
161	0x3c88093b	0.016605964
162	0xbb8619f6	-0.0040924503
163	0xbceed3b6	-0.029153686
164	0xbd18ad5c	-0.037274703
165	0xbc393420	-0.0113039315
166	0x3d18ca56	0.037302338
167	0x3d2a2a20	0.04154408
168	0xbcb4f323	-0.022088593
169	0xbbc6852b	-0.0060583553
170	0x3d0bbd0b	0.034115832
171	0x3bafaea0	0.005361393
172	0x3ca8ca5e	0.020604309
173	0xbd09a73c	-0.033606753
174	0x3d227484	0.0396619
175	0xbd264723	-0.040595185
176	0x3bd635e0	0.006537184
177	0xbd06ecb3	-0.032940578
178	0x3ce41090	0.027839929
179	0x3d148840	0.03626275
180	0xbd26343f	-0.04057717
181	0xbc974ccb	-0.018469235
182	0xbc29ce36	-0.010364106
183	0x3bfe4dcb	0.0077607385
184	0x3d1b32f2	0.037890382
185	0x3d24d7c4	0.040244833
186	0x3ae868d6	0.0017731439
187	0xba868cab	-0.0010265311
188	0xbb7902eb	-0.0037996124
189	0xbb029bd6	-0.0019929311
190	0x3cbbeb23	0.02293927
191	0xbd17f5e3	-0.03709973
192	0xbcebc68b	-0.028781196
193	0xbd1be1a0	-0.03805697
194	0xbd28d10f	-0.041215
195	0xbce66c5b	-0.02812784
196	0x3cb336c6	0.021876704
197	0x3d10918b	0.03529505
198	0x3bfd9bf6	0.0077395393
199	0x3c75cd20	0.015002519
200	0xbd20c5d6	-0.03925117
201	0xbd0e6682	-0.034765728
202	0xbc5a4020	-0.013320953
203	0x3ca2bd16	0.019865554
204	0xbcd6ab96	-0.026204865
205	0x3ce1b406	0.027551662
206	0x3c9757fb	0.01847457
207	0x3ce17198	0.027519986
208	0x3c7b5626	0.015340364
209	0x3c6562bb	0.01400059
210	0x3d15c78f	0.036567267
211	0xbcdeb06e	-0.027183738
212	0x3c01cd10	0.007922426
213	0x3be5a60b	0.0070083193
214	0xbcde2dcb	-0.027121445
215	0x3c398c3b	0.011324937
216	0x3caf8a50	0.021428257
217	0xbadc9ad6	-0.0016830813
218	0xbb5042c0	-0.0031778067
219	0xbd06f0f6	-0.032944642
220	0x3d0063c8	0.03134516
221	0xbbd8cd40	-0.0066162646
222	0x3d16472c	0.03668897
223	0xbc0dd0c6	-0.0086557325
224	0xbc8da80e	-0.017292049
225	0xba5a3e56	-0.0008325329
226	0x3d160548	0.03662613
227	0xbcb207a3	-0.021732157
228	0x3d0e573b	0.03475116
229	0x3ca4d156	0.02011935
230	0x3cbbdcf8	0.022932515
231	0xbcb29e73	-0.02180407
232	0x3c9bdf6e	0.019027438
233	0x3d2656ab	0.040609997
234	0xbce0fd7e	-0.027464624
235	0x3d1679c3	0.036737215
236	0x3b5937d6	0.0033144853
237	0x3b99ffb6	0.0046996726
238	0xbba93d56	-0.0051647825
239	0xbcc09893	-0.023510253
240	0x3c7504cb	0.014954756
241	0x3d06babf	0.03289294
242	0xbb764fc0	-0.0037584156
243	0x3c6defb6	0.014522484
244	0x3bcaca16	0.0061886413
245	0x3d07c886	0.03315022
246	0xbc05af26	-0.008159434
247	0x3c1e1056	0.0096474495
248	0xbcad673e	-0.021167394
249	0xbcf3817b	-0.029724827
250	0x3ce30f73	0.027717328
251	0xbccebf6e	-0.025237765
252	0x3d086a58	0.033304542
253	0xb7da6000	-2.6032329e-05
254	0x3b962ef6	0.004583235
255	0xbd0bde87	-0.034147765

dec_conv2b.bias f4 [64]
0	0x3c97d4e6	0.018534135
1	0x3d280573	0.04102082
2	0xbb16326b	-0.0022918235
3	0x3d1a6966	0.037698172
4	0xbd0ba60a	-0.034093894
5	0x3d093887	0.033501174
6	0x3cbe532b	0.023233017
7	0xb905bc00	-0.00012753904
8	0xbb5ca1ab	-0.0033665698
9	0x3d194b06	0.037425064
10	0x3b7974ab	0.0038063924
11	0xbd25e12e	-0.04049795
12	0xbc8e2d36	-0.017355543
13	0x3d00640e	0.03134542
14	0x3cc4850b	0.023989221
15	0xbd00b2ac	-0.031420395
16	0xbc5f2766	-0.013620233
17	0xbd2a84e4	-0.04163064
18	0xbd06a15e	-0.032868735
19	0x3cb725cb	0.022356888
20	0x3cfacb78	0.0306146
21	0xbcaee5d8	-0.021349832
22	0xbd1fca3e	-0.039011233
23	0x3bdceee0	0.0067423433
24	0xbc3c35c0	-0.011487424
25	0xbd036e1a	-0.032087423
26	0x3ce57923	0.028011864
27	0xbcf9f68b	-0.030513069
28	0x3c81fd13	0.015867746
29	0x3c687766	0.014188623
30	0xbc910e03	-0.017706877
31	0xbc8ee2bb	-0.017442098
32	0xbd02e9d8	-0.031961292
33	0xbc23e70b	-0.010003815
34	0x3d2633b3	0.040576648
35	0x3c6f6400	0.014611244
36	0xbc9601a3	-0.018311327
37	0x3ca18f83	0.019721752
38	0x3d268f63	0.040664088
39	0xbc9bfe6b	-0.019042214
40	0xbcb3a4ae	-0.021929111
41	0x3d22eb4c	0.039775178
42	0xbc33a480	-0.010964513
43	0xb97f4c00	-0.00024347007
44	0x3b873640	0.00412634
45	0x3c09e12b	0.008415501
46	0x3d035942	0.032067545
47	0x3cf9a4a8	0.030474022
48	0xbc90e016	-0.017684978
49	0xbd17a277	-0.037020173
50	0xbb0aee80	-0.0021199286
51	0x3bb9aae0	0.005666122
52	0xbd0ca76f	-0.034339365
53	0xbd29f85f	-0.04149663
54	0x3d23372f	0.03984755
55	0xbc6ca8b0	-0.014444515
56	0xbd193ccc	-0.037411496
57	0x3c2acac0	0.010424316
58	0x3c1ba746	0.00950033
59	0x3d224ec0	0.039625883
60	0x3cb72a10	0.022358924
61	0x3c984a33	0.018590068
62	0xbcf671a0	-0.030083477
63	0xbd22b5a3	-0.039724004

dec_conv1a.weight f4 [32, 67, 3, 3]
0	0x3d03c9ff	0.03217506
1	0x3cc973f0	0.024591416
2	0x3cdfb061	0.027305784
3	0x3b98fa4d	0.00466851
4	0x3d399ca7	0.04531541
5	0x3c4baf79	0.012431973
6	0x3d73f945	0.059563894
7	0xbd15e0a9	-0.036591206
8	0xbd0d22f8	-0.034457177
9	0x3c896bd8	0.016775057
10	0x3d9a4684	0.07532981
11	0x3c79c349	0.0152443135
12	0xbc165580	-0.009175658
13	0x3cdca687	0.026934875
14	0x3d321337	0.043475356
15	0x3d2b4afc	0.041819558
16	0xbd679315	-0.056536753
17	0xbdeaf975	-0.114733614
18	0xbd247247	-0.040148046
19	0xbcc2a5e1	-0.023760738
20	0xbcb50344	-0.022096284
21	0xbc8f0ffe	-0.01746368
22	0xbd29b43c	-0.04143165
23	0xbd23ab23	-0.03995813
24	0xbcf771bf	-0.030205606
25	0xbce07d7e	-0.02740359
26	0xbd2334eb	-0.03984539
27	0x3d00df28	0.03146282
28	0x3cce4cba	0.02518307
29	0x3c2492b6	0.010044744
30	0xbc8ea79d	-0.017413909
31	0x3cdaf093	0.026726043
32	0xbcd44aaf	-0.025914518
33	0xbd1c4558	-0.03815207
34	0xbd2f44d6	-0.042790256
35	0x3cbc4a88	0.022984758
36	0xbd9f9256	-0.07791583
37	0x3ddd1810	0.10795605
38	0x3cb9c0ff	0.022675036
39	0x3d8e9414	0.069618374
40	0x3e2f2736	0.17104802
41	0x3e1525e6	0.14565238
42	0xbcf96e93	-0.030448234
43	0x39e910b0	0.00044453656
44	0x3d01cb7e	0.031688206
45	0xbc905a16	-0.017621081
46	0xbdb51fdd	-0.08843968
47	0xbdb8bf24	-0.09020832
48	0x3d649e8a	0.055815257
49	0xba21f375	-0.00061779405
50	0xbc5d829c	-0.013519909
51	0xbd27acd2	-0.0409363
52	0xbc0e3fc8	-0.008682199
53	0x3d6214a3	0.055195462
54	0xbe092097	-0.13391338
55	0x3d0c8fa5	0.034316678
56	0xbde35c9a	-0.11101647
57	0x3d1e074d	0.03858118
58	0x3dd9f5dd	0.10642598
59	0x3d0dccab	0.034619015
60	0xbbd6dd44	-0.0065571386
61	0x3b4a70d4	0.0030890005
62	0xbb856ae2	-0.0040715793
63	0xbd933344	-0.071875125
64	0x3d12fd1e	0.035885923
65	0x3c235cd9	0.009970867
66	0x3b004a1c	0.0019575423
67	0x3e08ddfe	0.13365933
68	0x3b708dae	0.0036705541
69	0xbccde7d1	-0.025134953
70	0x3d93efb2	0.07223453
71	0x3c0c0783	0.008546713
72	0x3d058e71	0.032606546
73	0x3d3c1462	0.045917876
74	0x3d096314	0.033541754
75	0x3d9a08e0	0.07521224
76	0x3d64176a	0.055686392
77	0x3dc71510	0.09720814
78	0xbd036f9d	-0.032088865
79	0xbd86093c	-0.0654473
80	0xbd3b82bc	-0.045778975
81	0xbd68ce46	-0.056837343
82	0x3d3e23e8	0.04642096
83	0x3da7a142	0.08185054
84	0xbd0f3704	-0.034964576
85	0x3b497525	0.003073999
86	0xba0499ad	-0.00050583
87	0xbae1f624	-0.0017239493
88	0x3d4982c3	0.04919697
89	0x3d96b3d1	0.07358516
90	0xbdc3e327	-0.0956481
91	0xbceb11ad	-0.028694952
92	0x3c904975	0.017613152
93	0x3d071563	0.03297938
94	0x3da525d8	0.08063859
95	0x3d1bb63b	0.038015585
96	0xbd3f0259	-0.0466331
97	0x3d87fda9	0.06640179
98	0x3d216d1b	0.03941069
99	0x3d13b043	0.03605677
100	0x3d5f22d8	0.05447659
101	0xbd265c54	-0.040615395
102	0xbcca4d99	-0.024695205
103	0x3de1f471	0.110329516
104	0xbc3acdfb	-0.011401649
105	0xbd79705c	-0.06089817
106	0x3cca3c9e	0.024687108
107	0x3d86294f	0.06550848
108	0x3bc2a91b	0.005940569
109	0x3e47fa26	0.19529018
110	0x3c20c09d	0.009811548
111	0x3d7ceb03	0.061747562
112	0x3e381249	0.17975725
113	0x3d955448	0.07291466
114	0xbb26ba74	-0.0025440725
115	0x3da0e5ec	0.07856354
116	0x3c8ea874	0.01741431
117	0x3d326c72	0.043560453
118	0xbc280a65	-0.0102563845
119	0xbbb3c5d1	-0.005486228
120	0xbd3e5dda	-0.046476223
121	0x37aa348b	2.0290046e-05
122	0xbcac3107	-0.021019472
123	0x3d21169e	0.03932821
124	0x3b66d2dd	0.00352209
125	0xbb8dc211	-0.004326113
126	0x3c4809a2	0.012209328
127	0xbd4fd884	-0.050743595
128	0xbd2445eb	-0.04010574
129	0x3c0d46cc	0.008622836
130	0xbcb3ff3f	-0.021972297
131	0xbda27fd4	-0.079345375
132	0x3c5014e4	0.012700293
133	0x3cae6c53	0.021291887
134	0xbc4ce4fd	-0.012505767
135	0xbc7c8eda	-0.015414918
136	0xbd11e90d	-0.035622645
137	0xbb85047e	-0.0040593734
138	0x3c933233	0.017968273
139	0x3c7251da	0.014790023
140	0x3d2dc81a	0.04242716
141	0xbcc25360	-0.023721397
142	0xbb5c62b9	-0.003362818
143	0x3d56926e	0.05238574
144	0xbcb522fb	-0.022111407
145	0x3d23093b	0.039803725
146	0x3dbf9b31	0.09355772
147	0xbda425c1	-0.080150135
148	0x3d5e156e	0.054219656
149	0x3dc7f47b	0.09763428
150	0xbd811d0c	-0.063043684
151	0xbdbacdc6	-0.091212794
152	0x3c9c604a	0.019088883
153	0x3d94f72e	0.07273708
154	0xbbf06956	-0.007336776
155	0xbced964c	-0.029002331
156	0xbc665430	-0.014058158
157	0xbdb1a68f	-0.08674347
158	0xbda4c698	-0.08045691
159	0xbbb4c404	-0.005516531
160	0x3c69e3b8	0.014275484
161	0x3cbdd000	0.023170471
162	0xbc95c5d5	-0.01828281
163	0xbd6aec6f	-0.057354387
164	0x3bee6b2d	0.00727596
165	0xbda52f29	-0.08065636
166	0xbca69dfc	-0.020339005
167	0xbc00cd39	-0.007861429
168	0x3c43b32c	0.011944573
169	0x3cb0db9d	0.021589095
170	0x3d51f155	0.051255543
171	0x3b6f7479	0.003653793
172	0xbc40fe3b	-0.011779363
173	0xbcac8b94	-0.02106265
174	0x3d2a92df	0.041643973
175	0xbc86e2cb	-0.016465565
176	0x3bc35240	0.0059607327
177	0x3c9aaf25	0.018882344
178	0xbbd94db8	-0.0066315793
179	0x3d4427ba	0.04788945
180	0xbdb5c549	-0.0887552
181	0x3cb0763d	0.021540755
182	0x3dab9720	0.08378434
183	0xbd7b9724	-0.061423436
184	0xbcba0b8d	-0.022710586
185	0x3d9bce57	0.076077156
186	0xbd5d0487	-0.053959396
187	0x3d42f106	0.04759314
188	0x3d95addc	0.07308552
189	0x3bc346db	0.0059593744
190	0xbbf53d7d	-0.0074841366
191	0xbd0619df	-0.032739516
192	0x3c8ca21c	0.017167144
193	0x3ab22fca	0.0013594565
194	0xbd535e0e	-0.05160337
195	0x3c1936a8	0.00935141
196	0xbd487b16	-0.04894551
197	0xbdc74464	-0.09729841
198	0x3d1a56d3	0.03768046
199	0xbdb25273	-0.08707132
200	0xbda51a61	-0.08061672
201	0x3df9dd87	0.12200456
202	0xbc04cdd7	-0.008105717
203	0xbcdcae33	-0.026938533
204	0x3d459265	0.048235316
205	0xbc4265f5	-0.011865129
206	0xbbc3b856	-0.0059729023
207	0xbd6dbf91	-0.05804402
208	0xbcb21613	-0.021739041
209	0x3cc3aaaa	0.02388509
210	0xbd9140ae	-0.07092415
211	0xbd7a901c	-0.06117259
212	0x3c2fa990	0.010721579
213	0xbd07f57a	-0.03319309
214	0x38112c42	3.4611912e-05
215	0xbc557668	-0.0130287185
216	0xbca713bf	-0.020395158
217	0xbd46054b	-0.04834489
218	0xbdf05b94	-0.11736217
219	0xbce24717	-0.027621789
220	0xbb8922f0	-0.004185073
221	0xbcfcde55	-0.030867735
222	0xbc165803	-0.009176257
223	0x3d30cc67	0.043163683
224	0x3cb8f339	0.022576915
225	0xbd6da15c	-0.058015212
226	0xbcb2ff0b	-0.02185013
227	0xbcb65ec1	-0.022261979
228	0x39c01fc7	0.0003664477
229	0xbd6dc7b3	-0.058051776
230	0xbcbebf8b	-0.023284694
231	0x3d8a1822	0.06742884
232	0x3bc2ba39	0.0059426096
233	0x3bd40797	0.0064706313
234	0xbd5148c5	-0.05109479
235	0x3cc9843a	0.024599183
236	0x3d94a37a	0.07257743
237	0xbd995a80	-0.07487965
238	0xbd045fa6	-0.03231778
239	0x3d227eba	0.039671637
240	0xbd0124c8	-0.031529218
241	0x3c32a6e7	0.01090405
242	0x3c7f2734	0.015573312
243	0x3d017f9b	0.031615835
244	0xbd16472d	-0.036688972
245	0xbcddd438	-0.027078733
246	0xbcabb5a0	-0.020960629
247	0xbbec7c11	-0.0072169383
248	0x3c6a8207	0.0143132275
249	0x3bc07054	0.0058727656
250	0xbcfa14b4	-0.03052745
251	0x3d166f2e	0.036727123
252	0xbd0ae92b	-0.033913773
253	0xbcd2ffef	-0.025756804
254	0x3b3a12dd	0.002839259
255	0x381b9c39	3.7100373e-05

dec_conv1a.bias f4 [32]
0	0x3be659f1	0.007029765
1	0x3cc161ff	0.023606298
2	0x3d1d17b1	0.038352672
3	0x3e085a3e	0.13315675
4	0xbd3a66a6	-0.04550805
5	0x3d5831d3	0.05278189
6	0x3e5680f9	0.20947637
7	0x3d18c67d	0.03729867
8	0x3ea40195	0.32032457
9	0x3e745fe3	0.23864703
10	0xbe5b387f	-0.2140827
11	0x3d8236f3	0.06358137
12	0xbd95a110	-0.07306111
13	0x3da367a9	0.07978756
14	0x3d62d86c	0.055382177
15	0xbd516c64	-0.05112876
16	0x3c1c22e5	0.009529804
17	0xbe3162dd	-0.1732287
18	0xbcdc14a7	-0.026865317
19	0x3d9fb0f2	0.077974215
20	0xbd99f523	-0.07517459
21	0x3c96789c	0.018368058
22	0x3da43b35	0.08019105
23	0xbe793bb7	-0.24339186
24	0x3bef40de	0.007301434
25	0xbbb81c6c	-0.0056186225
26	0x3dfb3fa7	0.12268
27	0x3b34c5f4	0.002758381
28	0xbe0a06f8	-0.13479221
29	0x3c814573	0.015780186
30	0xbe4862a5	-0.1956888
31	0x3dae5592	0.08512415
